runs/78/stochseq_model=RNN_layers=2_hidden=8.pt (torch, 5215 bytes, 10 tensors)

weight_ih_l0 f4 [8, 2]
000000 6b 57 85 3d 83 90 be 3e 77 7a 44 be 68 01 c4 3e
       0.06510814 0.3721963 -0.19187342 0.38282323
000010 70 65 17 3e be 37 9c 3e d0 0b 14 be 82 13 56 3e
       0.14784789 0.30511278 -0.14457631 0.20905879
000020 7c ae 63 be 6f f1 1f 3e d8 f4 47 3d 40 99 de 3e
       -0.2223453 0.15619443 0.048817486 0.43476295
000030 c1 16 65 3e 84 49 90 3e b2 8b 53 3d 84 74 92 3e
       0.22371961 0.28181088 0.051646896 0.2860452

weight_hh_l0 f4 [8, 8]
000000 a4 50 96 3e 1f 1c 39 be 4f bb a7 be dc 6e 33 bd
       0.293584 -0.18077134 -0.32760093 -0.043806896
000010 b6 f8 7a 3d 99 4f be be c1 b0 98 be e5 17 c2 3d
       0.061272345 -0.37170103 -0.29822353 0.09477214
000020 15 0c bd bd 76 f8 7a be 8e 0e 60 3e 38 73 b4 bd
       -0.0923082 -0.24508843 0.21880552 -0.08811039
000030 25 68 36 3d 09 73 c7 3d 69 64 5b bd 4e 5a c4 3c
       0.044532914 0.09738738 -0.053562555 0.023968842
000040 bf 11 b8 3d dd 70 0b be c4 b4 e3 3e 98 43 23 be
       0.0898776 -0.13617273 0.4447385 -0.15943754
000050 5f bd d1 3e bd d1 d5 bd ae 98 d1 bc d8 64 77 3d
       0.4096479 -0.10440395 -0.025585499 0.060398906
000060 6c 05 49 3e 1d 0b 6c bd 42 71 05 3e b9 d5 ba bd
       0.19630975 -0.057627786 0.13031486 -0.091227956
000070 a3 b7 a5 be 66 8a 9d 3e ab 41 64 be b1 2a 35 3e
       -0.32366666 0.30769652 -0.22290675 0.17692067
000080 88 6d 9a 3e 4e 9d 4d be 52 a6 a2 3e 8d 35 8d be
       0.3016169 -0.20079538 0.31767517 -0.27579919
000090 9a cd e7 bd a3 dc 40 3e 47 29 ae bb 72 91 46 3e
       -0.11318512 0.18834166 -0.0053149792 0.1939142
0000a0 bf e1 21 3c f4 4b 6a be 96 c7 41 be 0d c3 c1 3c
       0.009880482 -0.22880536 -0.18923792 0.023652578
0000b0 6b 46 55 3e 7c 1f 3b be a0 8a a0 be 0e 97 17 3e
       0.20827644 -0.18273729 -0.31355762 0.14803717
0000c0 61 10 93 3e ac 34 0b bd 18 8c 50 be 93 ad db 3e
       0.28723434 -0.03398578 -0.20365942 0.42905864
0000d0 bb e7 93 be 03 40 61 be 2a d9 1c be 6b 4f 66 3e
       -0.28887734 -0.21997075 -0.15317217 0.22491233
0000e0 db 07 1a 3e 34 96 a5 be c6 24 57 be 03 19 6a 3c
       0.15042059 -0.32341158 -0.21010122 0.01428819
0000f0 b3 b1 a5 3e 10 58 ac be f6 b1 a1 3d a1 62 1f be
       0.32362136 -0.33660936 0.078952715 -0.15564968

bias_ih_l0 f4 [8]
000000 84 e8 39 3e 72 64 da 3d 87 3d dc be d9 13 c4 3d
       0.18155104 0.1066369 -0.43015692 0.09574098
000010 d9 85 8f be 06 85 12 be 0d d5 82 bd e5 2a 5d 3e
       -0.28031805 -0.14308557 -0.063882925 0.21598394

bias_hh_l0 f4 [8]
000000 32 ae 01 3d e5 2a f2 3d e3 23 f5 bd eb 9d a2 3e
       0.031660266 0.11824588 -0.119697355 0.31761107
000010 82 f8 a5 be 00 36 7e 3e 4b c6 87 3e 78 cb 8c be
       -0.3241616 0.24825287 0.26518473 -0.27498984

weight_ih_l1 f4 [8, 8]
000000 9c 17 01 3f 89 bb c7 be 0f 7f 1b 3e 99 44 16 be
       0.5042665 -0.39010265 0.15185188 -0.14674605
000010 9d 51 c8 be ad 96 25 3d c8 d5 d7 3e e8 7c 4d be
       -0.39124766 0.0404269 0.4215529 -0.20067179
000020 ff 18 b3 3e 05 50 29 bc 85 8b 29 3e 09 5a ed 3c
       0.34980008 -0.01033402 0.16557129 0.028973596
000030 5c 4e 9a 3c 57 e0 98 3e 07 a1 4e be 04 52 6c bd
       0.018836193 0.29858658 -0.20178615 -0.057695404
000040 a0 f8 5d 3e 92 76 f6 3e 2f e6 ca 3e 6f 78 54 3e
       0.21676874 0.48137337 0.3962874 0.20749067
000050 04 bb ac 3d 6f 0f c8 3e 1c 91 b5 3e 45 91 bb 3c
       0.08434108 0.39074275 0.35462272 0.022896418
000060 6a 40 d8 3e c1 10 b8 3e dc 05 cd 3e c6 7f 03 be
       0.42236644 0.35950282 0.40043533 -0.1284171
000070 72 c6 af 3e 47 70 c2 3e 11 a7 95 3e f9 0a c4 3e
       0.3433109 0.37976286 0.29229024 0.3828962
000080 f7 61 0f 3f 45 c4 0d 3f c7 d8 66 bd f1 af ec 3e
       0.5600886 0.5537761 -0.05635908 0.46227983
000090 51 72 ac 3e 4c 5b 44 3e 0c b0 f4 3e e8 72 1d 3f
       0.33680966 0.19175452 0.47790563 0.6150346
0000a0 d8 5d f5 bd f8 a4 88 3d 8a a1 1c 3e 02 2e 72 be
       -0.1198079 0.0667209 0.15295997 -0.23650363
0000b0 0d 7b 1a bd 08 49 4f be 72 b3 a8 be d5 02 69 bc
       -0.037715007 -0.20242703 -0.32949406 -0.014221867
0000c0 d9 6e a2 3e a5 6f 8a 3e d9 28 e8 3d d2 1d e2 3e
       0.31725195 0.27038303 0.11335916 0.44163376
0000d0 dd 68 68 3c a8 9d 1d 3e 24 01 b9 3e fc 68 47 3d
       0.014185158 0.15392172 0.36133683 0.048684105
0000e0 79 52 09 bd ff b7 1f 3e 2d 6e 8a be e1 89 89 be
       -0.033525918 0.15597533 -0.27037182 -0.26863006
0000f0 6f e1 7d be f2 99 47 be 2d ab 81 3d f9 ff fb be
       -0.24793027 -0.19492319 0.06331477 -0.4921873

weight_hh_l1 f4 [8, 8]
000000 09 df 40 3e cb 96 94 be 74 57 25 3d 99 7d fa be
       0.18835081 -0.29021296 0.040366605 -0.48923948
000010 c2 b5 50 3e de 00 08 bf b8 a3 b4 3e 64 c6 54 be
       0.20381835 -0.53126323 0.35281157 -0.20778805
000020 cd d7 0a bf d0 58 73 3d a9 35 bf 3c 27 4c e0 3e
       -0.54235536 0.05941087 0.023341017 0.438081
000030 a6 b1 a6 3c 44 7c 84 3e aa de c3 be cf be 04 3b
       0.020348381 0.25876057 -0.38255817 0.0020255332
000040 13 b2 b2 3c d7 dd 48 3d 24 b5 9c 3e 2d c1 ea 3d
       0.021813428 0.049039688 0.3060695 0.114626266
000050 e9 56 93 3e 32 21 d8 3e 5a 81 93 be 22 b4 92 3d
       0.28777245 0.42212826 -0.28809625 0.07163264
000060 ff 0d 80 be c5 47 9d 3d fb 10 0e be ee 48 ed 3d
       -0.25010678 0.076797046 -0.13873665 0.11586176
000070 2b 93 d9 bd 31 30 30 bb 53 53 8a bd 31 b3 82 be
       -0.10623773 -0.0026884193 -0.06754174 -0.25527337
000080 bc cc 56 3e 76 59 2d bd 06 0f 5e bd 10 46 39 be
       0.20976537 -0.042321645 -0.054213546 -0.18093133
000090 38 46 70 be d5 c5 60 3e 80 d7 db 3e 80 52 26 bd
       -0.23464286 0.21950467 0.4293785 -0.040606022
0000a0 ac 93 0d be 45 9b 01 3f d7 44 74 be 60 fb 7e 3e
       -0.13825864 0.5062755 -0.23854385 0.2490058
0000b0 a6 2b 45 be 49 a4 7e 3e 25 b3 0e bf 92 0f 13 3e
       -0.19254932 0.24867357 -0.557421 0.14361408
0000c0 2c e3 05 3f 21 0b 4a 3e 11 b7 ce 3e f3 e4 a6 be
       0.5229976 0.19730808 0.40374044 -0.3259655
0000d0 9f 85 2a be 76 10 b7 3c 1a 3c 9a bd d3 ac 18 be
       -0.16652535 0.022346716 -0.07530995 -0.14909677
0000e0 a0 02 80 3d f1 e1 72 3e 4c b6 ca be 7c 0b 5f be
       0.06250501 0.23719002 -0.39592206 -0.21781725
0000f0 dd 45 65 be b0 cf 60 3e 54 7f 83 be d1 af 36 3e
       -0.22389932 0.21954226 -0.2568308 0.17840506

bias_ih_l1 f4 [8]
000000 ef e8 da 3e d8 73 96 3d c3 e8 12 3e 23 99 0e 3d
       0.4275584 0.07346314 0.14346604 0.03481401
000010 bc 75 ca 3d df e4 79 3e b2 7f 1a 3e 5d c0 00 be
       0.09885737 0.24403714 0.15087774 -0.12573381

bias_hh_l1 f4 [8]
000000 c3 47 0e bd 88 c8 32 be c3 b4 8a be 7c 9b 84 be
       -0.034736406 -0.17459309 -0.27091035 -0.25899875
000010 c6 2b 84 be 1f ee b7 bd 03 b5 34 3c 1d 75 42 be
       -0.25814646 -0.08980965 0.011029485 -0.18989988

weight f4 [2, 9]
000000 2b 25 13 3d 06 3a 28 3e 75 7d 14 3f 37 ac 29 3f
       0.035924118 0.16428384 0.5800393 0.66278404
000010 ca 4f 03 3f 07 d3 a5 be 4e 9f b6 3e ff e3 05 bf
       0.51293623 -0.32387564 0.35668415 -0.5230102
000020 ab da 96 3d f6 56 0d bf 06 00 18 3f 6c 8d 7f 3e
       0.07365926 -0.55210817 0.59375036 0.24956292
000030 78 a1 1d 3e 34 36 c5 bc 1c a0 f5 3e 10 6a ca be
       0.15393627 -0.024073698 0.47973716 -0.39534044
000040 13 a4 89 bd 11 09 62 bb
       -0.06720748 -0.0034490267

bias f4 [2]
000000 e9 9c 0b 3d be e7 d0 be
       0.034085188 -0.40801805
