models/neuron_27.pth (torch, 7967 bytes, 13 tensors)

net.conv_net.1.weight f4 [4, 2, 20]
-1.2856281e-13 -6.3567315e-15 2.1533934e-15 4.2620366e-16 3.9078993e-17 1.6629005e-18 2.976181e-20 6.619912e-22
2.9639082e-24 2.4370328e-26 2.2911727e-28 1.446348e-30 1.7115682e-31 -1.3309636e-32 -2.9135312e-29 -1.0037842e-26
-1.0798019e-23 -7.546078e-21 -8.953808e-19 -7.660347e-17 1.459849e-39 -1.63662e-40 -1.664544e-39 3.21087e-39
1.336697e-39 -5.7417e-40 2.932751e-39 1.592944e-39 -1.63056e-39 1.47893e-40 -2.772162e-39 9.79691e-40
3.847115e-39 -2.362883e-39 4.415588e-39 2.2044e-41 1.648605e-39 -5.31242e-40 3.462261e-39 9.63904e-40
-1.26945e-40 -8.7211e-41 -6.856e-41 -5.0825e-41 1.7843e-41 5.54e-41 5.8454e-41 5.7302e-41
2.293e-41 4.9323e-41 8.324e-41 8.5137e-41 -6.1943e-41 -7.4066e-41 3.5422e-41 1.16004e-40
-9.202e-41 -1.10026e-39 -1.5274407e-35 -1.9324861e-32 -4.1855e-41 2.647591e-39 -1.323802e-39 -1.636579e-39
3.412329e-39 -3.406311e-39 3.556112e-39 2.710874e-39 3.421866e-39 9.4945e-41 -6.46943e-40 -7.3149e-41
-2.493518e-39 -1.56549e-40 -1.06567e-40 4.5166e-40 8.05731e-40 -2.72432e-40 1.058566e-39 2.14275e-40
7.121267e-31 2.9035055e-35 3.39355e-40 -6.084e-42 -4.683e-41 -3.0156e-41 -1.7739e-41 9.529e-41
-3.9664e-41 3.2552e-41 -9.0272e-41 5.7445e-41 3.88164e-40 2.5696837e-34 1.1962322e-32 2.8963522e-29
2.1342634e-27 3.925671e-26 5.2187044e-25 3.3576575e-24 -1.4138e-39 -8.86586e-40 -3.46932e-40 5.89536e-40
2.912928e-39 3.768494e-39 -1.93813e-39 1.1843e-40 -2.375e-42 1.5803e-40 -5.56e-43 -3.7405e-41
-2.0813e-41 -7.8047e-41 -1.40419e-40 -3.8118e-41 -1.180758e-39 1.55506e-39 7.9325e-41 -1.503292e-39
4.5944e-41 3.112e-42 -2.7632e-41 -2.579e-41 -4.917e-41 -8.5814e-41 -5.7954e-41 -5.9002e-41
-1.61009e-40 -4.6453e-41 4.162e-42 -1.9408e-41 -6.512e-42 -1.673e-42 -7.2935e-41 9.56e-43
8.751e-41 6.7125e-41 1.12912e-40 1.78489e-40 3.4205e-40 6.34245e-40 1.47724e-39 -3.122348e-39
-7.11184e-40 -4.75347e-40 -2.703913e-39 4.17664e-39 -2.450713e-39 6.830025e-39 3.662585e-39 1.58848e-40
-1.18323e-40 1.195945e-39 -1.895134e-39 -2.884223e-39 -2.619889e-39 8.04634e-39 3.691e-41 1.417172e-39
00000000: b5bf 10aa 8006 e5a7 192b 1b27 8fb0 f525
00000010: 5538 3424 9b66 f521 d28b 0c1f 1713 481c
00000020: 4052 6518 1f5a f114 6738 9111 f2ae ea0d
00000030: 9c2c 5e0c 1537 8a8a ccbb 1390 e8d1 4694
00000040: 33dd 5099 988a 0e9e 8822 84a1 b5a2 b0a4
00000050: 77e5 0f00 39c8 0180 1220 1280 99f6 2200
00000060: 2b8e 0e00 8d40 0680 51ef 1f00 7b58 1100
00000070: 56c1 1180 449c 0100 a92f 1e80 fbaa 0a00
00000080: 31e4 2900 c2ba 1980 dd14 3000 733d 0000
00000090: a4f3 1100 e3c8 0580 60b3 2500 f97e 0a00
000000a0: df61 0180 1cf3 0080 1ebf 0080 ae8d 0080
000000b0: bd31 0000 6f9a 0000 f2a2 0000 bc9f 0000
000000c0: eb3f 0000 7e89 0000 0ae8 0000 54ed 0000
000000d0: acac 0080 77ce 0080 be62 0000 5f43 0100
000000e0: 8400 0180 14fb 0b80 e46c a285 4bae c88a
000000f0: ad74 0080 68d4 1c00 396a 0e80 1ed2 1180
00000100: 2f28 2500 6917 2580 feb8 2600 d084 1d00
00000110: c542 2500 ab08 0100 6a0b 0780 e9cb 0080
00000120: ea26 1b80 65b4 0180 1129 0180 0beb 0400
00000130: 0dc6 0800 6ef7 0280 da86 0b00 5055 0200
00000140: 2c19 670d 7860 1a06 fcb1 0300 f610 0080
00000150: 8b82 0080 1054 0080 7331 0080 a109 0100
00000160: 916e 0080 be5a 0000 a4fb 0080 22a0 0000
00000170: 0b3a 0400 e7c8 aa07 9d72 780a cddc 1210
00000180: 0118 2913 cb63 4215 d682 2117 a1e4 8118
00000190: 1965 0f80 71a7 0980 1bc7 0380 636b 0600
000001a0: 0fb8 1f00 0709 2900 b81a 1580 224a 0100
000001b0: 9f06 0080 86b8 0100 8d01 0080 4568 0080
000001c0: 053a 0080 90d9 0080 6e87 0180 426a 0080
000001d0: 79db 0c80 e0ee 1000 20dd 0000 915e 1080
000001e0: 1380 0000 ad08 0000 074d 0080 e447 0080
000001f0: 1189 0080 37ef 0080 8da1 0080 79a4 0080
00000200: d4c0 0180 7e81 0080 9a0b 0000 1a36 0080
00000210: 2712 0080 aa04 0080 50cb 0080 aa02 0000
00000220: f1f3 0000 1ebb 0000 c13a 0100 8ef1 0100
00000230: 7fb9 0300 04e8 0600 f215 1000 d6ff 2180
00000240: 7ebe 0780 132d 0580 6971 1d80 c67a 2d00
00000250: 97af 1a80 555f 4a00 cce1 2700 ceba 0100
00000260: d649 0180 cf05 0d00 dda2 1480 0a68 1f80
00000270: 2f87 1c80 ec9d 5700 e466 0000 806e 0f00

net.conv_net.1.bias f4 [4]
9.312e-41 -2.611528e-39 8.279376e-39 2.573014e-39
00000000: 9503 0100 e16f 1c80 8827 5a00 8404 1c00

net.conv_net.2.weight f4 [4]
3.3320124e-10 -8.8712506e-13 -2.9128917e-15 -4.60827e-40
00000000: e82d b72f 19b4 79ab 5ee5 51a7 9904 0580

net.conv_net.2.bias f4 [4]
-6.282554e-17 -8.057928e-21 -1.4877198e-25 -6.6346565e-29
00000000: a7dd 90a4 c035 189e b92b 3896 6235 a890

net.conv_net.2.running_mean f4 [4]
-1.2351564e-15 1.8810972e-34 -3.772469e-26 2.568974e-39
00000000: 3a01 b2a6 6c0a 7a07 bacd 3a95 41f9 1b00

net.conv_net.2.running_var f4 [4]
1.3219454e-26 6e-45 6e-45 6e-45
00000000: 4ceb 8214 0400 0000 0400 0000 0400 0000

net.conv_net.4.weight f4 [4, 4, 20]
8.4772e-41 3.7171e-41 -8.5699e-41 -2.18378e-40 -2.79406e-40 -4.66311e-40 -3.41359e-40 -3.11883e-40
-2.27155e-40 -2.08463e-40 -1.64801e-40 -1.34228e-40 -1.21624e-40 -1.14929e-40 -1.28719e-40 -1.48448e-40
-1.14468e-40 1.09149e-40 1.873e-41 -6.715e-42 -5.895e-42 -9.0452e-41 2.1234e-41 8.6735e-41
1.02205e-40 1.20788e-40 1.43161e-40 -1.8895e-40 -2.6334e-40 -4.02522e-40 -5.79609e-40 -1.098828e-39
-6.901186e-39 -4.119882e-38 -8.044104e-38 2.0767131e-38 5.6905937e-37 2.8295377e-36 3.957073e-36 2.581559e-36
1.4075e-41 -1.8386e-41 -9.0895e-41 7.023e-42 7.1277e-41 -9.617e-42 -5.7837e-41 -8.1554e-41
-1.23197e-40 -1.43346e-40 -1.57855e-40 -2.09078e-40 -3.45388e-40 -1.188017e-39 -7.890583e-39 -1.5784054e-37
-9.5310205e-37 -4.6972156e-36 -2.439291e-35 -1.1861888e-35 -3.1704e-41 2.7154e-41 -4.3955e-41 3.358e-42
1.4743e-40 -1.5187e-41 -5.6563e-41 -5.1089e-41 -1.38409e-40 -1.7505e-41 4.607e-41 -4.125e-41
3.4583e-41 6.9806e-41 3.0914e-41 -2.668e-42 1.39241e-40 -4.224e-42 -6.1042e-41 5.5482e-41
-1.044973e-18 -4.65384e-18 -1.196526e-17 -3.706003e-17 -5.893778e-17 -1.1552792e-16 -1.4631769e-16 -1.5928305e-16
-1.58758e-16 -1.0484836e-16 -7.022323e-17 -2.839596e-17 -1.3612956e-17 -4.032165e-18 -1.2970851e-18 -4.3847635e-19
-1.657718e-19 -5.6280115e-20 -1.873708e-20 -5.381351e-21 2.379749e-22 6.875466e-22 1.2960655e-21 2.3577689e-21
3.7946652e-21 4.8965574e-21 7.396042e-21 7.829191e-21 9.5178786e-21 9.206314e-21 9.314015e-21 9.8926415e-21
8.535985e-21 7.612455e-21 4.9368247e-21 2.7314754e-21 8.141232e-22 1.9964459e-22 1.136734e-23 -4.7145187e-23
1.47708e-22 4.225469e-22 1.6195496e-21 3.523352e-21 1.0812503e-20 2.6099947e-20 4.3497535e-20 8.152229e-20
9.773526e-20 7.790098e-20 7.136262e-20 5.3523103e-20 4.1297742e-20 3.7157622e-20 2.1205505e-20 1.599858e-20
8.23904e-21 4.316503e-21 1.8982844e-21 4.010706e-22 3.749268e-26 1.0548005e-25 2.8204398e-25 6.8900576e-25
1.2637673e-24 3.411616e-24 5.377804e-24 9.866325e-24 1.0967473e-23 8.1405515e-24 7.3998655e-24 2.1436339e-24
1.0843136e-24 4.4246705e-25 1.9414598e-25 1.726783e-25 9.571618e-26 4.3047194e-26 1.3443769e-26 2.7919912e-27
7.5394e-41 1.4728e-41 -6.9804e-41 -1.72e-41 3.5545e-41 2.1398e-41 -5.3067e-41 -1.02896e-40
-3.038e-42 3.1643e-41 3.517e-41 2.4573e-41 -1.4069e-41 -1.00049e-40 -1.6966e-41 -1.32102e-40
7.622e-42 -2.7213e-41 -4.1564e-41 -8.1903e-41 -5.962e-41 -2.5729e-41 4.4341e-41 1.21036e-40
2.3836e-41 -2.703e-42 -3.2942e-41 -4.0722e-41 -4.8156e-41 -7.4922e-41 -7.3876e-41 -7.9435e-41
-1.7135e-41 -8.11e-43 3.3784e-41 5.1935e-41 7.013e-41 8.4442e-41 8.2632e-41 8.9728e-41
3.3285e-41 -1.1327e-41 -7.3191e-41 -1.42613e-40 -6.5832e-41 -2.5607e-41 -7.664e-42 1.9405e-41
5.1894e-41 4.8737e-41 7.3752e-41 1.59657e-40 5.8124e-41 4.5259e-41 2.0598e-41 1.4142e-41
-3.2e-42 -2.1751e-41 -7.4763e-41 2.9363e-41 -4.386e-41 1.4526e-41 8.753e-41 -8.1647e-41
-1.28231e-40 -1.99448e-40 -2.2853e-40 -2.62692e-40 -2.41668e-40 -1.87738e-40 -1.49025e-40 -1.08982e-40
-6.7568e-41 5.6779e-41 5.2752e-41 -8.5287e-41 -7.9234e-41 7.8424e-41 7.6488e-41 6.2237e-41
-1.875831e-37 -3.5647584e-35 -2.7729813e-33 -3.8411015e-33 -1.2865443e-33 -3.9742847e-35 -3.9335475e-36 -6.863005e-39
-4.32921e-40 -1.57788e-40 -8.419e-41 4.484e-41 -1.31185e-40 5.6034e-41 -4.1092e-41 -1.29872e-40
00000000: 4fec 0000 9e67 0000 e5ee 0080 c060 0280
00000010: df0a 0380 e313 0580 92b7 0380 6765 0380
00000020: 3779 0280 1c45 0280 66cb 0180 2c76 0180
00000030: 0a53 0180 6040 0180 d166 0180 d09d 0180
00000040: 173f 0180 4330 0100 3634 0000 b812 0080
00000050: 6f10 0080 25fc 0080 313b 0000 c8f1 0000
00000060: e81c 0100 b550 0100 138f 0100 b70e 0280
00000070: 16de 0280 1162 0480 b74f 0680 16f7 0b80
00000080: b325 4b80 c64e 6081 39fb da81 5022 e200
00000090: 10a4 4103 e0b5 7004 b650 a804 609d 5b04
000000a0: 3c27 0000 4133 0080 61fd 0080 9413 0000
000000b0: b1c6 0000 cf1a 0080 3aa1 0080 57e3 0080
000000c0: 6c57 0180 978f 0180 09b8 0180 d346 0280
000000d0: cdc2 0380 b5ef 0c80 bceb 5580 67d7 5682
000000e0: 7329 a283 26cc c784 e9b1 0186 4346 7c85
000000f0: 6158 0080 b24b 0000 877a 0080 5c09 0000
00000100: fa9a 0100 562a 0080 ad9d 0080 6a8e 0080
00000110: d481 0180 cc30 0080 6d80 0000 fd72 0080
00000120: 6760 0000 97c2 0000 2d56 0000 7007 0080
00000130: 2684 0100 c60b 0080 29aa 0080 a99a 0000
00000140: f735 9aa1 47b2 aba2 58b8 5ca3 c3e8 2aa4
00000150: b9e6 87a4 d331 05a5 5cb1 28a5 0fa4 37a5
00000160: 1709 37a5 8cc3 f1a4 7aec a1a4 08f4 02a4
00000170: 5e1d 7ba3 b9c2 94a2 7d6a bfa1 566a 01a1
00000180: 74b5 43a0 3ee3 849f 7bf7 b09e 3c4d cb9d
00000190: d5d8 8f1b 57cc 4f1c 1bdb c31c e225 321d
000001a0: c05b 8f1d 99fc b81d 11b5 0b1e a5e3 131e
000001b0: a3c9 331e 01e7 2d1e d0ef 2f1e e1dd 3a1e
000001c0: 7e3d 211e 93cb 0f1e 0a82 ba1d 6b62 4e1d
000001d0: bb0d 761c 025b 711b 57e0 5b19 eafa 639a
000001e0: 6991 321b f769 ff1b 4abd f41c c51b 851d
000001f0: 0e3e 4c1e cd81 f61e 4b69 4d1f 337d c01f
00000200: 57c5 e61f 41f0 b71f 0f80 a81f 76c1 7c1f
00000210: e805 431f cf78 2f1f c447 c81e 311a 971e
00000220: 8ea1 1b1e a812 a31d 296e 0f1d ab6e f21b
00000230: 9ea7 3915 f693 0216 a793 ae16 a93c 5517
00000240: fb8e c317 02fb 8318 310b d018 add7 3e19
00000250: 4c24 5419 0f76 1d19 5c22 0f19 0bdb 2518
00000260: 16ca a717 daef 0817 5157 7016 f0c3 5516
00000270: 56fb ec15 cd28 5515 0124 8514 4f34 5d13
00000280: 2bd2 0000 0e29 0000 96c2 0080 f22f 0080
00000290: 1663 0000 a63b 0000 ee93 0080 d51e 0180
000002a0: 7808 0080 3558 0000 0a62 0000 8044 0000
000002b0: 3827 0080 e516 0180 4b2f 0080 3f70 0180
000002c0: 3f15 0000 dc4b 0080 dd73 0080 50e4 0080
000002d0: 32a6 0080 b947 0080 9b7b 0000 6651 0100
000002e0: 7242 0000 8907 0080 d45b 0080 8471 0080
000002f0: 3d86 0080 dad0 0080 f0cd 0080 6fdd 0080
00000300: c42f 0080 4302 0080 2d5e 0000 c690 0000
00000310: 7ec3 0000 64eb 0000 58e6 0000 20fa 0000
00000320: c95c 0000 931f 0080 07cc 0080 8c8d 0180
00000330: 83b7 0080 6247 0080 5d15 0080 1836 0000
00000340: a990 0000 dc87 0000 97cd 0000 0fbd 0100
00000350: 07a2 0000 2a7e 0000 6b39 0000 6c27 0000
00000360: ec08 0080 a23c 0080 69d0 0080 da51 0000
00000370: 447a 0080 7e28 0000 fff3 0000 99e3 0080
00000380: 7565 0180 fb2b 0280 0c7d 0280 47dc 0280
00000390: aca1 0280 560b 0280 6c9f 0180 cc2f 0180
000003a0: 5abc 0080 479e 0000 0d93 0000 bfed 0080
000003b0: dfdc 0080 9dda 0000 38d5 0000 7ead 0000
000003c0: 2c53 7f82 fa88 3d86 ca5e 6689 998d 9f89
000003d0: 8bc3 d588 294f 5386 8a50 a784 44bb 4a80
000003e0: cfb6 0480 d9b7 0180 b0ea 0080 ff7c 0000
000003f0: b16d 0180 339c 0000 8c72 0080 086a 0180

net.conv_net.4.bias f4 [4]
-3.3212403e-17 -4.2497312e-08 -1.7834972e-16 1.001609e-06
00000000: 492a 19a4 4a86 36b3 8c9f 4da5 066f 8635

net.conv_net.5.weight f4 [4]
3.6306594e-13 0.00064407167 1.3900658e-12 0.007011783
00000000: 5163 cc2a ebd6 283a 66a2 c32b 19c3 e53b

net.conv_net.5.bias f4 [4]
1.1843997 1.820388 0.8245563 1.6159014
00000000: 699a 973f 7902 e93f 1f16 533f dbd5 ce3f

net.conv_net.5.running_mean f4 [4]
-3.1990244e-17 -4.035052e-08 -1.8953934e-16 1.0044084e-06
00000000: 6a87 13a4 de4d 2db3 2486 5aa5 36cf 8635

net.conv_net.5.running_var f4 [4]
6e-45 6e-45 6e-45 6e-45
00000000: 0400 0000 0400 0000 0400 0000 0400 0000

net.conv_net.7.weight f4 [1, 4, 1]
-1.1841279 -1.8202527 -0.8244093 -1.6181054
00000000: 8191 97bf 0afe e8bf 7d0c 53bf 141e cfbf
