models/neuron_23.pth (torch, 7967 bytes, 13 tensors)

net.conv_net.1.weight f4 [4, 2, 20]
0	0xb39cae5c	-7.296032e-08
1	0xb2ee7ade	-2.776272e-08
2	0xb330e2bb	-4.1184403e-08
3	0xb2b484ba	-2.1015115e-08
4	0xb2d3b02b	-2.4643745e-08
5	0xb234f490	-1.0532986e-08
6	0xb130f789	-2.5752078e-09
7	0xaf11f053	-1.3273053e-10
8	0xaa2fc3c5	-1.5611044e-13
9	0x2803f4a5	7.32501e-15
10	0x1dedc4de	6.2936934e-21
11	0x1bd29440	3.483739e-22
12	0x071e54d5	1.1911529e-34
13	0x8555252e	-1.0022041e-35
14	0x864a05f9	-3.7996365e-35
15	0x1843e8bf	2.5320666e-24
16	0x24533000	4.579399e-17
17	0x2d8906cd	1.5578117e-11
18	0xafc304b8	-3.5473646e-10
19	0xb32ac492	-3.975999e-08
20	0x800486cc	-4.15698e-40
21	0x80076837	-6.80234e-40
22	0x00088a4a	7.84293e-40
23	0x800ecad5	-1.35846e-39
24	0x00100344	1.47054e-39
25	0x0006562b	5.81924e-40
26	0x000ad220	9.93734e-40
27	0x8001ab85	-1.53365e-40
28	0x8006c892	-6.22964e-40
29	0x8006924d	-6.03496e-40
30	0x0001c217	1.61462e-40
31	0x8016cf18	-2.094672e-39
32	0x00164ea9	2.048599e-39
33	0x80031efd	-2.86623e-40
34	0x8019fddd	-2.386956e-39
35	0x80181f33	-2.215244e-39
36	0x8017bd17	-2.180049e-39
37	0x000bfa2f	1.09994e-39
38	0x80045535	-3.97909e-40
39	0x80012415	-1.04779e-40
40	0x3ea5f720	0.32415104
41	0x3e8025b6	0.2502877
42	0x3e0f1acf	0.1397507
43	0x3d0ea22c	0.034822628
44	0xbe32545c	-0.17414993
45	0xbe9622ae	-0.29323334
46	0xbe86a41b	-0.26297078
47	0xbe17bb9b	-0.1481766
48	0xbaf2ce33	-0.0018524587
49	0x3d8aa999	0.067706294
50	0x3e21fa1a	0.15818062
51	0x3e0fddca	0.1404945
52	0x3dcd6fa8	0.10031062
53	0x3e5d897e	0.2163448
54	0x3e8ddd9d	0.2770814
55	0x3e46b24e	0.19403955
56	0x3e0c2947	0.13687621
57	0xbb2d1fe5	-0.0026416716
58	0xbda5f8b3	-0.08104076
59	0xbe43df07	-0.19128047
60	0xbb94f3ee	-0.0045456802
61	0xbb87d85c	-0.004145665
62	0xbb8c6ff3	-0.0042858063
63	0xbb9ea3cd	-0.004841304
64	0xbba068d2	-0.004895308
65	0xbc745dc3	-0.014914933
66	0xbcb108b4	-0.021610595
67	0xbc4c9820	-0.012487441
68	0xbb4e04cc	-0.0031435965
69	0xbbb5b24a	-0.0055449354
70	0x3b8d68a7	0.004315454
71	0x3b8c4de5	0.0042817467
72	0xbcd3b734	-0.025844194
73	0xbdf0a530	-0.11750257
74	0xbe80135d	-0.25014773
75	0xbe97a5e9	-0.29618767
76	0xbe8108ce	-0.2520203
77	0xbe8589fe	-0.26081842
78	0xbebefb0d	-0.37300912
79	0xbf100fc2	-0.56274045
80	0xb45ff97c	-2.0859255e-07
81	0xb51d2030	-5.8533897e-07
82	0xb62dd73d	-2.5904294e-06
83	0xb6f027b8	-7.1571812e-06
84	0xb788bec3	-1.6301294e-05
85	0xb7b79d9c	-2.1888693e-05
86	0xb7e782c0	-2.7598231e-05
87	0xb7e25047	-2.6978681e-05
88	0xb79094b8	-1.723539e-05
89	0xb735df74	-1.0840467e-05
90	0x3513c3ad	5.5046513e-07
91	0x36e2aa8f	6.7551805e-06
92	0x3704fd64	7.92681e-06
93	0x36b06ac3	5.2576374e-06
94	0x361e1f5b	2.3562086e-06
95	0x352bb364	6.396351e-07
96	0x340667db	1.2517505e-07
97	0x32835ba2	1.5292077e-08
98	0x311241db	2.128323e-09
99	0x30753a06	8.9212937e-10
100	0x00175042	2.141007e-39
101	0x80182db6	-2.22045e-39
102	0x80156d84	-1.967832e-39
103	0x00058818	5.07999e-40
104	0x80043466	-3.86139e-40
105	0x001c067c	2.57372e-39
106	0x8012c394	-1.723199e-39
107	0x0002ee2d	2.69112e-40
108	0x001a3165	2.405442e-39
109	0x002ba21c	4.00708e-39
110	0x001da708	2.723149e-39
111	0x801bd824	-2.557095e-39
112	0x8015fa99	-2.018443e-39
113	0x0020a296	2.997061e-39
114	0x80170a6c	-2.115955e-39
115	0x0003b8af	3.41758e-40
116	0x800607c1	-5.53795e-40
117	0x8001a670	-1.51542e-40
118	0x80018e59	-1.429e-40
119	0x8002f5cf	-2.7185e-40
120	0x0003228a	2.87897e-40
121	0x00021109	1.89782e-40
122	0x00028dbc	2.34516e-40
123	0x0030c616	4.479164e-39
124	0x1164665a	1.8017568e-28
125	0x1a54553b	4.390942e-23
126	0x1f129c20	3.1045846e-20
127	0x2158593f	7.3301763e-19
128	0x1f3585be	3.843887e-20
129	0x1d9ee6f7	4.2061064e-21
130	0x166730c4	1.8675419e-25
131	0x0a958add	1.4400413e-32
132	0x00027fa0	2.29454e-40
133	0x8000b521	-6.4977e-41
134	0x80008780	-4.8608e-41
135	0x80001f24	-1.1171e-41
136	0x00004874	2.5991e-41
137	0x80005272	-2.9576e-41
138	0x0001ee2f	1.7728e-40
139	0x0af2e1f5	2.3388748e-32
140	0x0000c1cc	6.9521e-41
141	0x0000599b	3.2144e-41
142	0x0000ea7c	8.4117e-41
143	0x800084c2	-4.7625e-41
144	0x80007844	-4.3143e-41
145	0x00003663	1.951e-41
146	0x00013900	1.12283e-40
147	0x80004ff8	-2.8687e-41
148	0x00046d8f	4.06644e-40
149	0x800050f4	-2.904e-41
150	0x0000f5cf	8.818e-41
151	0x8000046a	-1.583e-42
152	0x800107ac	-9.4588e-41
153	0x000068ec	3.7639e-41
154	0x0000e23d	8.1159e-41
155	0x80004bb3	-2.7156e-41
156	0x0000f030	8.6163e-41
157	0x800c9678	-1.156004e-39
158	0x0003e359	3.57063e-40
159	0x000103a5	9.3143e-41

net.conv_net.1.bias f4 [4]
0	0x80035486	-3.05828e-40
1	0x34a19b8f	3.010177e-07
2	0x00078957	6.92117e-40
3	0x800ead68	-1.347903e-39

net.conv_net.2.weight f4 [4]
0	0xb5f09ac2	-1.7926434e-06
1	0x3edde3d2	0.43337876
2	0xacf375b6	-6.919544e-12
3	0x150e6e54	2.8763705e-26

net.conv_net.2.bias f4 [4]
0	0xb226eb2d	-9.7159445e-09
1	0xbf0cd436	-0.5501131
2	0xab3c13ab	-6.681831e-13
3	0x97f2a149	-1.5679598e-24

net.conv_net.2.running_mean f4 [4]
0	0xb098b988	-1.1112187e-09
1	0xbb14aa20	-0.002268441
2	0xb4e58b61	-4.2755985e-07
3	0x1c9fa031	1.0563146e-21

net.conv_net.2.running_var f4 [4]
0	0x29249da3	3.6552043e-14
1	0x3f083248	0.53201723
2	0x321ec368	9.241241e-09
3	0x032b2efb	5.0306314e-37

net.conv_net.4.weight f4 [4, 4, 20]
0	0x2fdac745	3.9795559e-10
1	0x30661e7f	8.371685e-10
2	0x30a78833	1.2189559e-09
3	0x30ca277f	1.470866e-09
4	0x30460d75	7.2051104e-10
5	0x2fa253e8	2.9527247e-10
6	0x2f4fe400	1.8907542e-10
7	0x2eaa8c8c	7.755671e-11
8	0x2df8a761	2.8268667e-11
9	0x2c6cde3e	3.3660986e-12
10	0xac3db315	-2.6957926e-12
11	0xacaa5b64	-4.841837e-12
12	0xabbbea66	-1.3352208e-12
13	0xab45add5	-7.02297e-13
14	0xa973a703	-5.41017e-14
15	0xa873b39a	-1.3528155e-14
16	0xa80f4a23	-7.9541705e-15
17	0xa93ae053	-4.1494867e-14
18	0xa9739b21	-5.4091392e-14
19	0xa7844073	-3.6707236e-15
20	0x3e299b45	0.16563137
21	0x3e2c7c34	0.16844255
22	0x3d5f03a2	0.054446824
23	0xbd0f6fad	-0.03501861
24	0xbde48b38	-0.11159366
25	0x3bb2a2be	0.0054515293
26	0xbd10877c	-0.035285458
27	0xbd98aa30	-0.07454336
28	0xbd5503a0	-0.05200541
29	0xbd377dd4	-0.044797733
30	0xbc52cc89	-0.012866148
31	0xbe2ac5cc	-0.16677016
32	0xbea3d6e0	-0.31999874
33	0xbeac05fc	-0.33598316
34	0xbe500b69	-0.20316853
35	0xbd6417ae	-0.055686645
36	0x3dab6cde	0.08370374
37	0x3e1ab243	0.15107064
38	0x3dd3fc4d	0.10350857
39	0xbcaa6758	-0.020801231
40	0xaa8b1a28	-2.470951e-13
41	0xaa2a392d	-1.511887e-13
42	0x27c89713	5.5674946e-15
43	0xa7265884	-2.3085112e-15
44	0xa8237b18	-9.075009e-15
45	0xa9adc5be	-7.717046e-14
46	0xa9d25773	-9.3410434e-14
47	0xa97b07ff	-5.574013e-14
48	0xa78beec2	-3.883911e-15
49	0xa39a2d65	-1.6715939e-17
50	0x261bc06f	5.4037224e-16
51	0x2543b005	1.6973192e-16
52	0x250b549d	1.2084996e-16
53	0x24035321	2.847651e-17
54	0x24114eb8	3.150854e-17
55	0x22943206	4.0168445e-18
56	0x211ea25a	5.3747353e-19
57	0x2129a52a	5.747802e-19
58	0x1e129dc8	7.761804e-21
59	0x1f1ceb8e	3.322913e-20
60	0x9d3ac054	-2.4716326e-21
61	0x9d1b9d14	-2.0595287e-21
62	0x9cd4eb1b	-1.4089757e-21
63	0x9d48ca71	-2.657444e-21
64	0x9d1165ff	-1.924332e-21
65	0x9d1c206c	-2.066319e-21
66	0x9db17c19	-4.6979824e-21
67	0x9d3875b9	-2.4413058e-21
68	0x9cc6f151	-1.316492e-21
69	0x9bcaad2e	-3.3530011e-22
70	0x9be8599b	-3.8439087e-22
71	0x9c727a2c	-8.0228987e-22
72	0x9c9185a1	-9.629837e-22
73	0x9c8d7cc9	-9.362854e-22
74	0x9c89bd6c	-9.114864e-22
75	0x9bba29df	-3.0798177e-22
76	0x1cf7ce4f	1.6398418e-21
77	0x1d6f6238	3.1682165e-21
78	0x1db3b4ce	4.7567853e-21
79	0x1e94354a	1.569215e-20
80	0x21784aba	8.412457e-19
81	0x222b44e1	2.3211286e-18
82	0x22d7f0b9	5.853074e-18
83	0x240b6e63	3.023432e-17
84	0x2618c423	5.300141e-16
85	0x27bad6e5	5.185836e-15
86	0x285de923	1.2318518e-14
87	0x28418318	1.0742079e-14
88	0x2869cfce	1.2979159e-14
89	0x25a61729	2.8812104e-16
90	0xa423a411	-3.548396e-17
91	0x9ff1ae71	-1.0235606e-19
92	0x9937fd9b	-9.5120935e-24
93	0x954d5063	-4.1462834e-26
94	0x94a13f9c	-1.6281935e-26
95	0x19a7c23b	1.7345844e-23
96	0x1f0ab271	2.937024e-20
97	0x22871a16	3.6619443e-18
98	0x245a393a	4.7319688e-17
99	0x259e741f	2.7487318e-16
100	0xbed39c5b	-0.41330227
101	0xbe8b7f47	-0.27245542
102	0xbe64f1af	-0.2235782
103	0xbe26d024	-0.16290337
104	0xbd5097dd	-0.050926078
105	0x3dbef631	0.09324301
106	0x3e126371	0.14295746
107	0x3e23e107	0.1600381
108	0x3df708c4	0.12062219
109	0x3c8f2cd5	0.017477432
110	0xbbe98cd2	-0.007127383
111	0x3af149a5	0.0018408789
112	0x3d477cef	0.04870313
113	0x3db99a92	0.09062685
114	0x3e1850b3	0.14874534
115	0x3de18f7f	0.11013698
116	0x3d439f13	0.047759127
117	0xbd349520	-0.04408753
118	0xbe73315f	-0.23749302
119	0xbeeefde1	-0.4667807
120	0x23cf8e5c	2.2503277e-17
121	0x244c4055	4.428994e-17
122	0x24df7259	9.6904546e-17
123	0x258fc320	2.4938768e-16
124	0x25a4ad09	2.8566718e-16
125	0x258e516a	2.4688242e-16
126	0x243e93a5	4.1324742e-17
127	0x226b0ec1	3.185625e-18
128	0x208f5248	2.4279591e-19
129	0x1edfd6b1	2.3699838e-20
130	0x1e07c8b0	7.188342e-21
131	0x1f464d57	4.1992105e-20
132	0x20a18362	2.7361403e-19
133	0x22017ceb	1.7548891e-18
134	0x223f3302	2.591233e-18
135	0x229ba58d	4.2188118e-18
136	0x22448cc8	2.6637482e-18
137	0x21766cf6	8.349225e-19
138	0x2061de22	1.9131739e-19
139	0x1e0eea0c	7.565817e-21
140	0x93a55328	-4.1733854e-27
141	0x96ee3ad4	-3.84881e-25
142	0x99de0085	-2.2954472e-23
143	0x9cdf6508	-1.4783018e-21
144	0x9edbbf91	-2.3266757e-20
145	0xa0d9bf55	-3.6887843e-19
146	0xa29a1a6b	-4.1769755e-18
147	0xa32d82c7	-9.406042e-18
148	0xa38f7a06	-1.555577e-17
149	0xa3e2c23a	-2.4585227e-17
150	0xa409318d	-2.974911e-17
151	0xa4398df5	-4.0235723e-17
152	0xa3d48eaa	-2.3045507e-17
153	0xa3a3b8c4	-1.7750747e-17
154	0xa3c68caa	-2.1526777e-17
155	0xa32295a6	-8.813727e-18
156	0xa2d57023	-5.7852495e-18
157	0xa2cba185	-5.5194276e-18
158	0xa2f48acb	-6.6283285e-18
159	0xa34d1ab3	-1.1118726e-17
160	0x02293e45	1.243403e-37
161	0x8448c298	-2.359924e-36
162	0x067001b8	4.5140246e-35
163	0x88640d81	-6.862713e-34
164	0x09a49fc0	3.9631792e-33
165	0x8ac8bcc3	-1.9330304e-32
166	0x0c3b74c4	1.4441094e-31
167	0x8e80e918	-3.1778897e-30
168	0x12d22c6d	1.3263815e-27
169	0x141c4cc1	7.891124e-27
170	0x159131f2	5.8643833e-26
171	0x162f0672	1.4138421e-25
172	0x169c0b7e	2.5210412e-25
173	0x166774bb	1.8696865e-25
174	0x159859c6	6.153395e-26
175	0x143c0ef6	9.494525e-27
176	0x129ec43d	1.0019578e-27
177	0x8d85a15e	-8.235606e-31
178	0x0c91f330	2.248715e-31
179	0x8b95acf5	-5.765295e-32
180	0xbd680457	-0.056644764
181	0xbc81e80d	-0.01585772
182	0xbd393cc2	-0.04522396
183	0xbcde4bad	-0.027135694
184	0xbcf8d0f8	-0.030373082
185	0x3d2d09cd	0.042245675
186	0x3c418084	0.011810426
187	0xbca7beba	-0.020476688
188	0xbcbd100c	-0.02307894
189	0xbd8a3dac	-0.06750044
190	0xbd4a587d	-0.049400795
191	0xbda3aaa9	-0.07991535
192	0xbde113a0	-0.10990071
193	0xbdb4eb5f	-0.08833956
194	0xbcf55347	-0.029946936
195	0x3a8fb918	0.0010965196
196	0x3ca61de2	0.020277921
197	0x39f0df15	0.00045942576
198	0xbddbd8aa	-0.10734685
199	0xbe843655	-0.25822702
200	0x94effa7a	-2.4231628e-26
201	0x94680090	-1.1713118e-26
202	0x13d5797b	5.388855e-27
203	0x945848e4	-1.0919588e-26
204	0x9473abc3	-1.2302239e-26
205	0x94884b96	-1.3762304e-26
206	0x94ffbea8	-2.582362e-26
207	0x94127e04	-7.3959685e-27
208	0x16d783b9	3.4818252e-25
209	0x17c27bee	1.256824e-24
210	0x17af5faa	1.1333259e-24
211	0x972422c8	-5.303516e-25
212	0x97c054f2	-1.2429152e-24
213	0x971f383c	-5.144665e-25
214	0x95449b67	-3.9704476e-26
215	0x153897f4	3.7278374e-26
216	0x929aaa82	-9.7608e-28
217	0x93cef4f1	-5.224324e-27
218	0x938479d5	-3.344162e-27
219	0x9287551b	-8.540678e-28
220	0x0000c1c9	6.9517e-41
221	0x0000fc9b	9.0618e-41
222	0x00007ed2	4.5495e-41
223	0x80000b30	-4.013e-42
224	0x800041a1	-2.3543e-41
225	0x800068b5	-3.7562e-41
226	0x000057a8	3.1445e-41
227	0x00005ae6	3.2608e-41
228	0x00007ff9	4.5908e-41
229	0x00007c7c	4.4657e-41
230	0x0000a4ed	5.9164e-41
231	0x0000afa4	6.3008e-41
232	0x00007fe4	4.5879e-41
233	0x00004f4f	2.845e-41
234	0x0000769f	4.2553e-41
235	0x0000a307	5.8483e-41
236	0x0000ad47	6.216e-41
237	0x000067a1	3.7175e-41
238	0x80003644	-1.9467e-41
239	0x800099a4	-5.5116e-41
240	0x9e00751f	-6.800484e-21
241	0xa092f15a	-2.4893075e-19
242	0xa2bba653	-5.0862554e-18
243	0xa5052a82	-1.1550313e-16
244	0xa6a5c312	-1.1502049e-15
245	0xa97dee63	-5.6384053e-14
246	0xac9bfa43	-4.4331496e-12
247	0x2b616f1c	8.0090253e-13
248	0xaf2bc043	-1.5620664e-10
249	0xaf77cdcd	-2.2537634e-10
250	0xaf05adfc	-1.2158091e-10
251	0xaf85e99c	-2.4358549e-10
252	0xac29aa6a	-2.4110943e-12
253	0xab64501a	-8.1113035e-13
254	0xa6dd4008	-1.5352311e-15
255	0xaa81add6	-2.3035626e-13

net.conv_net.4.bias f4 [4]
0	0xb4e8c9f4	-4.3360308e-07
1	0x37c0f599	2.3002549e-05
2	0xb7dca349	-2.630208e-05
3	0x005fbe8a	8.792725e-39

net.conv_net.5.weight f4 [4]
0	0x3f0821be	0.53176486
1	0x3f1d0c7f	0.6134719
2	0x3e17bc08	0.14817822
3	0x3ca6facc	0.020383261

net.conv_net.5.bias f4 [4]
0	0x3fdeafb4	1.739737
1	0x3fbed38a	1.4908307
2	0x3fc99981	1.5749971
3	0xbd27aa5e	-0.04093396

net.conv_net.5.running_mean f4 [4]
0	0xbc5aafbc	-0.013347562
1	0xbc84f032	-0.016227815
2	0xbc8ad65e	-0.016947921
3	0xb3d787e3	-1.0036435e-07

net.conv_net.5.running_var f4 [4]
0	0x3baba0ad	0.00523766
1	0x3bcbd892	0.0062208856
2	0x3b0f67ac	0.0021881862
3	0x2a081f30	1.2090047e-13

net.conv_net.7.weight f4 [1, 4, 1]
0	0xbfe005df	-1.7501792
1	0xbfc25010	-1.5180683
2	0xbfc54fbf	-1.5414962
3	0x3cd0453a	0.025423635
