models/neuron_24.pth (torch, 7967 bytes, 13 tensors)

net.conv_net.1.weight f4 [4, 2, 20]
00000000: e4e0 25bf 3cab 9fbe 7c59 72be e39b f9bd
00000010: 809d 603d 15e1 2d3d f197 04bd d69e 94be
00000020: 1749 8ebe 4f93 90be 46c6 acbe 0c78 cebe
00000030: 50b2 b5be 04b4 2dbd 2f8e ef3e afa2 593f
00000040: d3b8 763f e77e 513f d647 153f a079 c73e
00000050: 1051 933d 3b5a 963c ac43 d23c aa2b 1e3b
00000060: f3b7 a8bd a513 91bd 5b96 c53d f4eb cabc
00000070: 32e8 753e d480 763d 70c6 e1bd c198 dd3c
00000080: 5eda 3d3d d3b7 673d c249 973d fa32 ec3c
00000090: 2a92 fabd 778a a6be 8347 84be 97ff 63bf
000000a0: 0a0e 293f 487d a13e dba9 d03d b7f5 a33c
000000b0: a9be a03c f69c e93d e463 883e 12b4 d23e
000000c0: bf9f d53e 19fb ac3e 5791 c33d b8db 9fbe
000000d0: 5cae 23bf 393c 4bbf 990d 22bf e1bf dcbe
000000e0: 095b 65be 244a aa3d 1db5 273e 3687 283e
000000f0: 8bc9 69bd 7112 babe b9c6 10bf 48cd 6ebe
00000100: 2401 9fbd 4c2b 5ebc b910 2cbc 165f 99bd
00000110: 117b 5abd 8a55 d8bc 093a 2c3e 2dc4 5bbd
00000120: 918b 21be bedc 86bd 1c24 4dbd 98d2 1b3d
00000130: eae0 33be 2393 8ebe 87ab 95be d14a 56be
00000140: 16fc 9b27 0b4b a326 4687 9525 066b 6824
00000150: 7b57 0623 fd55 0a21 3f34 7d1e 478b db1a
00000160: e12a 8795 a3aa 2591 c7ea 568a 6f20 2182
00000170: 65c9 0880 14c0 1480 50b6 7385 51d3 308c
00000180: d765 9792 0c11 0396 7260 f11c 2924 4221
00000190: 1602 0000 c7a9 0080 8b29 0100 b990 0080
000001a0: 1b5d 0000 c2b7 0000 5678 0080 3e66 0080
000001b0: b8a2 0000 a69e 0000 8f69 0000 5652 0080
000001c0: 54c3 0100 ff25 0080 91b3 0000 30a6 0080
000001d0: 4ab2 0000 bf8d 0000 f48b 0100 024a 0000
000001e0: 6d18 2c3d c5f9 9dbb 0910 bfbd 9fab 4abd
000001f0: 9490 f1bc 68ed abbd a1a8 01be 16c1 54be
00000200: a191 b3bd 4d3f ae3d f270 123e 94b6 2c3e
00000210: 94bb c23c ae26 ecbd 8409 5cbb 91e7 163e
00000220: c0b3 a23d 72b5 373d 1c61 44be d4cc d4be
00000230: 196e ba3e 25fb e73e c959 ac3e 896d 893e
00000240: 9778 833d cfe6 bfbd 9719 7e3d 93f4 573d
00000250: 22a8 ab3d e88e 69be 0fb7 b73d d843 ea3d
00000260: 7c32 3c3e c0a8 a63c f5ab 2bbc 56ff 433d
00000270: 949c f83e 668c 423f 24b1 193e cdd6 293f
-0.6479628 -0.3118533 -0.23666948 -0.12187936 0.054837704 0.042450983 -0.032371465 -0.29027432
-0.27790138 -0.28237388 -0.3374502 -0.40325963 -0.35487604 -0.042408004 0.46788165 0.8501386
0.9637577 0.8183426 0.5831274 0.3895998 0.07193196 0.018353572 0.025667034 0.0024134913
-0.082382105 -0.07083825 0.09647819 -0.024770714 0.24014357 0.060181454 -0.11024177 0.027050378
0.04635083 0.056571793 0.07387115 0.028832901 -0.1223491 -0.32527515 -0.2583581 -0.89061874
0.66037047 0.31540895 0.10188647 0.020014627 0.019622164 0.11406891 0.2663871 0.41153008
0.4172344 0.33785322 0.09549206 -0.3122232 -0.63937926 -0.7938877 -0.63302 -0.43115142
-0.22398008 0.083149225 0.16377683 0.16457829 -0.057076972 -0.36342195 -0.56553227 -0.23320496
-0.077638894 -0.0135601275 -0.010502034 -0.07488839 -0.05334002 -0.026407976 0.16819014 -0.053653885
-0.15775897 -0.06585072 -0.050083265 0.038042635 -0.17566267 -0.2784663 -0.29232427 -0.20926978
4.3294454e-15 1.1330738e-15 2.5939045e-16 5.0397633e-17 7.282679e-18 4.6870023e-19 1.3404513e-20 9.080129e-23
-5.4593717e-26 -1.3068786e-28 -1.0347882e-32 -1.183772e-37 -8.06931e-40 -1.905615e-39 -1.14592906e-35 -1.3622138e-31
-9.554545e-28 -1.0587475e-25 1.5972973e-21 6.5777614e-19 7.48e-43 -6.0905e-41 1.06738e-40 -5.1917e-41
3.34e-41 6.592e-41 -4.3168e-41 -3.6678e-41 5.8372e-41 5.6912e-41 3.7867e-41 -2.9537e-41
1.61906e-40 -1.363e-41 6.4416e-41 -5.9617e-41 6.3958e-41 5.0849e-41 1.42041e-40 2.6549e-41
0.04201548 -0.0048210346 -0.0932923 -0.049480077 -0.029487886 -0.08394891 -0.12661983 -0.20776781
-0.08768011 0.085081674 0.14300898 0.16866523 0.023771085 -0.11530815 -0.0033575008 0.14736773
0.07944441 0.044850774 -0.1917767 -0.4156252 0.36412123 0.45308796 0.3366225 0.2684138
0.06419485 -0.09370195 0.062036123 0.05272348 0.08381678 -0.2280842 0.089704625 0.114387214
0.18378633 0.020344138 -0.0104780095 0.04785093 0.4855696 0.7599548 0.1500898 0.66343385

net.conv_net.1.bias f4 [4]
00000000: 4046 e133 20b0 3cb5 b6a4 2200 c3d2 b534
1.04901574e-07 -7.0291753e-07 3.181494e-39 3.3867227e-07

net.conv_net.2.weight f4 [4]
00000000: 6624 953f bba5 673f 9d18 5536 265e a43e
1.1651733 0.9048726 3.17538e-06 0.3210308

net.conv_net.2.bias f4 [4]
00000000: 55cb 02bf 2413 bdbe 117d 1cb6 c5a5 283f
-0.5109151 -0.36928666 -2.331861e-06 0.65877944

net.conv_net.2.running_mean f4 [4]
00000000: b23a 81bd 0012 f9bc b4ca 6e24 473e aa3d
-0.06310023 -0.03040409 5.177972e-17 0.0831266

net.conv_net.2.running_var f4 [4]
00000000: 1750 aa40 66e6 ff3f 7e7c fe0f b5a1 8e3e
5.3222766 1.9992187 2.5094286e-29 0.27857748

net.conv_net.4.weight f4 [4, 4, 20]
00000000: fe0f f83d 40d8 ca3d 8158 1d3e 90dc 203e
00000010: 4ec7 ba3d 65cb fa3d 8d60 993d 00a5 a83d
00000020: 6847 abbd e006 11be bf5a 35be bbc0 69be
00000030: 95df 63be adae d0bd 351b 99bd fdca 9c3d
00000040: 98fe 963d 4d3d a63d 9331 293e bb1c 903e
00000050: 057d ca3c 6c0e 6fbe 901e 94be 18f4 28be
00000060: d225 1fbe c7fc 7dbd 11c3 733d 1fba 833c
00000070: dd25 373d 6579 853e ec02 f93e a805 be3e
00000080: d4c8 723e 7822 663d 7451 debd bc6f b8bd
00000090: 1534 87bd fb32 a3bc b29d 9b3d da6b 923e
000000a0: bd25 0000 b4ff 0180 450d 0080 a804 0100
000000b0: 55e7 0000 02e4 0000 f92f 0100 038d 0000
000000c0: b714 0100 42f2 0000 35f6 0000 1be8 0000
000000d0: 65f6 0000 e60c 0080 171f 0080 c792 0000
000000e0: c706 0000 6219 0100 d48a 2800 67c0 f906
000000f0: 86d6 1e3e 08d3 9cbc 6763 ce3d 5f66 093e
00000100: 252e 193b 1275 103b 0c6e 083e 3ef9 523e
00000110: 4cb3 af3e 062f 4b3e 23ef 8d3e ff4f 263e
00000120: 53c9 493e 78fe 9c3e 560a 643e 7e34 1d3e
00000130: 824e 733e b746 9b3e 31c5 f63e 7e58 053f
00000140: e38f 85be 463a 89be c0bf 22be 9442 4dbc
00000150: a917 3e3c 7bc7 233e d55a bd3e 5971 af3e
00000160: 5275 c63d 720c cd3c 629a 77bc 00e9 0fbe
00000170: 5455 82be e164 d6be 8700 2bbf 5848 2bbf
00000180: 79f3 fdbe 2bda c4bd 06f8 cb3e 241a 713f
00000190: b2c6 503f 83bf 043f 1777 473e 4570 a1bc
000001a0: e600 57be 89fb b3bd 7f2e b8bd 4ba1 2abe
000001b0: 071e 833d d332 383e 32db 903e afea 2b3e
000001c0: ab52 823d 9447 b6bd 322b 56be 82d9 92be
000001d0: 4212 adbe a7a4 bbbe 389f b5be 9abb 38be
000001e0: 1b38 c521 7f42 8b21 26b3 7a21 ab91 2f22
000001f0: 862c bc22 9b63 d022 eee1 b722 ba7e f322
00000200: e987 3e23 2d7c 4922 645e 3122 02b0 d121
00000210: 234d 5c21 7c20 1122 13fe 2022 7b14 2823
00000220: 005e 4823 5c23 2a24 5629 b324 ca85 05a7
00000230: 1ca2 7bbe 55b1 92be a9ab 4bbe d7cb 1bbe
00000240: 3949 57be dd51 d8bd f094 7fbd 7240 653d
00000250: 9f0e 7c3d bb44 ddbd a86c aebd 419b abbd
00000260: 2793 0f3d 27f6 c23c 7c6f aabd d480 36be
00000270: baca aabd 5c3a 153e 6835 843e e340 ce3e
00000280: db09 8c3e cc0a 783e caec 5a3e 0a9e cc3d
00000290: 4140 a33c aea2 ef3d b10c 813e e23f aa3e
000002a0: 9c1e 763e bedf a03e b65b 983e 082b ab3e
000002b0: fc9b 573e 89e7 d03d c8ca a6bd 698f 0bbe
000002c0: ba23 afbe e39b d5be 1f9a 8c3e 0b9d 5abe
000002d0: e5ed cebe 3c88 37be 1e49 9ebd e1aa 393d
000002e0: 5b10 4f3d 68d0 363e eca3 973e 8bb1 823e
000002f0: 9201 823e 6640 8a3e 0100 a83e 665c 353e
00000300: 7f09 993d f930 a8bd 598d 2ebe 4c4c 24be
00000310: 39d4 17be e0c7 d6bd 1fbd 96bb ffd0 803e
00000320: f9de 75ac 3e20 6dac 082d b5ab b537 882b
00000330: c0ed 7b2c 9a05 f92b 3c99 182c f9dd 2d2b
00000340: aa26 b229 7bee 5d28 d1fd c026 304c 9a23
00000350: b26c 6722 2f43 031f 1c55 871f ab1a fb1d
00000360: aae2 951f 8fd4 32a1 0b6e fca3 1c23 86a5
00000370: c08a 2fbe 300c 9cbe 08da 98be 9980 88be
00000380: df40 9bbe ae74 5bbe 285e f0bd 0f0b 23bd
00000390: 9ebe 58bb f79c c6bc 3ff2 693d 7c65 023d
000003a0: 09ce b63d 8830 943d bc88 6b3d 366f 5a3d
000003b0: 76e6 413e a17a 8f3e 24e2 d93d 7e73 1f3f
000003c0: 79e0 873e 7fcf 3b3e e048 073d 1aab 423c
000003d0: 9cf4 90be 41e0 a9be d441 27be 8b9b 683c
000003e0: ae5f d73d dcc7 113e 3eae f3bc d069 21be
000003f0: d4b7 9ebe 1d5e f3be 11e8 12bf 3061 e6be
0.12112425 0.09904528 0.15365793 0.15709138 0.091200456 0.12245826 0.07489119 0.08234596
-0.08363229 -0.14162779 -0.17710398 -0.22827427 -0.22253259 -0.10189567 -0.074758925 0.076559044
0.07372779 0.08117161 0.16522817 0.2814692 0.024717817 -0.23345345 -0.28929567 -0.16499364
-0.15541771 -0.062008645 0.0595122 0.01607996 0.044713844 0.2606918 0.48635042 0.3711369
0.23709422 0.056185216 -0.1085538 -0.09005687 -0.06601731 -0.01992177 0.07598437 0.2859791
1.3538e-41 -1.83564e-40 -4.76e-42 9.3506e-41 8.2986e-41 8.1794e-41 1.09045e-40 5.0585e-41
9.9267e-41 8.6906e-41 8.8322e-41 8.3264e-41 8.839e-41 -4.627e-42 -1.1153e-41 5.2654e-41
2.431e-42 1.00941e-40 3.723222e-39 9.39461e-35 0.15511522 -0.019143596 0.10077553 0.13417958
0.0023373452 0.0022042436 0.1332323 0.20602891 0.3431648 0.19842157 0.2772151 0.16241454
0.19705705 0.30662894 0.22269568 0.15352055 0.23760417 0.3032739 0.4819732 0.52088153
-0.2608634 -0.26802272 -0.1589346 -0.0125280805 0.011602321 0.15994065 0.36983362 0.34266165
0.09690346 0.025030348 -0.015112491 -0.14053726 -0.25455725 -0.4187384 -0.6679768 -0.6690726
-0.49599817 -0.09611925 0.39837664 0.9418051 0.81553185 0.51854724 0.19479023 -0.019706855
-0.20996436 -0.08788211 -0.089932434 -0.16663091 0.06402212 0.17988138 0.28292233 0.16788743
0.06363424 -0.08900371 -0.20914915 -0.2868157 -0.33802992 -0.36649057 -0.35473037 -0.18040314
1.336409e-18 9.436608e-19 8.4940396e-19 2.3794039e-18 5.1004643e-18 5.6483974e-18 4.984146e-18 6.599946e-18
1.0328701e-17 2.7306318e-18 2.4037943e-18 1.420898e-18 7.464099e-19 1.9668361e-18 2.181855e-18 9.111635e-18
1.0861927e-17 3.6892824e-17 7.76989e-17 -1.8529985e-15 -0.24573559 -0.2865092 -0.19889702 -0.15214477
-0.21024026 -0.10562489 -0.062397897 0.055969663 0.06153738 -0.10804125 -0.08516818 -0.08379222
0.035052445 0.023799015 -0.08322045 -0.17822582 -0.08339448 0.14573044 0.25821996 0.4028388
0.2735127 0.24222869 0.2137939 0.09991081 0.0199281 0.117009506 0.25204995 0.33251864
0.24035114 0.31420702 0.2975747 0.33431268 0.21055597 0.10200412 -0.08144146 -0.13628925
-0.34206945 -0.41720495 0.27461335 -0.2134897 -0.40415874 -0.17923063 -0.0772879 0.04532898
0.050552707 0.17852938 0.2961725 0.2552608 0.25391823 0.27002257 0.32812503 0.17711028
0.07472514 -0.08212466 -0.17046107 -0.1604473 -0.1482705 -0.10487342 -0.0046001817 0.2515945
-3.4940369e-12 -3.3697624e-12 -1.2873322e-12 9.678843e-13 3.5801223e-12 1.7694069e-12 2.1685561e-12 6.1769996e-13
7.911495e-14 1.2319677e-14 1.3391473e-15 1.672898e-17 3.136388e-18 2.7795902e-20 5.7315526e-20 6.646672e-21
6.347894e-20 -6.0590065e-19 -2.73685e-17 -2.3269086e-16 -0.17142773 -0.30478048 -0.29853845 -0.26660612
-0.3032293 -0.21431229 -0.11736709 -0.03980547 -0.00330726 -0.024244769 0.05711579 0.031835064
0.08926017 0.07235819 0.057503447 0.053328715 0.1893557 0.28023246 0.10638836 0.622856
0.26538447 0.18340872 0.033028483 0.011881614 -0.28311622 -0.33178905 -0.16333705 0.014197241
0.10516296 0.14236397 -0.029746171 -0.1576302 -0.30999625 -0.4753274 -0.57385355 -0.44996023

net.conv_net.4.bias f4 [4]
00000000: e17c bd35 68a5 54b5 9522 04b6 d961 bab5
1.4117942e-06 -7.921685e-07 -1.9689662e-06 -1.3886557e-06

net.conv_net.5.weight f4 [4]
00000000: bd1a a63f 92da a13f e578 823f e1c4 df3f
1.297691 1.2644827 1.0193144 1.7481958

net.conv_net.5.bias f4 [4]
00000000: abc8 2d3f 80f2 8a3f 6541 3b3f 6650 8e3e
0.6788432 1.0855255 0.7314666 0.27795714

net.conv_net.5.running_mean f4 [4]
00000000: 9b40 4040 d44b 64bf 2fe0 173f aa82 8cbf
3.0039432 -0.89178205 0.5932645 -1.0977376

net.conv_net.5.running_var f4 [4]
00000000: 43f6 d43f 30a3 ac3f f47f ab3f 0845 c23f
1.6637653 1.3487301 1.3398423 1.5177317

net.conv_net.7.weight f4 [1, 4, 1]
00000000: 76e4 8fbf 21d5 b0bf 52a1 79bf ead8 cebf
-1.1241596 -1.3815042 -0.9751178 -1.6159947
