models/neuron_40.pth (torch, 7967 bytes, 13 tensors)

net.conv_net.1.weight f4 [4, 2, 20]
00000000: 1f0c 0080 9e43 0080 af5f 0000 535e 0000
00000010: 1d6d 0000 0031 0100 c78d 0080 a05e 0080
00000020: 1238 0000 17bb 0000 cc8c 0000 d5b2 0000
00000030: 5522 0080 2294 0000 cb7b 0000 8ab1 0000
00000040: 8ffc 0000 4c8f 0080 7e4c 0080 de7d 0080
00000050: 8776 0f80 9d27 2180 279d 0a80 cc00 0180
00000060: dc15 1900 e5ec 0080 d9e1 1b00 b421 3180
00000070: 6066 3f00 f97e 0080 4a06 1b00 acb2 1380
00000080: bbc6 0000 2f67 1080 aadc 0f00 b425 2180
00000090: b8a5 2200 286b 0080 dea3 1780 7369 0080
000000a0: 200d 0000 2ca5 0080 cca7 0000 ddcf 0000
000000b0: 1716 0080 af8a 0000 8519 0300 1b9b 0700
000000c0: edb2 8105 f6c4 cc09 25ad 740f 2020 3113
000000d0: f0fd 9e15 d8c4 cf17 5540 5f19 80bf dd19
000000e0: 22df a61a d174 151b 2926 a51a 6093 ed19
000000f0: 5780 0000 5958 0780 3c95 0380 f010 0000
00000100: 2f99 0880 daa1 0080 637d 0480 8c34 0480
00000110: 37a4 1300 da23 1880 ed41 0000 3364 2e80
00000120: 62b5 0080 2400 0c00 51e3 0000 c94e 0980
00000130: 51cc 0680 3d86 0980 73b1 2300 9d8a 0600
00000140: 4607 0000 8105 0080 4e0c 0080 7617 0000
00000150: fd35 0080 4e53 0000 1696 0000 023c 0080
00000160: 5f06 0180 3432 0000 983f 0080 8036 0000
00000170: 8d4e 0000 a61d 0000 ca2b 0000 feb2 0080
00000180: 8eff 0080 615b 0080 7576 0000 c04c 0000
00000190: 90f5 0580 fe4d 0f00 450e 0e80 4b0e 0100
000001a0: 0b39 0b00 a62a 0980 ccdf 0080 dc1e 0f00
000001b0: aed1 0900 3045 0000 ffeb 0000 a035 0700
000001c0: 3267 0c00 58f2 0c80 c0bf 0080 92cf 0680
000001d0: acf4 1d80 8a3e 0080 7e40 0180 61e7 0000
000001e0: dc7a 0000 e53f 0080 8c3c 0080 ae8b 0080
000001f0: 8f4e 0080 9f4d 0000 3658 0000 a62f 0080
00000200: 432b 0100 2bba 0080 414f 0000 4913 0100
00000210: 5550 0080 c250 0080 d536 0080 e382 0000
00000220: e31b 0000 337f 0000 4357 0000 7730 0080
00000230: 1aa6 0680 7416 0000 a502 0000 a387 0080
00000240: d5d9 0080 9caf 0000 b15d 0080 036d 1900
00000250: 3c3f 0000 ab4c 1e80 f932 2200 9144 2880
00000260: 3c72 1400 8247 0080 08aa 1d80 514b 0a80
00000270: 5d48 0500 f339 4680 2c11 3a80 001f 3a00
-4.348e-42 -2.4256e-41 3.4325e-41 3.3837e-41 3.9142e-41 1.09413e-40 -5.086e-41 -3.3945e-41
2.0114e-41 6.7115e-41 5.0508e-41 6.4153e-41 -1.2316e-41 5.314e-41 4.4409e-41 6.3689e-41
9.0601e-41 -5.1405e-41 -2.744e-41 -4.5153e-41 -1.420052e-39 -3.044782e-39 -9.7473e-40 -9.2121e-41
2.303729e-39 -8.4982e-41 2.560577e-39 -4.51203e-39 5.822361e-39 -4.5549e-41 2.481814e-39 -1.80897e-39
7.1291e-41 -1.506383e-39 1.456692e-39 -3.044097e-39 3.181856e-39 -3.844e-41 -2.171001e-39 -3.7828e-41
4.708e-42 -5.9253e-41 6.0194e-41 7.4567e-41 -7.924e-42 4.975e-41 2.84661e-40 6.9849e-40
1.2196829e-35 4.9296435e-33 1.2063475e-29 2.235638e-27 6.4216335e-26 1.3426752e-24 1.15418215e-23 2.292821e-23
6.901648e-23 1.2362737e-22 6.830405e-23 2.456475e-23 4.604e-41 -6.74542e-40 -3.29042e-40 6.076e-42
-7.89636e-40 -5.8061e-41 -4.12322e-40 -3.86192e-40 1.803784e-39 -2.216913e-39 2.365e-41 -4.260378e-39
-6.5068e-41 1.102076e-39 8.1546e-41 -8.54782e-40 -6.24308e-40 -8.74675e-40 3.277899e-39 6.00738e-40
2.609e-42 -1.974e-42 -4.414e-42 8.416e-42 -1.9367e-41 2.9884e-41 5.384e-41 -2.1527e-41
-9.4121e-41 1.801e-41 -2.2813e-41 1.9551e-41 2.8179e-41 1.0636e-41 1.5709e-41 -6.421e-41
-9.1676e-41 -3.278e-41 4.2494e-41 2.7533e-41 -5.47269e-40 1.405511e-39 -1.290816e-39 9.6963e-41
1.030654e-39 -8.41819e-40 -8.0283e-41 1.388603e-39 9.01738e-40 2.482e-41 8.466e-41 6.62085e-40
1.139045e-39 -1.188963e-39 -6.8787e-41 -6.25475e-40 -2.751001e-39 -2.2435e-41 -1.14971e-40 8.3003e-41
4.4074e-41 -2.2921e-41 -2.172e-41 -5.0108e-41 -2.8182e-41 2.7845e-41 3.1644e-41 -1.7093e-41
1.07355e-40 -6.6784e-41 2.8431e-41 9.8754e-41 -2.8818e-41 -2.897e-41 -1.967e-41 4.6953e-41
1.0004e-41 4.563e-41 3.1304e-41 -1.7386e-41 -6.10599e-40 8.055e-42 9.49e-43 -4.8657e-41
-7.8143e-41 6.2997e-41 -3.361e-41 2.334993e-39 2.2684e-41 -2.782568e-39 3.140692e-39 -3.698017e-39
1.87769e-39 -2.5652e-41 -2.724225e-39 -9.45373e-40 4.85137e-40 -6.449273e-39 -5.332619e-39 5.33758e-39

net.conv_net.1.bias f4 [4]
00000000: c371 3a00 d66a 0180 90b4 1b00 ea5c 0a80
5.367269e-39 -1.30161e-40 2.544332e-39 -9.51686e-40

net.conv_net.2.weight f4 [4]
00000000: d1ec 0080 c50a 0180 1906 0000 32da 0100
-8.4954e-41 -9.5699e-41 2.187e-42 1.70109e-40

net.conv_net.2.bias f4 [4]
00000000: 9edd 0180 e3aa 0280 a6ee 0500 610c 0380
-1.71337e-40 -2.44974e-40 5.44788e-40 -2.79947e-40

net.conv_net.2.running_mean f4 [4]
00000000: f570 3a00 e74a 4c98 0fb6 1b00 bd61 0a80
5.36698e-39 -2.6404198e-24 2.544869e-39 -9.53417e-40

net.conv_net.2.running_var f4 [4]
00000000: 0400 0000 4000 0000 0400 0000 0400 0000
6e-45 9e-44 6e-45 6e-45

net.conv_net.4.weight f4 [4, 4, 20]
00000000: e91a 0080 8616 0000 5a0e 0080 6622 0000
00000010: e019 0000 e309 0080 4f17 0080 d248 0080
00000020: 401d 0080 b7df 0080 f5d0 0080 f7e3 0080
00000030: 68eb 0080 b6f0 0080 cace 0080 3f9b 0080
00000040: a9f8 0080 10f0 0080 16bb 0080 e2a6 0080
00000050: a80e 0080 192c 0000 8633 0000 fd23 0080
00000060: dc06 0000 b40d 0080 034b 0000 fe49 0000
00000070: 5460 0000 884c 0100 3384 0100 8ed9 0000
00000080: 7edf 0000 1cfd 0000 fe0e 0100 1d68 0100
00000090: 9e55 0100 9a18 0100 9bd7 0000 b7cd 0000
000000a0: 08da 0000 deb4 0000 87ad 0000 4992 0000
000000b0: 11a5 0000 c525 0000 f4b1 0000 6fd4 0000
000000c0: 75e6 0000 9af1 0000 a046 0100 a585 0000
000000d0: 1e85 0000 a55a 0000 cc83 0000 c020 0000
000000e0: de65 0000 dc2c 0000 0967 0100 e2f8 0000
000000f0: a39c 0080 83b4 0080 7004 0180 171c 0180
00000100: 61e5 0080 6965 0180 7e2b 0180 62ea 0080
00000110: 34bf 0080 269a 0080 38a2 0080 739a 0080
00000120: eb24 0080 7e10 0000 0118 0080 3452 0000
00000130: 9953 0000 2629 0000 1a4e 0000 cd62 0000
00000140: d951 0180 b027 0180 a3fd 0080 49cf 0080
00000150: 8de1 0080 67d5 0080 82ce 0080 33ca 0080
00000160: a4bf 0080 6fc0 0080 7fd9 0080 c6cb 0080
00000170: 13d0 0080 b0df 0080 09f4 0080 4cef 0080
00000180: d1fb 0080 141b 0180 ea07 0180 b81a 0180
00000190: 3d61 0180 ea73 0180 c714 0180 476e 0080
000001a0: b335 0080 0c38 0080 870a 0180 327c 0180
000001b0: bff2 0180 6b74 0280 3bb5 0280 fd3a 0380
000001c0: 4b8b 0280 fc4a 0280 cba3 0180 b09f 0180
000001d0: 716e 0180 6e66 0180 cf69 0180 6c86 0180
000001e0: 5467 0380 d0f1 0280 c7c8 0280 87b0 0280
000001f0: 65ae 0280 1511 0280 a63a 0280 9b86 0180
00000200: 8d84 0180 418c 0180 578d 0180 a17f 0180
00000210: 887e 0180 078e 0180 3372 0180 806a 0380
00000220: 52e6 0280 56c4 0280 75bc 0280 49b9 0280
00000230: 618a 0000 0a3c 0000 1213 0000 4948 0080
00000240: cf40 0080 2243 0080 c54b 0080 f139 0080
00000250: a543 0080 0c55 0080 bd0a 0000 8b60 0000
00000260: b8a5 0000 16db 0000 5713 0100 861f 0100
00000270: cb41 0100 c84c 0100 225a 0100 5253 0100
00000280: 0177 0000 b151 0000 843d 0000 9533 0000
00000290: eb32 0000 b021 0000 9e3b 0000 ab33 0000
000002a0: c234 0000 643c 0000 3d46 0000 3e61 0000
000002b0: 1086 0000 df7f 0000 f0a2 0000 d79d 0000
000002c0: 2ab1 0000 1a97 0000 c2a0 0000 51b4 0000
000002d0: bc20 0180 0987 0180 ff96 0280 f2f3 0280
000002e0: adc6 0280 b6d2 0180 7751 0180 870c 0000
000002f0: 0861 0000 5527 0000 0545 0000 f02f 0000
00000300: 7602 0080 903e 0080 de06 0080 6743 0000
00000310: 543c 0000 8d0b 0000 b453 0000 0039 0000
00000320: 88f3 0280 c925 0380 2a2f 0380 7035 0380
00000330: d21a 0380 f933 0380 421b 0380 f33b 0380
00000340: 803a 0380 c115 0380 c71a 0380 761d 0380
00000350: f824 0380 9426 0380 a937 0380 4219 0380
00000360: 1723 0380 47de 0280 dbd0 0280 d4bc 0280
00000370: 0e1b 0100 6813 0100 6422 0100 ce20 0100
00000380: d95e 0100 d63b 0100 2c32 0100 f344 0100
00000390: 7012 0100 b6f3 0000 46e7 0000 b6bf 0000
000003a0: f1d2 0000 a9c2 0000 a29e 0000 cc77 0000
000003b0: 9f86 0000 5a8a 0000 396e 0000 a66c 0000
000003c0: 2f22 0080 b71c 0080 5a06 0080 09c1 0000
000003d0: 41cf 0000 3c0f 0080 7ae4 0000 66e9 0000
000003e0: 100d 0100 96eb 0000 79d1 0080 bb0d 0000
000003f0: 499a 0000 81b6 0000 190c 0000 8219 0080
-9.654e-42 8.08e-42 -5.148e-42 1.234e-41 9.282e-42 -3.547e-42 -8.362e-42 -2.6123e-41
-1.0493e-41 -8.0254e-41 -7.496e-41 -8.1778e-41 -8.4448e-41 -8.6351e-41 -7.4182e-41 -5.5692e-41
-8.9202e-41 -8.6118e-41 -6.7114e-41 -5.9866e-41 -5.258e-42 1.5819e-41 1.8483e-41 -1.291e-41
2.46e-42 -4.916e-42 2.6909e-41 2.6543e-41 3.4556e-41 1.1929e-40 1.3926e-40 7.8044e-41
8.0174e-41 9.0799e-41 9.7214e-41 1.29184e-40 1.22549e-40 1.00661e-40 7.7345e-41 7.3797e-41
7.8215e-41 6.4883e-41 6.225e-41 5.2477e-41 5.9215e-41 1.3549e-41 6.3838e-41 7.6207e-41
8.2672e-41 8.667e-41 1.17171e-40 4.7943e-41 4.7753e-41 3.2517e-41 4.728e-41 1.1748e-41
3.6543e-41 1.6093e-41 1.28798e-40 8.9282e-41 -5.619e-41 -6.4755e-41 -9.3427e-41 -1.01912e-40
-8.2286e-41 -1.28215e-40 -1.07438e-40 -8.4081e-41 -6.8591e-41 -5.5298e-41 -5.8193e-41 -5.5406e-41
-1.3244e-41 5.916e-42 -8.611e-42 2.9489e-41 2.9989e-41 1.4761e-41 2.8018e-41 3.5443e-41
-1.21197e-40 -1.06073e-40 -9.0988e-41 -7.436e-41 -8.0912e-41 -7.6554e-41 -7.4081e-41 -7.2535e-41
-6.8748e-41 -6.9032e-41 -7.8023e-41 -7.31e-41 -7.4643e-41 -8.0244e-41 -8.7543e-41 -8.5844e-41
-9.0335e-41 -1.01549e-40 -9.4675e-41 -1.0142e-40 -1.26718e-40 -1.33418e-40 -9.9289e-41 -3.956e-41
-1.9264e-41 -2.0106e-41 -9.5612e-41 -1.36388e-40 -1.78916e-40 -2.25434e-40 -2.48684e-40 -2.96667e-40
-2.3364e-40 -2.1057e-40 -1.50593e-40 -1.4912e-40 -1.31454e-40 -1.2858e-40 -1.29792e-40 -1.40057e-40
-3.12574e-40 -2.70417e-40 -2.55696e-40 -2.46997e-40 -2.46232e-40 -1.89799e-40 -2.0471e-40 -1.40123e-40
-1.39386e-40 -1.42149e-40 -1.42539e-40 -1.3762e-40 -1.37226e-40 -1.42785e-40 -1.32802e-40 -3.13711e-40
-2.66294e-40 -2.54103e-40 -2.51277e-40 -2.50139e-40 4.9641e-41 2.1538e-41 6.841e-42 -2.5931e-41
-2.3249e-41 -2.4083e-41 -2.7181e-41 -2.0785e-41 -2.4266e-41 -3.0509e-41 3.852e-42 3.4633e-41
5.9449e-41 7.8593e-41 9.8773e-41 1.03144e-40 1.15438e-40 1.1938e-40 1.24169e-40 1.21725e-40
4.269e-41 2.9305e-41 2.2068e-41 1.8504e-41 1.8266e-41 1.2085e-41 2.1387e-41 1.8535e-41
1.8926e-41 2.1664e-41 2.5197e-41 3.4884e-41 4.8093e-41 4.5872e-41 5.8451e-41 5.6622e-41
6.3554e-41 5.4205e-41 5.7669e-41 6.4685e-41 -1.03578e-40 -1.40277e-40 -2.37838e-40 -2.71182e-40
-2.54942e-40 -1.67424e-40 -1.2106e-40 4.494e-42 3.4808e-41 1.411e-41 2.476e-41 1.7197e-41
-8.83e-43 -2.2443e-41 -2.463e-42 2.418e-41 2.1642e-41 4.144e-42 3.0027e-41 2.0448e-41
-2.71034e-40 -2.89061e-40 -2.92426e-40 -2.94676e-40 -2.85128e-40 -2.94151e-40 -2.85285e-40 -2.97012e-40
-2.96492e-40 -2.8331e-40 -2.85112e-40 -2.86075e-40 -2.88768e-40 -2.89346e-40 -2.95474e-40 -2.84567e-40
-2.88094e-40 -2.63409e-40 -2.58594e-40 -2.5141e-40 1.01541e-40 9.8797e-41 1.04173e-40 1.03604e-40
1.2586e-40 1.133e-40 1.09834e-40 1.1657e-40 9.845e-41 8.7427e-41 8.2965e-41 6.8773e-41
7.5672e-41 6.9831e-41 5.6907e-41 4.2975e-41 4.8293e-41 4.9631e-41 3.954e-41 3.8976e-41
-1.2263e-41 -1.0301e-41 -2.279e-42 6.9248e-41 7.4349e-41 -5.465e-42 8.1962e-41 8.3728e-41
9.6521e-41 8.4512e-41 -7.5145e-41 4.926e-42 5.5347e-41 6.547e-41 4.34e-42 -9.15e-42

net.conv_net.4.bias f4 [4]
00000000: 7833 2607 ff4d 3a32 ecca 02b1 ec00 39b2
1.2503577e-34 1.0844359e-08 -1.9032838e-09 -1.0768627e-08

net.conv_net.5.weight f4 [4]
00000000: 6d77 1a0c a924 fb37 efed f236 2a20 9137
1.1899667e-31 2.9938603e-05 7.239861e-06 1.7300325e-05

net.conv_net.5.bias f4 [4]
00000000: 5f71 cb3f 3677 ab3f efd6 9c3f 7cc4 9e3f
1.5893973 1.3395755 1.2253093 1.2403712

net.conv_net.5.running_mean f4 [4]
00000000: c8e7 2507 6652 3e32 5ef6 06b1 4efb 42b2
1.2481335e-34 1.1078191e-08 -1.963961e-09 -1.1349426e-08

net.conv_net.5.running_var f4 [4]
00000000: 0400 0000 0400 0000 0400 0000 0400 0000
6e-45 6e-45 6e-45 6e-45

net.conv_net.7.weight f4 [1, 4, 1]
00000000: 26f9 cabf 5f49 abbf 9691 9cbf 19a8 9ebf
-1.5857284 -1.3381766 -1.2231929 -1.2395049
