models/neuron_19.pth (torch, 7967 bytes, 13 tensors)

net.conv_net.1.weight f4 [4, 2, 20]
000000 45 63 4b be 00 bd 00 be be cc 90 bd 91 14 c4 3d
       -0.19862087 -0.12572098 -0.070703015 0.09574235
000010 7f 2e a8 bd 04 1b 20 3c b3 ec c3 3d 95 e3 7e bd
       -0.082119934 0.009772066 0.09566631 -0.062228758
000020 21 af 91 3d 1e f7 40 3c 03 af 90 bd 2a 83 5d 3d
       0.07113481 0.011777667 -0.07064631 0.054080166
000030 3f 76 13 be 33 be d5 3c 11 1e c7 bd 4c a5 14 be
       -0.14400576 0.02609167 -0.097225316 -0.14516181
000040 49 89 ac bb 3c 2b 33 be bf 19 e0 3d a4 46 80 3e
       -0.005265389 -0.17496961 0.10942411 0.25053895
000050 94 43 7b 3d 94 44 7c 3d b1 17 b7 3d 40 cf d2 3d
       0.061343744 0.06158884 0.08940066 0.10293436
000060 18 93 9c 3d 3c 80 a8 3d c8 de c9 3d 79 6a bd 3d
       0.076452434 0.08227584 0.09856945 0.09248824
000070 a1 4b d8 3d 52 f0 15 3e ed f9 d6 3d 6c 9e 86 bc
       0.105613 0.14642456 0.10496888 -0.016432963
000080 c1 21 4c 3d b4 f0 3b 3e 31 fb 94 3d eb df 5b 3c
       0.049836878 0.1835354 0.072744735 0.013420085
000090 ca a5 c2 3d 95 4b a9 3d 71 c0 03 3f fe 10 03 c0
       0.09504278 0.08266369 0.5146552 -2.0479121
0000a0 d4 06 00 00 a5 88 00 00 e0 42 00 00 5d 07 00 00
       2.45e-42 4.9019e-41 2.399e-41 2.641e-42
0000b0 7e 74 00 80 64 45 00 00 e0 4d 00 80 a4 4e 00 80
       -4.179e-41 2.4893e-41 -2.7936e-41 -2.8211e-41
0000c0 69 89 00 80 68 b9 00 80 ad 1f 01 80 db 97 00 00
       -4.9293e-41 -6.6511e-41 -1.03199e-40 5.4475e-41
0000d0 7e 49 00 00 8f 26 00 80 6f 17 00 80 c1 31 00 00
       2.6364e-41 -1.3832e-41 -8.406e-42 1.7848e-41
0000e0 81 01 01 80 0b 46 00 00 70 4a 00 00 96 5b 00 80
       -9.2375e-41 2.5127e-41 2.6703e-41 -3.2855e-41
0000f0 6c 48 00 00 5f f5 00 80 e7 0d 00 80 19 8d 00 80
       2.598e-41 -8.8023e-41 -4.987e-42 -5.0616e-41
000100 8b 88 00 80 66 f2 00 00 f0 43 01 00 d9 27 00 00
       -4.8982e-41 8.6956e-41 1.16207e-40 1.4295e-41
000110 bc 12 01 80 d0 2a 00 80 72 27 00 00 fb 93 00 00
       -9.8556e-41 -1.5358e-41 1.415e-41 5.3085e-41
000120 13 44 00 00 17 c7 00 00 65 73 00 00 68 4d 00 80
       2.442e-41 7.142e-41 4.1396e-41 -2.7768e-41
000130 78 c7 00 80 bc 09 00 80 ad da 00 80 fe 37 01 80
       -7.1556e-41 -3.492e-42 -7.8446e-41 -1.11922e-40
000140 e4 a5 02 80 05 07 03 80 6e e0 02 80 eb 60 02 80
       -2.43181e-40 -2.78025e-40 -2.64181e-40 -2.18439e-40
000150 17 07 02 80 5f c8 01 80 9d ae 01 80 b4 5a 01 80
       -1.86214e-40 -1.63715e-40 -1.54475e-40 -1.24374e-40
000160 7a e4 00 80 e0 33 00 80 f6 a5 00 00 16 7d 00 80
       -8.1962e-41 -1.8609e-41 5.9536e-41 -4.4872e-41
000170 dd 82 00 00 82 1e 00 00 90 2d 00 00 11 9e 00 00
       4.6945e-41 1.0944e-41 1.6345e-41 5.6704e-41
000180 36 5a 00 80 a4 15 00 00 8a 82 00 80 23 0f 00 80
       -3.2362e-41 7.763e-42 -4.6829e-41 -5.43e-42
000190 c8 4e 00 00 d6 cf 00 80 1d 1b 00 80 70 25 00 80
       2.8261e-41 -7.4557e-41 -9.726e-42 -1.343e-41
0001a0 9d 57 00 00 dc 9d 00 00 ff 0e 00 00 c7 2c 01 00
       3.143e-41 5.6629e-41 5.38e-42 1.07899e-40
0001b0 c0 4c 00 80 01 45 00 80 67 17 00 00 79 1a 01 00
       -2.7533e-41 -2.4754e-41 8.395e-42 1.01332e-40
0001c0 3c 37 00 00 a7 0c 01 00 14 0d 00 00 a1 c5 00 00
       1.9814e-41 9.6374e-41 4.692e-42 7.0896e-41
0001d0 00 fe 00 80 05 e5 00 80 49 4f 00 80 a2 25 00 80
       -9.1118e-41 -8.2157e-41 -2.8442e-41 -1.35e-41
0001e0 1f 8f 50 18 ca 9e b6 18 f4 6d 67 99 b6 12 74 9e
       2.6955628e-24 4.7206233e-24 -1.1964625e-23 -1.2921122e-20
0001f0 90 dd b9 a0 07 93 c8 a2 48 9d 9c a4 62 71 13 a7
       -3.1486837e-19 -5.436578e-18 -6.792066e-17 -2.0461813e-15
000200 37 bc b9 a8 40 71 85 aa 63 ef 04 ac 4b 54 85 ad
       -2.0620751e-14 -2.370413e-13 -1.8891215e-12 -1.5157783e-11
000210 49 e5 2d af 03 e1 26 b0 c1 8c 1c b1 53 32 c6 b1
       -1.5815717e-10 -6.071021e-10 -2.2780997e-09 -5.7682796e-09
000220 77 f5 5b b2 51 ad bf b2 4f fe ee b2 f5 f7 c4 b2
       -1.280329e-08 -2.2314142e-08 -2.7822493e-08 -2.293016e-08
000230 bc 62 00 00 f0 4f 00 80 71 b6 00 80 3d 36 00 00
       3.5419e-41 -2.8676e-41 -6.5448e-41 1.9457e-41
000240 39 94 00 00 69 2a 00 80 80 ff 00 00 d1 bd 00 80
       5.3172e-41 -1.5214e-41 9.1656e-41 -6.8093e-41
000250 d9 f3 00 80 8a 25 01 00 1c 41 01 00 31 d7 00 80
       -8.7476e-41 1.05302e-40 1.15192e-40 -7.7196e-41
000260 0d 28 00 80 9f 15 00 80 7b aa 00 00 d3 4c 00 00
       -1.4368e-41 -7.756e-42 6.1157e-41 2.756e-41
000270 b7 25 00 00 20 1e 00 80 db cd 00 80 64 2c 00 80
       1.353e-41 -1.0807e-41 -7.3847e-41 -1.5924e-41

net.conv_net.1.bias f4 [4]
000000 0d be b6 b3 f4 89 2e 00 60 c3 30 80 f7 43 00 00
       -8.5096055e-08 4.273921e-39 -4.478191e-39 2.4381e-41

net.conv_net.2.weight f4 [4]
000000 dc 82 1e bf 02 47 fb 8b 55 09 87 91 a7 2f 01 ae
       -0.61918426 -9.6788524e-32 -2.1304996e-28 -2.9373528e-11

net.conv_net.2.bias f4 [4]
000000 05 ae 4f bf 51 c2 01 8e 4b c8 80 95 e7 13 cc b2
       -0.8112491 -1.5994038e-30 -5.2014795e-26 -2.3757776e-08

net.conv_net.2.running_mean f4 [4]
000000 ea 27 4a bb 0c 8b 2e 00 63 dd 30 80 b9 55 5f 30
       -0.0030846545 4.274313e-39 -4.487522e-39 8.1248747e-10

net.conv_net.2.running_var f4 [4]
000000 82 e6 3c 3e 04 00 00 00 04 00 00 00 b0 78 fb 27
       0.18447307 6e-45 6e-45 6.9797344e-15

net.conv_net.4.weight f4 [4, 4, 20]
000000 76 e2 f1 b9 64 44 20 3b f0 da 31 3c 7f a9 d0 3c
       -0.0004613583 0.0024454826 0.010855421 0.025471447
000010 06 14 1b 3d 65 31 4a 3d ee 1b 85 3d 81 4f 94 3d
       0.037860893 0.049363513 0.06499468 0.07241727
000020 c5 1b a3 3d 55 f5 65 3d 99 b3 4d 3d 45 74 b5 3c
       0.07964281 0.05614217 0.050220106 0.022150168
000030 fb 0a e8 3c 98 80 46 3c 1c e9 3b bc fc 26 66 bc
       0.028325548 0.01211562 -0.011469152 -0.014047381
000040 85 ff 07 bd 81 e1 a0 3b 96 26 a9 3c 2d d8 e8 3d
       -0.033202667 0.0049096947 0.020648282 0.11369357
000050 37 b1 dd 91 d0 fa 31 95 b1 2e 05 98 69 63 94 99
       -3.497687e-28 -3.594272e-26 -1.721342e-24 -1.5342993e-23
000060 2f f4 49 99 a6 05 1b 9a 15 3e e2 9a 19 ff 7a 9a
       -1.0440769e-23 -3.205781e-23 -9.357171e-23 -5.1904855e-23
000070 30 8a e8 98 3d 76 bc 96 52 44 fb 94 9e 4c 84 90
       -6.011013e-24 -3.0447657e-25 -2.5371471e-26 -5.218287e-29
000080 31 4c 31 8a 7e 6b 38 80 5d 07 02 80 c0 c2 00 80
       -8.53657e-33 -5.181349e-39 -1.86312e-40 -6.9863e-41
000090 c5 72 00 80 cf 9e 00 00 3f 60 00 00 07 9c 00 00
       -4.1172e-41 5.697e-41 3.4527e-41 5.5972e-41
0000a0 fe 9d 03 80 0f 8f 01 80 fc 9f 00 80 d1 9b 00 00
       -3.32183e-40 -1.43155e-40 -5.7392e-41 5.5896e-41
0000b0 8e 76 00 80 79 1b 00 00 f5 83 00 00 54 78 00 00
       -4.253e-41 9.855e-42 4.7337e-41 4.3166e-41
0000c0 34 38 00 80 fa 31 00 80 b0 85 00 00 d4 07 00 80
       -2.0162e-41 -1.7928e-41 4.7958e-41 -2.808e-42
0000d0 14 bf 00 80 f4 09 01 80 cc 4d 01 80 b3 99 01 00
       -6.8546e-41 -9.5406e-41 -1.19744e-40 1.46972e-40
0000e0 ca dc 01 00 f7 1d 02 00 7a 53 02 00 93 2a 02 00
       1.7104e-40 1.9442e-40 2.13617e-40 1.98944e-40
0000f0 d3 09 01 1d 2e 2c bb 1e eb 63 50 20 96 7d 8c 21
       1.7078087e-21 1.9817667e-20 1.7651345e-19 9.520011e-19
000100 36 db 33 22 c1 65 71 22 d9 55 08 22 0b a3 aa 21
       2.4375073e-18 3.2715459e-18 1.8476884e-18 1.1562805e-18
000110 6f ff ee 1f d9 0f 9f 9d f7 0a 1a 9d af 18 0f 9a
       1.012195e-19 -4.2103336e-21 -2.0387399e-21 -2.9591646e-23
000120 8a 61 70 96 5b 6e 02 90 14 7d cb 86 01 59 02 80
       -1.9417824e-25 -2.5722994e-29 -7.65439e-35 -2.156e-40
000130 00 0a 00 80 91 14 00 00 08 61 00 80 14 9f 00 00
       -3.587e-42 7.378e-42 -3.4808e-41 5.7066e-41
000140 77 6c 50 92 f9 74 4f 95 6e cc ce 95 2a 8f 5f 95
       -6.576692e-28 -4.1895592e-26 -8.352527e-26 -4.5147428e-26
000150 e7 e6 f7 93 a2 c9 39 8f ed bf d7 8a bf dd fb 86
       -6.2579253e-27 -9.160037e-30 -2.0775941e-32 -9.474153e-35
000160 2e d7 4e 82 e0 34 b5 80 a2 a2 22 80 cc ea 04 80
       -1.5196243e-37 -1.6641193e-38 -3.180749e-39 -4.51571e-40
000170 9e 73 03 80 b7 d8 02 80 bd 3c 02 80 b1 a2 01 80
       -3.16982e-40 -2.61414e-40 -2.0546e-40 -1.50198e-40
000180 f4 01 01 00 a9 ba 00 00 97 f8 00 80 42 e9 03 80
       9.2536e-41 6.6961e-41 -8.9177e-41 -3.59184e-40
000190 bd 9a 26 17 be 02 ab 19 0b 3d 46 98 6a 7d 9f 99
       5.38328e-25 1.7682093e-23 -2.562172e-24 -1.6490869e-23
0001a0 e4 ec 1d 19 82 1e 66 17 3e de 1e 11 00 2f 41 10
       8.1645494e-24 7.4355514e-25 1.2532486e-28 3.8098746e-29
0001b0 c8 f2 9b 09 7c f8 6d 05 00 0a 09 00 bb 7a 02 00
       3.7543203e-33 1.1189326e-35 8.30107e-40 2.27698e-40
0001c0 24 71 01 00 47 0e 01 00 4a cd 00 00 08 87 00 00
       1.32423e-40 9.6957e-41 7.3644e-41 4.844e-41
0001d0 14 b6 00 00 1a df 00 00 10 38 01 00 fe ac 01 00
       6.5317e-41 8.0034e-41 1.11947e-40 1.53893e-40
0001e0 b5 78 a3 0a 0a 9f c6 07 b1 dc 8c 03 a2 cd 0d 00
       1.5741734e-32 2.9885204e-34 8.279129e-37 1.267629e-39
0001f0 5d 3e 04 00 bd a7 02 00 5a 75 02 00 d8 82 02 00
       3.89714e-40 2.43844e-40 2.25769e-40 2.30609e-40
000200 44 d4 03 00 2f 5c 08 00 ae 91 d5 00 96 fd b9 02
       3.51653e-40 7.67753e-40 1.9613221e-38 2.7328858e-37
000210 3b 6c 51 87 20 01 a2 09 41 77 3c 0b 36 62 8a 0b
       -1.5755219e-34 3.900114e-33 3.62972e-32 5.330344e-32
000220 a0 71 70 8c e8 5c 82 8b 9c 34 9e 0a 8c 66 8e 08
       -1.852312e-31 -5.021397e-32 1.5234636e-32 8.570423e-34
000230 03 be 17 19 81 fd 8d 1b f5 75 27 1e d8 20 1f 1f
       7.8448896e-24 2.3490316e-22 8.865299e-21 3.3696727e-20
000240 4b fe 47 20 31 94 ac 1f e6 f6 39 1e 2f 52 7e 1c
       1.6940094e-19 7.3089996e-20 9.844876e-21 8.414777e-22
000250 41 2b cf 19 91 1d 4a 14 a0 34 90 0f 78 d3 e5 05
       2.1420768e-23 1.0204225e-26 1.4219767e-29 2.1612738e-35
000260 41 6b 04 00 e9 15 01 00 30 c8 00 80 5d a1 00 80
       4.05817e-40 9.9695e-41 -7.1814e-41 -5.7886e-41
000270 7f 7e 00 00 57 54 00 80 17 2c 00 80 6d 02 00 80
       4.5378e-41 -3.0255e-41 -1.5816e-41 -8.7e-43
000280 27 ab f0 3d 30 b3 95 3d d9 e3 21 bc e2 5a 35 be
       0.11751395 0.07309568 -0.009880983 -0.1771045
000290 2e ed cf bd 06 79 d0 bd 9f 38 93 bd 83 55 8b 3c
       -0.1015266 -0.101793334 -0.07188534 0.017008549
0002a0 d7 00 be bd 39 3e ac 3d 16 8e 93 3d 41 e3 fa 3d
       -0.09277504 0.084103055 0.07204835 0.122503765
0002b0 2b fa 27 bb fd 84 ec 3d a4 30 f3 3d 77 07 f8 3c
       -0.002563129 0.11548803 0.11874512 0.030276997
0002c0 80 45 f2 3d 9c be 0c 3e 13 f2 22 3f 8a c7 34 bf
       0.11829662 0.13744587 0.63650626 -0.7061697
0002d0 f2 73 06 80 c6 4d 07 80 61 bc 06 80 c3 d7 04 80
       -5.92606e-40 -6.70748e-40 -6.1859e-40 -4.44743e-40
0002e0 0a 18 03 80 75 97 02 80 c6 53 01 80 13 c4 00 80
       -2.8413e-40 -2.38004e-40 -1.21888e-40 -7.0338e-41
0002f0 e8 dc 00 00 3f 76 00 00 99 3a 00 00 f6 ab 00 00
       7.9246e-41 4.2419e-41 2.1021e-41 6.1688e-41
000300 0b 19 00 00 e0 65 01 80 ed 52 02 80 06 f0 80 82
       8.984e-42 -1.28381e-40 -2.13419e-40 -1.8945676e-37
000310 2a 4a ce 88 67 74 e6 8e 36 e1 30 92 9b 46 e8 15
       -1.241561e-33 -5.681147e-30 -5.58134e-28 9.381545e-26
000320 fa 5a 01 80 ae 2f 01 80 3e 2e 01 80 af 62 01 80
       -1.24472e-40 -1.0894e-40 -1.08424e-40 -1.27236e-40
000330 71 6d 02 80 e7 53 0e 80 d1 73 b8 80 44 8e 96 87
       -2.22931e-40 -1.315795e-39 -1.6939278e-38 -2.2653108e-34
000340 d7 b2 f2 8d 85 a3 78 93 c4 6b 2a 96 c9 6a c4 97
       -1.4957456e-30 -3.1382622e-27 -1.3766495e-25 -1.2693159e-24
000350 37 a7 0b 9b eb 63 fa 9b a6 2f 4a 9c d1 40 2b 9c
       -1.155184e-22 -4.14236e-22 -6.689778e-22 -5.6662927e-22
000360 ba 92 9d 9c ef a4 45 9c d7 9e de 9a 4b 98 40 99
       -1.0427316e-21 -6.5395004e-22 -9.207367e-23 -9.956923e-24
000370 03 85 ac 97 3d ad 83 98 95 ce 04 9a 96 d7 80 9a
       -1.1148816e-24 -3.4037632e-24 -2.7463836e-23 -5.328786e-23
000380 d6 5f 06 9c dd bf 87 9d ef 68 80 9d b8 ad 0e 9d
       -4.4460746e-22 -3.5932584e-21 -3.3989817e-21 -1.8883354e-21
000390 96 ad 20 9b d7 68 d4 97 1d 14 75 95 91 60 b4 91
       -1.3290978e-22 -1.3726644e-24 -4.9493223e-26 -2.8458506e-28
0003a0 fe 5d d9 8f 74 89 1c 90 48 87 9b 93 10 61 d0 96
       -2.1434057e-29 -3.0871465e-29 -3.92609e-27 -3.3665467e-25
0003b0 03 1b fc 9c 7b 0f a2 9e bf a4 26 21 e3 04 80 23
       -1.6682944e-21 -1.715882e-20 5.6461027e-19 1.3879857e-17
0003c0 29 8c 8b bd 04 45 86 bc 2a f9 26 bd 6b 51 0b bc
       -0.06813843 -0.016390331 -0.040764965 -0.008503298
0003d0 6e 78 1a bd 26 42 24 bd 21 a6 84 bc 68 bf be 3c
       -0.037712507 -0.040102147 -0.016192498 0.023284629
0003e0 28 4a e0 bc ec ea 6d 3d 74 76 c4 3d cd d9 b8 3d
       -0.02737911 0.058085367 0.09592906 0.09025917
0003f0 04 b9 b4 3d 3e 05 54 3e 6b d5 89 3e 23 00 67 3e
       0.088243514 0.20705125 0.26920637 0.22558646

net.conv_net.4.bias f4 [4]
000000 4a 87 01 36 ec 4e 3e 80 48 9c b4 b6 b1 0d 03 38
       1.9301247e-06 -5.722113e-39 -5.3826116e-06 3.1245585e-05

net.conv_net.5.weight f4 [4]
000000 12 31 01 be d2 27 c2 39 d6 ca 93 3e bf 04 32 bf
       -0.12616375 0.00037032232 0.2886569 -0.6953849

net.conv_net.5.bias f4 [4]
000000 c5 ff 93 3e 6f 1b ed ba ae 56 bf 3f c8 49 0f 40
       0.28906074 -0.0018089841 1.4948328 2.2388783

net.conv_net.5.running_mean f4 [4]
000000 54 3b 6b 3c e7 79 aa 93 26 99 16 3c c0 53 55 3d
       0.014357407 -4.303424e-27 0.009191787 0.052081823

net.conv_net.5.running_var f4 [4]
000000 21 42 8b 3b 04 00 00 00 61 09 2f 3d 86 dc a3 3d
       0.0042498265 6e-45 0.042733554 0.08001046

net.conv_net.7.weight f4 [1, 4, 1]
000000 5b 7f 8c be bb 37 64 3b 90 8d a4 bf 93 00 f4 bf
       -0.27440915 0.0034823257 -1.2855701 -1.9062675
