models/neuron_18.pth (torch, 7967 bytes, 13 tensors)

net.conv_net.1.weight f4 [4, 2, 20]
-1.1421852e-19 -9.218751e-21 -3.2495405e-22 -3.0738335e-25 -7.621486e-30 -1.1454662e-35 -2.08515e-40 -2.3798e-41
1.04827e-40 -6.9914e-41 -2.07521e-40 -1.7152558e-37 -1.0276113e-31 -1.8660765e-28 -1.3772488e-26 -6.6058547e-25
-3.5853704e-24 -5.452052e-23 -2.8876964e-22 -6.08689e-22 -3.7644e-41 5.8877e-41 -5.1072e-41 4.2663e-41
4.4692e-41 3.6334e-41 2.5944e-41 1.389e-41 2.2021e-41 -1.30664e-40 -5.4488e-41 -6.2436e-41
-4.3457e-41 -1.8908e-41 -1.6266e-41 1.13238e-40 5.9136e-41 1.321e-41 -7.877e-42 -4.4392e-41
-0.310307 0.08343662 0.13827723 -0.0515471 -0.058612343 0.052742295 -0.25498012 -0.53075475
0.15536387 0.0023643973 0.065108545 0.4791429 0.79156333 1.0202315 0.16078997 -0.019592796
-0.08667006 -0.18617126 -0.15513591 0.017927777 -0.00972115 -0.11740554 -0.08787357 -0.13236107
-0.042751525 -0.15887405 -0.16965903 -0.017217118 0.016940113 -0.05229508 -0.024094334 -0.117128976
-0.019516068 -0.27830777 -0.44427317 -0.59886533 -0.67634714 -0.35001647 -0.68871427 0.25535995
3.4516913e-18 7.836005e-19 3.9379613e-19 7.199002e-19 4.7898208e-18 3.7354017e-17 2.1516248e-16 4.1346397e-15
1.33946106e-14 3.73355e-14 4.0206814e-14 -1.2712108e-13 -4.1931503e-13 -2.6756575e-13 -2.726623e-14 -7.094697e-16
9.945766e-17 4.2495683e-17 5.3623178e-17 1.0701459e-16 -1.28681e-40 6.2536e-41 7.0309e-41 -7.1927e-41
-6.2397e-41 4.3706e-41 -6.5603e-41 1.88e-42 -4.408e-42 -1.5396902e-28 -1.1870869e-35 5.0479e-41
-6.051e-41 1.913e-42 8.7426e-41 5.9313e-41 6.8545e-41 -4.3768e-41 -6.6955e-41 5.8131e-41
1.2443835e-11 2.0925124e-12 5.175969e-13 3.3416507e-14 5.316815e-15 2.780423e-15 1.4350635e-16 4.723823e-17
2.0466386e-18 3.1033047e-20 3.0648068e-21 5.0698437e-22 1.0906079e-21 1.0960527e-21 -3.3919255e-20 -2.670819e-19
-9.670504e-19 -7.940215e-19 1.2745487e-17 6.909445e-17 2.3283e-41 -1.702e-41 5.16e-43 2.8327e-41
3.283e-41 2.9199e-41 -8.2307e-41 1.0079e-40 -2.461e-41 3.1214e-41 -2.7175e-41 2.8455e-41
2.3711e-41 -2.8865e-41 6.0706e-41 -2.63e-41 -2.867e-41 -3.3005e-41 6.5089e-41 -5.654e-41
00000000: 6ed8 06a0 2523 2e9e 346c c49b d642 be96
00000010: 0595 1a8f 1d9d 7385 4145 0280 5742 0080
00000020: 3724 0100 e4c2 0080 7c42 0280 f177 6982
00000030: 3e64 058c a58d 6c91 6865 8894 f970 4c97
00000040: cab3 8a98 91d2 839a f08c ae9b 08f7 379c
00000050: f068 0080 20a4 0000 5e8e 0080 ed76 0000
00000060: 957c 0000 4965 0000 5248 0000 b826 0000
00000070: 633d 0000 3d6c 0180 e497 0080 0cae 0080
00000080: 2479 0080 b534 0080 582d 0080 a93b 0100
00000090: d9a4 0000 d324 0000 f515 0080 bf7b 0080
000000a0: 8fe0 9ebe d2e0 aa3d 8c98 0d3e 0d23 53bd
000000b0: 7f13 70bd 4e08 583d c18c 82be 8bdf 07bf
000000c0: b517 1f3e 01f4 1a3b a157 853d 3852 f53e
000000d0: e5a3 4a3f f296 823f 20a6 243e 1281 a0bc
000000e0: 1380 b1bd aea3 3ebe f3db 1ebe 46dd 923c
000000f0: 7545 1fbc 5172 f0bd 0ff7 b3bd a989 07be
00000100: 391c 2fbd e1af 22be 19bb 2dbe ea0a 8dbc
00000110: fec5 8a3c 5e33 56bd 7b61 c5bc 51e1 efbd
00000120: 29e0 9fbc 5b7e 8ebe c677 e3be 3d4f 19bf
00000130: 1625 2dbf 5c35 b3be 944f 30bf 8abe 823e
00000140: 9bb0 7e22 2e47 6721 ca74 e820 1f7a 5421
00000150: 94b6 b022 d743 2c24 c110 7825 52f7 9427
00000160: bd4b 7128 e724 2829 4d13 3529 2820 0faa
00000170: aa0d ecaa 4aa0 96aa a597 f5a8 a07d 4ca6
00000180: 7155 e524 0cfa 4324 134b 7724 44c2 f624
00000190: b666 0180 53ae 0000 fec3 0000 81c8 0080
000001a0: f0ad 0080 d679 0000 e0b6 0080 3e05 0000
000001b0: 4a0c 0080 ce2d 4391 2977 7c85 b78c 0000
000001c0: ada8 0080 5505 0000 b5f3 0000 57a5 0000
000001d0: 13bf 0000 027a 0080 a5ba 0080 0ca2 0000
000001e0: 0dea 5a2d 5a3f 132c cab0 112b 9c7e 1629
000001f0: f68e bf27 c059 4827 9973 2525 0fd9 5924
00000200: e903 1722 a78c 121f fc91 671d 043a 191c
00000210: d9ce a41c 7ca1 a51c dd2d 209f 47a8 9da0
00000220: 22b6 8ea1 915a 6aa1 dc1c 6b23 2a52 9f24
00000230: e740 0000 722f 0080 7001 0000 f74e 0000
00000240: 845b 0000 6551 0000 70e5 0080 f618 0100
00000250: 9a44 0080 0357 0000 c14b 0080 524f 0000
00000260: 1942 0000 7750 0080 39a9 0000 5049 0080
00000270: ec4f 0080 015c 0080 71b5 0000 9c9d 0080

net.conv_net.1.bias f4 [4]
4.5396e-39 -9.963294e-07 1.36386e-39 -8.581423e-39
00000000: 8f6e 3100 9eb9 85b5 e3d9 0e00 8471 5d80

net.conv_net.2.weight f4 [4]
1.7104789e-08 0.83096254 2.0816638e-06 -8.018825e-08
00000000: d4ed 9232 f6b9 543f b6b2 0b36 f533 acb3

net.conv_net.2.bias f4 [4]
-3.7291454e-09 -0.9037099 -2.9468492e-07 -6.669507e-05
00000000: e921 80b1 8859 67bf 3035 9eb4 a5de 8bb8

net.conv_net.2.running_mean f4 [4]
-1.1353513e-21 -0.046915874 3.5558646e-15 1.3737721e-13
00000000: c791 ab9c dc2a 40bd 101d 8027 49ac 1a2a

net.conv_net.2.running_var f4 [4]
1.1622012e-38 1.7712778 4.4099277e-25 1.7138451e-22
00000000: 718d 7e00 3bb9 e23f 0c7b 0817 f030 4f1b

net.conv_net.4.weight f4 [4, 4, 20]
7.789596e-09 3.8105763e-09 -5.246625e-09 -1.0910841e-08 -2.8206482e-08 -8.89833e-09 -5.6482197e-09 -1.0260934e-08
-2.1224402e-08 -2.4903851e-08 -2.0575762e-08 -2.262871e-08 -6.3328525e-09 -8.571622e-09 -9.609089e-09 -9.903384e-09
-2.000385e-09 -3.3505673e-10 -1.784537e-11 3.900033e-12 0.21137647 -0.21225211 -0.13331935 -0.15496422
0.00091605465 -0.039924316 0.43475136 0.03166994 -0.24469599 -0.121873796 0.011862525 -0.015027985
0.061087947 0.008523473 -0.14336668 -0.89820254 -0.13341779 0.1398763 -0.24402726 -0.643594
-1.4502763e-10 1.2816357e-09 2.770308e-09 6.4254855e-09 4.716659e-09 1.7287516e-10 -2.8986835e-10 -8.4334056e-10
-1.9279445e-09 -1.3684779e-09 -4.5928397e-10 1.1967316e-09 9.39866e-10 2.6769448e-10 1.4438178e-10 1.7042145e-10
4.2990212e-11 -2.3745488e-09 -2.6916847e-09 -5.0972586e-09 5.372381e-16 4.611487e-16 4.951996e-16 2.4196616e-16
-7.034847e-18 -4.3853695e-17 -6.3771874e-18 -1.024575e-18 -1.8821748e-20 3.4965744e-21 1.5094241e-21 2.4523636e-22
3.7800397e-23 2.6301465e-24 2.7316163e-25 -4.3256975e-26 -5.982833e-26 -2.9095917e-26 -1.12436e-27 -2.1928569e-28
-7.2920725e-10 -1.1449044e-09 -9.420683e-10 -7.705122e-09 -2.5864428e-09 -2.3287314e-09 -6.354958e-10 -1.183234e-10
-4.4498882e-10 -7.519646e-10 -2.2587823e-10 -2.0383262e-10 -3.2191746e-10 -5.1131926e-10 -1.8727471e-10 -2.613954e-12
-1.6367926e-12 -1.9486264e-14 -1.3420333e-15 -3.2159156e-19 0.03058501 0.03649247 0.04519677 0.011699963
0.017053109 -0.017938677 0.034760255 0.011327585 -0.042465296 -0.01773318 -0.01567793 -0.015117324
0.0016588381 0.004096113 -0.0107925525 -0.07705607 -0.0795381 -0.06506398 -0.015171708 -0.04878373
-5.420842e-11 -1.3045823e-10 -8.612111e-11 -3.1419442e-12 -9.1679644e-15 -8.1073775e-20 -3.2958233e-20 -9.306426e-19
1.4293474e-26 -2.4533965e-20 -3.5287054e-14 -1.9743857e-14 -3.0127482e-15 -3.599474e-15 -2.754191e-15 -1.5818688e-11
-1.9190033e-11 -3.7800644e-14 -3.1529033e-11 -1.178162e-10 6.1011606e-19 1.09515975e-20 -1.3279572e-22 -1.6625353e-21
-1.9968738e-19 -1.0717374e-15 -6.13315e-15 -3.2193107e-13 -8.238544e-12 -5.3102253e-12 -1.4026186e-10 -2.745198e-10
-5.480057e-10 -4.480083e-09 1.5119996e-09 -7.563589e-09 -3.4684824e-08 -3.3441935e-08 -4.7142066e-08 -3.0024516e-08
-1.824e-42 3.924e-41 5.827e-41 -3.887e-42 5.8812e-41 -1.6021e-41 -3.635e-42 -6.1803e-41
7.3977e-41 -4.4491e-41 8.21e-42 3.3687e-41 1.2540527e-37 2.1714207e-31 1.0538027e-34 1.52621e-40
2.18803e-40 -1.6628e-41 1.958e-41 -9.0923e-41 0.04436017 0.068273045 0.072193585 0.03682576
0.04103403 -0.019990725 0.048030294 -0.0049830903 -0.07291663 -0.013540464 -0.0374735 -0.03291497
-0.0027404202 -0.0035731124 -0.023847463 -0.13545644 -0.11790235 -0.103075884 -0.039075486 -0.09402704
1.91291e-40 1.45312e-39 2.530193e-39 6.55931e-40 1.5180251e-38 6.3976177e-31 5.6771e-40 1.07627e-40
1.98683e-40 -2.7117e-41 1.61121e-40 6.2911e-41 1.64364e-40 -1.6601e-41 7.1067e-41 1.2788e-40
-3.0646e-41 -3.9559e-41 5.7017e-41 2.812e-42 1.5460077e-36 2.3229758e-38 1.027958e-39 3.85957e-40
2.23632e-40 1.11315e-40 5.3436e-41 -5.833e-41 5.5472e-41 3.9012e-41 4.062e-42 1.5999e-41
4.2342e-41 4.5625e-41 2.8644e-41 -6.157e-41 -1.0508e-40 9.5194e-41 -7.4642e-41 -9.83e-42
2.335895e-16 -4.532348e-16 -3.575523e-15 -3.070701e-14 -9.635636e-15 -1.318603e-14 -3.6547367e-15 5.131865e-16
2.341911e-15 1.0360411e-14 1.5476256e-14 1.9650206e-14 4.524582e-14 7.2395106e-14 1.9236449e-14 1.4769643e-15
00000000: 01d3 0532 2fee 8231 cd45 b4b1 6372 3bb2
00000010: b64a f2b2 45df 18b2 4412 c2b1 1148 30b2
00000020: f450 b6b2 26ec d5b2 94be b0b2 0f61 c2b2
00000030: 5c98 d9b1 6442 13b2 3815 25b2 8b23 2ab2
00000040: 2577 09b1 0b33 b8af 33f8 9cad 6038 892c
00000050: 1373 583e 9e58 59be de84 08be f1ae 1ebe
00000060: 6323 703a ae87 23bd bb97 de3e 57b8 013d
00000070: 9691 7abe f898 f9bd 095b 423c f037 76bc
00000080: 5b37 7a3d 09a6 0b3c b7ce 12be 9af0 65bf
00000090: ac9e 08be bc3b 0f3e 48e2 79be 94c2 24bf
000000a0: a675 1faf 8c25 b030 c65f 3e31 2bc7 dc31
000000b0: 2c10 a231 0814 3e2f 585b 9faf d1d0 67b0
000000c0: c27c 04b1 0915 bcb0 797e fcaf 407a a430
000000d0: 982c 8130 a62a 932f dcbf 1e2f 6061 3b2f
000000e0: ad12 3d2e 812d 23b1 9ef8 38b1 f623 afb1
000000f0: 2dd9 1a26 c5ea 0426 48bb 0e26 e77b 8b25
00000100: 20c5 01a3 4e3d 4aa4 d546 eba2 5933 97a1
00000110: 32c4 b19e cb18 841d 0419 e41c 7d3c 941b
00000120: a0ca 361a 6b7f 4b18 3014 a916 bb32 5695
00000130: b620 9495 7513 1095 7629 b292 23fd 8a91
00000140: 6671 48b0 be5a 9db0 157a 81b0 7c5f 04b2
00000150: 2fbd 31b1 7a07 20b1 0baf 2eb0 1419 02af
00000160: 9ca2 f4af ceb2 4eb0 125b 78af c81d 60af
00000170: dbf9 b0af e58c 0cb0 25e9 4daf cff0 37ac
00000180: ab5b e6ab 4484 afa8 4a68 c1a6 8bd5 bda0
00000190: 6a8d fa3c 2179 153d 4020 393d 34b1 3f3c
000001a0: f6b2 8b3c 22f4 92bc c560 0e3d 5697 393c
000001b0: 17f0 2dbd 2d45 91bc 016f 80bc a7ae 77bc
000001c0: 5f6d d93a b038 863b 3fd3 30bc 93cf 9dbd
000001d0: dfe4 a2bd 4440 85bd c192 78bc 73d1 47bd
000001e0: 4169 6eae ba70 0faf e061 bdae 3c18 5dac
000001f0: c627 25a8 176e bf9f 0fa4 1b9f af56 89a1
00000200: 438e 8d14 7db7 e79e 34eb 1ea9 3cd6 b1a8
00000210: 6517 59a7 4aaf 81a7 db75 46a7 8524 8bad
00000220: 1dcc a8ad 2d3d 2aa9 89aa 0aae 508a 01af
00000230: 1113 3421 adde 4e1e 498a 209b 383c fb9c
00000240: cfbf 6ba0 2274 9aa6 53f8 dca7 283b b5aa
00000250: 1bef 10ad 42d6 baac 3438 1aaf 3aeb 96af
00000260: 79a2 16b0 3aef 99b1 c2ce cf30 04f1 01b2
00000270: 5ef8 14b3 cca1 0fb3 4079 4ab3 4ef4 00b3
00000280: 1605 0080 636d 0000 6fa2 0000 d60a 0080
00000290: f2a3 0000 a92c 0080 220a 0080 48ac 0080
000002a0: 38ce 0000 067c 0080 e316 0000 e85d 0000
000002b0: 5cb1 2a02 eaee 8c0c 0c13 0c07 72a9 0100
000002c0: ef61 0200 5a2e 0080 9536 0000 75fd 0080
000002d0: 02b3 353d bdd2 8b3d 3bda 933d 9cd6 163d
000002e0: 4d13 283d 97c3 a3bc 6abb 443d 3149 a3bb
000002f0: 5055 95bd d3d8 5dbc d07d 19bd d9d1 06bd
00000300: 9f98 33bb e12a 6abb c15b c3bc 18b5 0abe
00000310: ca76 f1bd 7319 d3bd 9e0d 20bd 4091 c0bd
00000320: 3e15 0200 b5d2 0f00 268d 1b00 7824 0700
00000330: 5d4c a500 549d 4f0d 8b2e 0600 052c 0100
00000340: d929 0200 974b 0080 24c1 0100 5faf 0000
00000350: 2eca 0100 472e 0080 1bc6 0000 7a64 0100
00000360: 6e55 0080 466e 0080 f19e 0000 d707 0000
00000370: 1185 0304 1df3 fc00 8731 0b00 e433 0400
00000380: 656f 0200 4d36 0100 f594 0000 9aa2 0080
00000390: a29a 0000 c06c 0000 530b 0000 992c 0000
000003a0: 0876 0000 2f7f 0000 d94f 0000 a2ab 0080
000003b0: ec24 0180 5d09 0100 12d0 0080 671b 0080
000003c0: baa7 8625 d3a2 02a6 61d2 80a7 c64a 0aa9
000003d0: 8794 2da8 d589 6da8 ffac 83a7 7bea 1326
000003e0: a2c0 2827 f6a2 3a28 d165 8b28 4afe b028
000003f0: e1c4 4b29 f004 a329 3b44 ad28 5dda d426

net.conv_net.4.bias f4 [4]
2.2018156e-05 4.0871178e-06 1.260629e-07 1.2076628e-05
00000000: a1b3 b837 1324 8936 e85b 0734 b99c 4a37

net.conv_net.5.weight f4 [4]
0.7450993 0.21893282 0.3309061 0.7125605
00000000: d4be 3e3f ed2f 603e 866c a93e 5d6a 363f

net.conv_net.5.bias f4 [4]
2.6388104 0.35551274 0.53520346 1.1158906
00000000: 45e2 2840 c405 b63e 1803 093f 81d5 8e3f

net.conv_net.5.running_mean f4 [4]
-0.09568784 -0.009751399 -0.017944323 0.012986047
00000000: fcf7 c3bd 55c4 1fbc f9ff 92bc 6ec3 543c

net.conv_net.5.running_var f4 [4]
0.07252402 0.0023659854 0.007487427 0.11889657
00000000: 7987 943d a60e 1b3b 1759 f53b 0b80 f33d

net.conv_net.7.weight f4 [1, 4, 1]
-2.5206547 -0.35866338 -0.54779136 -1.2078966
00000000: 6852 21c0 baa2 b7be 0e3c 0cbf 5b9c 9abf
