models/neuron_30.pth (torch, 7967 bytes, 13 tensors)

net.conv_net.1.weight f4 [4, 2, 20]
-0.054997686 0.011501771 0.17266445 0.16983867 0.1190475 0.1255554 0.120723665 0.10282054
0.064660855 -0.052866675 -0.05702457 0.024034204 -0.046713606 -0.09790162 -0.11359859 -0.10410723
-0.11992575 0.060242493 0.25224537 0.34897202 0.026821347 0.025069894 0.018612403 -0.010501173
0.09191207 0.05684827 -0.07513764 0.010118775 -0.015372811 -0.016381579 0.04856625 0.085139975
0.12856062 0.13203913 0.12628403 0.06405226 0.07128117 -0.1103931 -0.17795973 1.155182
3.2949e-41 1.0253e-41 -3.3036e-41 5.39e-42 6.0577e-41 2.6744e-41 -2.8168e-41 -2.9986e-41
2.9286e-41 -9.5776e-41 3.4592e-41 4.0036e-41 -2.7977e-41 5.6154e-41 4.614e-41 -8.782e-42
4.4722e-41 4.4329e-41 -3.0184e-41 3.805e-41 -9.9213e-41 -5.04016e-40 -4.578e-42 6.15959e-40
7.41997e-40 -9.8995e-41 -1.140372e-39 -3.2838e-41 -3.6816e-41 1.0036e-41 -7.4377e-41 6.9119e-41
9.3252e-41 3.1011e-41 -1.05306e-40 6.274e-42 8.9612e-41 3.5522e-41 3.229e-42 6.6997e-41
-1.882094e-09 3.9330844e-11 1.5534724e-10 2.695199e-11 1.8537843e-12 8.5637294e-14 3.0065297e-15 2.8680337e-16
1.9373339e-16 5.1127036e-16 -4.5816327e-14 -3.258774e-12 -5.915721e-11 -4.9987386e-10 -2.6470286e-09 -1.1554645e-08
-3.879411e-08 -1.1160004e-07 -3.0127626e-07 -6.793919e-07 2.46036e-40 3.1082e-41 1.87274e-40 6.376e-42
5.4014e-41 3.631e-40 -3.26025e-40 1.62113e-40 -1.7619e-40 3.02795e-40 -2.60852e-40 -3.2548e-41
3.5186e-40 3.2222e-40 7.9487e-41 1.63981e-40 -1.47471e-40 1.95092e-40 6.1059e-41 7.4441e-41
-0.3829759 -0.27393892 -0.1442503 -0.05695513 -0.02610514 -0.013139635 0.0070383716 0.021194056
0.015961966 0.0075495057 -0.05510355 -0.011987099 -0.016437985 -0.004132176 -0.008186586 -0.072030865
-0.10149291 -0.17524746 -0.21632244 -0.19653396 -0.00040974905 -0.0005874587 -0.0008511871 -0.00058388297
-0.00040893015 -0.00013279197 8.56052e-05 0.0003088329 0.00044402396 0.00060892035 0.000795341 0.0009790724
0.0012080126 0.0013693062 0.0015140092 0.0016267805 0.0016764761 0.0016894923 0.0016954548 0.001664241
00000000: 4145 61bd ed71 3c3c f3ce 303e 30ea 2d3e
00000010: 2dcf f33d 9891 003e f83d f73d 9393 d23d
00000020: e96c 843d ba8a 58bd 9892 69bd 61e3 c43c
00000030: c456 3fbd a580 c8bd 61a6 e8bd 2c36 d5bd
00000040: a29b f5bd d5c0 763d 4e26 813e 76ac b23e
00000050: 71b8 db3c 615f cd3c 0a79 983c 1d0d 2cbc
00000060: 653c bc3d bbd9 683d c3e1 99bd 38c9 253c
00000070: 3ede 7bbc a932 86bc 67ed 463d de5d ae3d
00000080: 65a5 033e 4435 073e 9a50 013e d52d 833d
00000090: ddfb 913d c715 e2bd 133b 36be 01dd 933f
000000a0: d95b 0000 951c 0000 175c 0080 060f 0000
000000b0: dda8 0000 8d4a 0000 854e 0080 9753 0080
000000c0: a351 0000 fc0a 0180 6e60 0000 9b6f 0000
000000d0: fd4d 0080 899c 0000 9f80 0000 7b18 0080
000000e0: ab7c 0000 927b 0000 2454 0080 116a 0000
000000f0: 9114 0180 fe7c 0580 c30c 0080 0bb5 0600
00000100: 6314 0800 f513 0180 e56a 0c80 8a5b 0080
00000110: a166 0080 fa1b 0000 55cf 0080 adc0 0000
00000120: f303 0100 7256 0000 8d25 0180 7d11 0000
00000130: cdf9 0000 0563 0000 0009 0000 c3ba 0000
00000140: 2656 01b1 98fa 2c2e 5cce 2a2f 7c12 ed2d
00000150: cf72 022c 8ad6 c029 afa4 5827 b554 a525
00000160: 015c 5f25 185d 1326 a156 4ea9 da50 65ac
00000170: 8c16 82ae 7f67 09b0 05e7 35b1 de81 46b2
00000180: 939e 26b3 c5a8 efb3 18bf a1b4 755f 36b5
00000190: d9ad 0200 a556 0000 0b0a 0200 c611 0000
000001a0: 9296 0000 2df4 0300 d38c 0380 e8c3 0100
000001b0: 25eb 0180 124c 0300 26d7 0280 bb5a 0080
000001c0: d8d4 0300 3882 0300 94dd 0000 1dc9 0100
000001d0: 179b 0180 d61f 0200 35aa 0000 83cf 0000
000001e0: 6b15 c4be b941 8cbe 5ab6 13be c849 69bd
000001f0: 72da d5bc a047 57bc 24a2 e63b 289f ad3c
00000200: abc2 823c d861 f73b 43b4 61bd 8a65 44bc
00000210: f4a8 86bc 3467 87bb 0821 06bc eb84 93bd
00000220: 84db cfbd 1274 33be a183 5dbe 3340 49be
00000230: 96d3 d6b9 b0ff 19ba 3322 5fba b90f 19ba
00000240: ad65 d6b9 133e 0bb9 f186 b338 daea a139
00000250: e3cb e839 f49f 1f3a 6e7e 503a 3854 803a
00000260: 2d56 9e3a 4b7a b33a b871 c63a b239 d53a
00000270: 34bd db3a f471 dd3a 063a de3a a922 da3a

net.conv_net.1.bias f4 [4]
8.60618e-07 -2.730298e-39 -3.692284e-39 2.1649925e-07
00000000: 3805 6735 f6ba 1d80 9634 2880 dc76 6834

net.conv_net.2.weight f4 [4]
0.1876792 7.809843e-37 1.4826443e-07 0.42990398
00000000: fa2e 403e aae0 8403 9e32 1f34 601c dc3e

net.conv_net.2.bias f4 [4]
0.3468774 -2.531114e-29 -4.2998996e-05 -0.30959156
00000000: ea99 b13e bd57 0090 d259 34b8 c982 9ebe

net.conv_net.2.running_mean f4 [4]
0.0024807507 -2.731593e-39 1.0666642e-08 -0.00043177305
00000000: 1794 223b 92be 1d80 6340 3732 995f e2b9

net.conv_net.2.running_var f4 [4]
0.5168274 6e-45 1.0351834e-12 1.6355587
00000000: cd4e 043f 0400 0000 6ab0 912b fd59 d13f

net.conv_net.4.weight f4 [4, 4, 20]
0.008120985 0.0075302324 0.0067804935 0.0059817224 0.0045608794 0.0035394034 0.0027975831 0.001480672
9.780074e-05 -0.00039875606 -0.0011889209 -0.001148347 -0.0016515405 -0.0022102639 -0.003192061 -0.0023201134
-0.0013841895 4.5340406e-05 0.0007216053 -0.004481537 -3.4186e-41 -3.0963e-41 5.825e-42 -4.8596e-41
5.5931e-41 -5.489e-41 -1.15094e-40 2.26761e-40 8.38788e-40 2.5027244e-37 3.2776565e-35 9.843256e-34
8.564079e-33 2.6897944e-32 2.5295772e-32 8.2178024e-33 1.1153391e-33 6.1080426e-35 9.487435e-37 6.771507e-39
1.7635221e-29 3.2153877e-28 7.44377e-28 1.972326e-28 2.9192639e-30 1.7017005e-33 3.101e-40 -1.3511e-41
1.8636e-40 -3.36787e-40 -4.4041e-41 1.40127e-40 1.5342883e-35 1.9374797e-30 6.2374703e-28 6.1571037e-27
1.0142167e-26 5.580858e-27 2.8966173e-27 3.7566504e-27 0.0023836286 0.0019904983 0.001726491 0.0016390628
0.0016620584 0.0017038322 0.0017477386 0.0016617143 0.0015471597 0.0014425202 0.0013685729 0.0013195898
0.001276336 0.0012189419 0.0011488571 0.0010655881 0.00097438454 0.00088323856 0.00080901437 0.0007527582
0.23061177 0.20314617 0.14669271 0.119980335 0.022578724 -0.0024179728 0.050570507 -0.031038096
-0.039374433 0.00029013824 0.057239514 -0.1520675 -0.20229107 -0.15797783 -0.16127725 -0.012366609
-0.109174445 -0.22878242 -0.15124607 -0.62216586 -6.567812e-14 -3.2042029e-13 -7.002758e-13 -1.949146e-12
-1.8652883e-12 -1.9353395e-12 2.8518596e-13 1.4977986e-11 3.9848735e-11 6.739208e-11 9.0558824e-11 1.08334015e-10
1.1588666e-10 1.9735434e-10 1.7205619e-10 7.007886e-11 6.113159e-11 2.0466673e-11 8.4407455e-12 4.7101906e-12
4.3236633e-11 4.058426e-11 4.0663885e-11 4.3858376e-12 -7.6010996e-11 -3.6849662e-10 -1.4283763e-09 -4.521587e-09
-1.15334515e-08 -2.1090893e-08 -2.154266e-08 -1.7230095e-08 3.2343042e-08 1.5561992e-07 3.270325e-07 4.5068504e-07
5.490986e-07 5.0921216e-07 4.3265848e-07 3.7685123e-07 0.2748662 0.16737536 0.08863324 0.03288738
0.010926576 0.0031138891 0.0006782797 -0.007403847 -0.014042728 -0.020891996 -0.028509948 -0.036586117
-0.044649467 -0.055086162 -0.068230376 -0.083288 -0.10030267 -0.11796294 -0.13466887 -0.14957032
0.23258899 0.1593468 0.10098131 0.07482183 0.001628075 0.015746221 0.06581446 -0.032475222
-0.094335705 -0.011804183 -0.009244415 0.040800113 0.031370316 -0.054772653 -0.010077841 0.019060465
0.121971495 0.4273383 0.75332206 -0.80262274 -1.0142122e-19 -1.6507259e-18 -3.019121e-17 -1.4509026e-16
6.9607495e-16 1.4802157e-14 7.0226e-14 2.917621e-13 2.7803072e-13 -5.910192e-13 -1.8635141e-12 -3.5027684e-12
-3.647662e-12 -3.7358268e-12 -3.9722284e-12 -2.2971937e-12 -3.9562377e-13 2.7027523e-13 8.872399e-14 6.0699885e-14
7.636274e-12 6.4001742e-12 3.9087223e-12 -1.0267335e-12 -5.6618967e-12 -1.2122086e-11 -2.5499934e-11 -5.6739217e-11
-1.6715512e-10 -1.1951944e-10 2.407042e-09 8.021337e-09 2.3951571e-08 5.790075e-08 8.0803346e-08 1.1079723e-07
9.5768826e-08 8.393117e-08 1.2038353e-07 1.8838357e-07 0.27931175 0.20122348 0.14510211 0.10497971
0.077408925 0.056034323 0.041393988 0.021133976 0.003369738 -0.010649832 -0.025106616 -0.036808506
-0.046245933 -0.053978994 -0.060888197 -0.06808272 -0.07590465 -0.084126234 -0.09293929 -0.10213375
0.054219797 0.051039204 0.047426887 0.043127954 0.033052366 0.027379377 0.024644159 0.012785285
0.002188518 -0.0007963188 -0.008929538 -0.010621379 -0.010924683 -0.021094786 -0.03094029 -0.013837633
00000000: e10d 053c 2bc0 f63b e72e de3b 5302 c43b
00000010: 6e73 953b 56f5 673b a857 373b 1c13 c23a
00000020: 5f1a cd38 2210 d1b9 91d5 9bba 2284 96ba
00000030: 8178 d8ba 13da 10bb e631 51bb 0b0d 18bb
00000040: b16d b5ba e42b 3e38 1d2a 3d3a dbd9 92bb
00000050: 4c5f 0080 5056 0080 3d10 0000 7787 0080
00000060: ea9b 0000 0399 0080 d640 0180 1e78 0200
00000070: 3322 0900 9c53 aa02 2645 2e06 958c a308
00000080: 74de 310a 80a9 0b0b d957 030b 55ad 2a0a
00000090: 4751 b908 2f61 a206 9c6b a103 35bc 4900
000000a0: a7d7 b20f a6cc cb11 09e7 6b12 a305 7a11
000000b0: bdd6 6c0e 2b5f 0d09 6f60 0300 aa25 0080
000000c0: 7f07 0200 d3aa 0380 c57a 0080 9e86 0100
000000d0: 4d27 a305 e12f 1d0e 5fac 4512 73e8 f313
000000e0: e5e2 4814 a014 dd13 617e 6513 f6d0 9413
000000f0: a736 1c3b 0573 023b 6d4b e23a d2d5 d63a
00000100: 6dd9 d93a 1f53 df3a 6014 e53a e1cd d93a
00000110: 11ca ca3a f212 bd3a b061 b33a 16f6 ac3a
00000120: bb4a a73a e7c4 9f3a 3f95 963a 34ab 8b3a
00000130: d76d 7f3a 2389 673a 0914 543a bf54 453a
00000140: 7e25 6c3e 8d05 503e 9d36 163e 40b8 f53d
00000150: 04f7 b83c da76 1ebb 0523 4f3d 9b43 febc
00000160: 1647 21bd b21d 9839 fb73 6a3d 95b7 1bbe
00000170: 6425 4fbe f1c4 21be dd25 25be 519d 4abc
00000180: da96 dfbd f045 6abe 40e0 1abe 4346 1fbf
00000190: dce4 93a9 6e61 b4aa 301c 45ab b128 09ac
000001a0: 0c42 03ac fa2f 08ac a18b a02a 6dbf 832d
000001b0: b041 2f2e 5e32 942e 1624 c72e a13a ee2e
000001c0: 64d6 fe2e 4ffe 582f 832d 3d2f e41a 9a2e
000001d0: 076e 862e da06 b42d bd7d 142d a0b9 a52c
000001e0: 1f28 3e2e d17d 322e 77d7 322e 1d50 9a2c
000001f0: 6326 a7ae 4a95 caaf 8650 c4b0 4d5c 9bb1
00000200: a824 46b2 5d2b b5b2 cf0c b9b2 6101 94b2
00000210: 8de9 0a33 7a18 2734 0193 af34 aef5 f134
00000220: c565 1335 cbb0 0835 2148 e834 0a52 ca34
00000230: 43bb 8c3e 7264 2b3e 5885 b53d ebb4 063d
00000240: 6205 333c 6412 4c3b 95ce 313a f89b f2bb
00000250: 7813 66bc b125 abbc b28d e9bc 53db 15bd
00000260: 5ce2 36bd 07a2 61bd 5ebc 8bbd e692 aabd
00000270: 7c6b cdbd 8e96 f1bd a3e6 09be f628 19be
00000280: cf2b 6e3e cf2b 233e 4acf ce3d 303c 993d
00000290: 2265 d53a 38fe 803c bbc9 863d bd04 05bd
000002a0: 1433 c1bd 5566 41bc e375 17bc 051e 273d
000002b0: 297e 003d 4a59 60bd 871d 25bc b124 9c3c
000002c0: 31cc f93d 16cc da3e b7d9 403f af78 4dbf
000002d0: 5e79 ef9f a99a f3a1 7d3b 0ba4 1647 27a5
000002e0: 44a1 4826 7353 8528 8822 9e29 5a3f a42a
000002f0: 7384 9c2a 6c5b 26ab 1622 03ac 447c 76ac
00000300: 3857 80ac 5671 83ac a7c2 8bac 90a6 21ac
00000310: 65b7 deaa c426 982a e6c9 c729 1aaf 8829
00000320: b956 062d a52f e12c a486 892c f97f 90ab
00000330: d535 c7ac 0641 55ad bf4c e0ad ae8a 79ae
00000340: fcc9 37af bb69 03af 2169 2531 37ce 0932
00000350: 10be cd32 8cae 7833 1c86 ad33 6cef ed33
00000360: 78a9 cd33 a63d b433 c642 0134 7b46 4a34
00000370: f301 8f3e 870d 4e3e a695 143e 9aff d63d
00000380: 9288 9e3d 3f84 653d be8c 293d 2921 ad3c
00000390: d3d6 5c3b a27c 2ebc 64ac cdbc 84c4 16bd
000003a0: 606c 3dbd 1419 5dbd e765 79bd f46e 8bbd
000003b0: e673 9bbd 604a acbd f456 bebd 802b d1bd
000003c0: 9415 5e3d 7c0e 513d b242 423d f0a6 303d
000003d0: eb61 073d b74a e03c 8ce2 c93c 5f79 513c
000003e0: 3d6d 0f3b 0dc0 50ba 324d 12bc 4b05 2ebc
000003f0: 71fd 32bc f9ce acbc 7e76 fdbc 3db7 62bc

net.conv_net.4.bias f4 [4]
1.329452e-08 -3.1734096e-06 3.4726102e-06 1.8941176e-07
00000000: eb65 6432 c3f6 54b6 fd0a 6936 1c61 4b34

net.conv_net.5.weight f4 [4]
0.0124053545 1.4687808 1.1558703 0.080233626
00000000: d43f 4b3c 0201 bc3f 8ff3 933f 8751 a43d

net.conv_net.5.bias f4 [4]
0.026699625 2.2571874 1.3894918 0.19643886
00000000: 2cb9 da3c c275 1040 deda b13f 4527 493e

net.conv_net.5.running_mean f4 [4]
0.010087781 -0.38215664 0.3746426 0.08086833
00000000: 3847 253c 09aa c3be 28d1 bf3e 4c9e a53d

net.conv_net.5.running_var f4 [4]
1.9860267e-05 0.040792707 0.029708879 0.0010673772
00000000: 9999 a637 4116 273d 0960 f33c 3ce7 8b3a

net.conv_net.7.weight f4 [1, 4, 1]
-0.03399658 -2.622496 -1.7515955 -0.28743243
00000000: ff3f 0bbd f9d6 27c0 4834 e0bf 582a 93be
