models/neuron_43.pth (torch, 7967 bytes, 13 tensors)

net.conv_net.1.weight f4 [4, 2, 20]
-9.169929e-08 -4.6866793e-07 -6.9638827e-07 -9.570693e-07 -6.5114193e-07 -8.664729e-07 -3.9808717e-07 -2.1891024e-07
-1.6666621e-07 -3.6163538e-08 -1.4107482e-08 -7.744367e-10 -1.2437842e-11 8.373564e-12 1.8009788e-13 4.0439894e-15
2.2317664e-15 5.5861565e-14 4.0479725e-12 1.5077795e-10 1.23461e-40 1.31289e-40 2.22e-41 -1.09076e-40
3.9085e-41 -7.204e-42 -6.6933e-41 -9.7934e-41 8.9256e-41 9.8363e-41 -3.077e-41 1.43158e-40
-1.16383e-40 1.95976e-40 -6.2359e-41 -2.04868e-40 -6.4893e-41 2.50625e-40 -3.3679e-41 -8.103e-41
-4.9173445e-30 -8.500896e-31 -1.5973696e-31 1.05873485e-30 3.726589e-30 1.0117255e-29 5.660692e-30 5.549521e-30
3.702495e-30 2.3240334e-30 4.0513465e-31 7.9947675e-32 3.9208765e-33 1.526676e-34 -1.5977335e-34 -4.572124e-35
-1.6679421e-35 -4.9329914e-36 -2.1251507e-36 -1.4544475e-36 1.8265e-41 -2.9497e-41 -8.2897e-41 -1.2253e-41
1.19887e-40 4.1534e-41 3.893e-41 2.648e-42 4.3327e-41 4.1554e-41 8.924e-41 1.04067e-40
1.14775e-40 9.4862e-41 -3.8232e-41 -4.2277e-41 -1.0564e-41 -1.1423e-41 9.0445e-41 9.2665e-41
9.7568e-41 -3.983e-41 -3.6582e-41 5.63e-41 -1.6562e-41 -3.0387e-41 4.464e-41 -3.1074e-41
2.4628e-41 5.44e-43 7.644e-42 -4.9073e-41 -1.57e-43 1.8221e-41 8.184e-42 -3.0205e-41
1.37144e-40 -9.9031e-41 6.0704e-41 -5.5682e-41 7.4319e-41 -7.2123e-41 -1.0644e-41 5.2495e-41
-9.7309e-41 -3.2921e-41 -6.1937e-41 1.2375e-41 -9.6213e-41 -2.7072e-41 -8.088e-42 -6.9783e-41
-2.3187e-41 2.5551e-41 -7.2729e-41 -2.0425e-41 -8.1897e-41 -5.202e-42 1.7293e-41 1.5306e-41
0.35989144 0.3599401 0.31915134 0.17194858 0.10789149 -0.00879985 -0.119720235 -0.21722186
-0.31193498 -0.3541373 -0.3465198 -0.33487967 -0.31730035 -0.26525173 -0.18362236 -0.047842875
0.07624223 0.23200443 0.3731444 0.52570933 0.097667865 0.11414046 0.06546705 0.07604351
0.072535604 0.0014054223 0.12218156 -0.003470896 0.14058115 -0.028399726 -0.16948487 -0.07756189
-0.11623167 -0.14881897 -0.26676595 -0.42502937 -0.42450756 -0.38449025 -0.3699987 -0.29226127
00000000: 38ec c4b3 3b9d fbb4 70ef 3ab5 a774 80b5
00000010: 22ca 2eb5 9097 68b5 afb8 d5b4 970d 6bb4
00000020: dcf4 32b4 3b52 1bb3 5d5d 72b2 23e0 54b0
00000030: 10cf 5aad 2e4f 132d aec5 4a2a 38b3 9127
00000040: d3d0 2027 0094 7b29 e56c 8e2c 38c8 252f
00000050: 2958 0100 fb6d 0100 e23d 0000 0f30 0180
00000060: f46c 0000 1514 0080 95ba 0080 0011 0180
00000070: cff8 0000 3212 0100 c655 0080 118f 0100
00000080: 6e44 0180 4d22 0200 d5ad 0080 173b 0280
00000090: e5b4 0080 a4ba 0200 e25d 0080 e1e1 0080
000000a0: a078 c78e 57ef 898d b659 4f8c 20ca ab0d
000000b0: 1d2b 970e cb33 4d0f fd9f e50e 851d e10e
000000c0: e830 960e 498c 3c0e 4579 030d 588e cf0b
000000d0: e9dd a209 18ee 4a07 0e60 5487 8718 7386
000000e0: b45d b185 85d3 d184 afc9 3484 2076 f783
000000f0: ea32 0000 3a52 0080 15e7 0080 2822 0080
00000100: 324e 0100 c873 0000 856c 0000 6207 0000
00000110: c778 0000 d673 0000 c4f8 0000 1922 0100
00000120: f23f 0100 7008 0100 936a 0080 da75 0080
00000130: 731d 0080 d81f 0080 20fc 0000 5002 0100
00000140: fb0f 0100 086f 0080 fa65 0080 f19c 0000
00000150: 2b2e 0080 b554 0080 707c 0000 9f56 0080
00000160: a744 0000 8401 0000 4f15 0000 cc88 0080
00000170: 7000 0080 cb32 0000 d016 0000 3354 0080
00000180: 4d7e 0100 0f14 0180 38a9 0000 389b 0080
00000190: 2ccf 0000 0dc9 0080 ac1d 0080 5692 0000
000001a0: 420f 0180 c55b 0080 a8ac 0080 7f22 0000
000001b0: 340c 0180 774b 0080 8c16 0080 87c2 0080
000001c0: a340 0080 3a47 0000 bdca 0080 f038 0080
000001d0: 4ce4 0080 800e 0080 3530 0000 ab2a 0000
000001e0: b143 b83e 124a b83e ce67 a33e 4a13 303e
000001f0: 37f6 dc3d 3f2d 10bc e22f f5bd 686f 5ebe
00000200: f1b5 9fbe 7c51 b5be 0b6b b1be 5975 abbe
00000210: 3175 a2be 13cf 87be 8007 3cbe e4f6 43bd
00000220: e324 9c3d 9292 6d3e c80c bf3e e394 063f
00000230: 1706 c83d 79c2 e93d 9713 863d b3bc 9b3d
00000240: 8c8d 943d 2636 b83a 533a fa3d f977 63bb
00000250: 81f4 0f3e 8ba6 e8bc 718d 2dbe c5d8 9ebd
00000260: df0a eebd 0064 18be 8c95 88be 739d d9be
00000270: 0e59 d9be e8db c4be 7870 bdbe 45a3 95be

net.conv_net.1.bias f4 [4]
6.99769e-40 1.501048e-39 8.357138e-39 2.8169475e-07
00000000: ac9e 0700 5058 1000 4d00 5b00 d53b 9734

net.conv_net.2.weight f4 [4]
-5.20337e-08 1.159894e-22 -1.4581773e-17 0.37221736
00000000: a87b 5fb3 fb38 0c1b 3d7e 86a3 4693 be3e

net.conv_net.2.bias f4 [4]
-3.2817812e-07 -2.2384585e-26 -7.949055e-16 0.07445365
00000000: 7530 b0b4 aaaf dd94 ac1d 65a6 287b 983d

net.conv_net.2.running_mean f4 [4]
-2.3377599e-08 2.7986757e-32 8.356081e-39 -0.0019030664
00000000: e2cf c8b2 c850 110b 5bfd 5a00 5070 f9ba

net.conv_net.2.running_var f4 [4]
1.5323158e-11 6e-45 6e-45 0.77552515
00000000: afc8 862d 0400 0000 0400 0000 d188 463f

net.conv_net.4.weight f4 [4, 4, 20]
-9.5957e-41 4.841e-41 -1.47737e-40 -3.6956e-41 -2.04688e-40 -5.1295e-41 -1.01e-40 1.58282e-40
1.1386e-41 1.50918e-40 1.81751e-40 -6.037e-41 -7.1543e-41 4.641e-42 7.854e-41 -2.01888e-40
-1.0664e-40 -7.6624e-41 -4.8949e-41 7.8592e-41 -4.8846e-41 4.1515e-41 -3.783e-41 3.5345e-41
-4.6701e-41 -4.1327e-41 1.04468e-40 6.2925e-41 -4.1488e-41 -4.1574e-41 6.1602e-41 1.32888e-40
4.6722e-41 -4.085e-41 -4.8758e-41 4.1079e-41 -4.3171e-41 -5.0204e-41 -9.2578e-41 -3.7691e-41
2.001e-42 9.9139e-41 -4.4196e-41 4.1239e-41 -4.7245e-41 -9.8004e-41 -2.2422e-41 -2.857e-42
2.8186e-41 2.5605e-41 3.4038e-41 -6.9692e-41 2.7046e-41 7.4643e-41 2.9817e-41 2.5452e-41
1.5828e-41 -2.1523e-41 3.1144e-41 -1.3686e-41 -0.003722704 -0.0026188393 -0.0021347692 -0.0020867398
-0.001935519 -0.0014718209 -0.0012778337 -0.0012942482 -0.0010310606 -0.00044954725 0.0006199827 0.0012465792
0.002193147 0.0023332334 0.0028281815 0.003723853 0.003941944 0.004309318 0.0036950265 0.0023028585
5.27e-41 -4.3845e-41 -1.25369e-40 -1.6664e-41 -1.54339e-40 8.6331e-41 -1.22427e-40 2.5211e-41
-2.9649e-41 -2.21451e-40 2.22865e-40 -4.8332e-41 2.1579e-41 -2.10234e-40 -7.5346e-41 3.1868e-41
1.47851e-40 -1.28152e-40 1.1116e-40 4.7169e-41 -2.6302e-41 -1.7703e-41 1.7893e-41 2.107e-41
5.7875e-41 1.3622e-41 -2.2653e-41 9.2561e-41 -6.0666e-41 2.1258e-41 1.5835e-41 5.3183e-41
-4.1369e-41 4.3687e-41 -9.0629e-41 3.198e-41 -6.1359e-41 9.7532e-41 -2.8254e-41 2.368e-42
6.8914e-41 4.1331e-41 3.5002e-41 -3.667e-42 -4.838e-41 -4.516e-41 -4.2475e-41 -3.506e-42
4.9491e-41 1.10579e-40 3.2723e-41 -1.1706e-40 -8.476e-42 4.425e-42 -5.487e-42 -4.3915e-41
9.7449e-41 5.0335e-41 -2.1911e-41 -4.7242e-41 0.36053085 0.07003546 -0.0062549673 0.020510362
0.057314616 0.06002426 0.075509176 0.12899575 0.085548915 0.074976824 0.046026632 0.09776511
0.09211939 0.11120409 0.08137606 0.077563934 -0.016841771 -0.067929044 0.033787735 0.4292941
2.1100389e-30 9.37986e-31 2.1010635e-33 -5.457116e-33 -5.210723e-39 -1.85603e-40 9.33e-42 3.0998e-41
4.2838e-41 1.6107e-41 5.4998e-41 1.17872e-40 5.577e-42 -1.9643e-41 -8.693e-41 -2.206e-42
1.2606e-41 -5.7628e-41 1.27012e-40 -1.26435e-40 -2.216e-41 2.351e-41 5.9537e-41 -8.999e-42
-4.267e-41 -2.7966e-41 3.8333e-41 -1.3542e-41 -6.0357e-41 -3.1235e-41 -6.917e-42 3.658e-41
4.9431e-41 3.0959e-41 4.4749e-41 -9.924e-42 -5.2365e-41 -1.54375e-40 1.9224e-41 3.1039e-41
-3.2076e-41 1.666e-41 1.80278e-40 7.0275e-41 4.5174e-41 -4.854e-42 -7.6057e-41 -4.3541e-41
-6.069e-42 5.7755e-41 4.6567e-41 6.67e-42 -4.4581e-41 -1.2993e-41 -6.588e-42 -7.3481e-41
-5.404e-41 -2.0572e-41 4.6819e-41 1.5941e-41 0.18887845 0.024390154 -0.0072101406 0.019643122
0.04512341 0.047387794 0.05556172 0.0790018 0.05299826 0.049390484 0.03597382 0.067396805
0.06142099 0.07425368 0.059246406 0.06094199 0.006532382 -0.028268384 0.013458388 0.21876751
-1.59108e-40 -1.21518e-40 1.17362e-40 -1.19728e-40 8.7884e-41 -5.2912e-41 -9.3266e-41 -1.95879e-40
2.412e-41 3.2621e-41 -1.12223e-40 -1.38204e-40 2.17093e-40 4.6925e-41 -9.7257e-41 -3.9892e-41
00000000: 7d0b 0180 f386 0000 d59b 0180 0567 0080
00000010: 963a 0280 fd8e 0080 8c19 0180 3ab9 0100
00000020: bd1f 0000 b3a4 0100 a6fa 0100 49a8 0080
00000030: 6fc7 0080 f00c 0000 f0da 0000 c832 0280
00000040: 4529 0180 99d5 0080 7388 0080 15db 0000
00000050: 2a88 0080 ba73 0000 7469 0080 8762 0000
00000060: 2f82 0080 3473 0080 3723 0100 69af 0000
00000070: a773 0080 e473 0080 b9ab 0000 7072 0100
00000080: 3e82 0000 e071 0080 eb87 0080 8372 0000
00000090: 5878 0080 f38b 0080 1202 0180 1169 0080
000000a0: 9405 0000 5c14 0100 337b 0080 f572 0000
000000b0: b383 0080 3211 0180 813e 0080 f707 0080
000000c0: 924e 0000 6047 0000 e25e 0000 46c2 0080
000000d0: 654b 0000 13d0 0000 1e53 0000 f346 0000
000000e0: 1f2c 0000 ff3b 0080 d156 0000 2726 0080
000000f0: 9cf8 73bb d5a0 2bbb 7ce7 0bbb afc1 08bb
00000100: 3eb1 fdba 1dea c0ba fc7c a7ba c3a3 a9ba
00000110: a724 87ba 36b1 ebb9 5686 223a 4264 a33a
00000120: e7ba 0f3b 29e9 183b 0359 393b e30b 743b
00000130: 6c2b 813b 2e35 8d3b 4228 723b 8eeb 163b
00000140: e892 0000 397a 0080 7a5d 0180 742e 0080
00000150: 3cae 0180 a8f0 0000 4755 0180 4746 0000
00000160: a652 0080 5169 0280 426d 0200 bb86 0080
00000170: 273c 0000 0c4a 0280 09d2 0080 d658 0000
00000180: 269c 0100 3c65 0180 de35 0100 7d83 0000
00000190: 5249 0080 5931 0080 e131 0000 bc3a 0000
000001a0: 55a1 0000 f925 0000 263f 0080 0602 0100
000001b0: 1da9 0080 423b 0000 242c 0000 4194 0000
000001c0: 5273 0080 c879 0000 a3fc 0080 2659 0000
000001d0: 0bab 0080 e10f 0100 c34e 0080 9a06 0000
000001e0: 1bc0 0000 3773 0000 9261 0000 390a 0080
000001f0: dd86 0080 e37d 0080 6776 0080 c609 0080
00000200: f689 0000 4034 0100 385b 0000 5146 0180
00000210: a117 0080 560c 0000 4c0f 0080 6b7a 0080
00000220: a60f 0100 508c 0000 143d 0080 b183 0080
00000230: 8097 b83e c06e 8f3d 78f6 ccbb 5905 a83c
00000240: bbc2 6a3d 00dc 753d 8ea4 9a3d 7617 043e
00000250: 4534 af3d 738d 993d 6c86 3c3d 1339 c83d
00000260: 17a9 bc3d f8be e33d 7ea8 a63d d7d9 9e3d
00000270: c1f7 89bc 621e 8bbd 0265 0a3d 70cc db3e
00000280: cb2f 2b0e 6a32 980d ae8c 2e09 03ae e289
00000290: 60bd 3880 6305 0280 021a 0000 6956 0000
000002a0: 6a77 0000 e62c 0000 5099 0000 9448 0100
000002b0: 8c0f 0000 c236 0080 53f2 0080 2606 0080
000002c0: 2423 0000 a5a0 0080 0f62 0100 7360 0180
000002d0: c63d 0080 8941 0000 f7a5 0000 1619 0080
000002e0: f276 0080 f54d 0080 db6a 0000 c025 0080
000002f0: 40a8 0080 1257 0080 4813 0080 f865 0000
00000300: cb89 0000 4d56 0000 be7c 0000 aa1b 0080
00000310: f991 0080 56ae 0180 9735 0000 8656 0000
00000320: 6a59 0080 712e 0000 8bf6 0100 e6c3 0000
00000330: ed7d 0000 880d 0080 04d4 0080 6079 0080
00000340: eb10 0080 ffa0 0000 cf81 0000 9812 0000
00000350: 467c 0080 3824 0080 5d12 0080 d6cc 0080
00000360: a496 0080 5939 0080 8382 0000 702c 0000
00000370: 5a69 413e dccd c73c 0b43 ecbb 9dea a03c
00000380: 53d3 383d b419 423d b094 633d b2cb a13d
00000390: b414 593d ad4d 4a3d 4959 133d 5607 8a3d
000003a0: 9394 7b3d 5012 983d 5cac 723d 4f9e 793d
000003b0: 980d d63b 1993 e7bc 9280 5c3c 9704 603e
000003c0: 87bb 0180 be52 0180 2847 0100 c14d 0180
000003d0: fcf4 0000 7f93 0080 fd03 0180 0822 0280
000003e0: 3d43 0000 ef5a 0000 d538 0180 4281 0180
000003f0: 2b5d 0200 cf82 0000 1d0f 0180 346f 0080

net.conv_net.4.bias f4 [4]
-1.6303068e-09 -2.9896992e-06 1.3425607e-06 8.194488e-09
00000000: 5211 e0b0 a4a2 48b6 0932 b435 bdc7 0c32

net.conv_net.5.weight f4 [4]
-0.00023906193 0.567426 0.2394765 0.14185858
00000000: b3ac 7ab9 d542 113f 5439 753e 6043 113e

net.conv_net.5.bias f4 [4]
0.18558243 1.5329723 1.2529626 1.2977711
00000000: 5209 3e3e 7038 c43f 1461 a03f 5d1d a63f

net.conv_net.5.running_mean f4 [4]
0.0017776928 0.33967727 0.21091698 0.17067967
00000000: 7901 e93a 2eea ad3e 9ffa 573e a7c6 2e3e

net.conv_net.5.running_var f4 [4]
5.4334112e-05 0.03853525 0.016481388 0.011935733
00000000: cfe4 6338 23d7 1d3d fa03 873c 188e 433c

net.conv_net.7.weight f4 [1, 4, 1]
-0.17307407 -1.5156919 -1.208592 -1.2158127
00000000: 543a 31be 3102 c2bf 25b3 9abf c09f 9bbf
