models/neuron_2.pth (torch, 7945 bytes, 13 tensors)

net.conv_net.1.weight f4 [4, 2, 20]
000000 81 58 d3 07 15 06 15 08 7a dc 54 08 9e 23 78 08
       3.179977e-34 4.4845206e-34 6.40556e-34 7.4671653e-34
000010 5a d3 6e 08 90 74 46 08 dd ad f3 07 f2 9f 87 07
       7.1868962e-34 5.9720476e-34 3.6664764e-34 2.040655e-34
000020 ef 58 19 07 62 b1 db 06 25 6e 03 07 d7 e4 7e 07
       1.1536576e-34 8.2639285e-35 9.887713e-35 1.9176086e-34
000030 6b 2c 37 08 14 47 fe 08 a0 ef 83 09 16 59 51 8c
       5.5121772e-34 1.5303779e-33 3.1762445e-33 -1.6127583e-31
000040 32 f2 fc 93 ab da c7 99 79 e5 ef 9d 09 33 57 a1
       -6.3852566e-27 -2.0664437e-23 -6.3500042e-21 -7.291238e-19
000050 de 50 11 80 23 fc 48 80 00 00 17 00 f1 7d 33 00
       -1.590213e-39 -6.702605e-39 2.112216e-39 4.72879e-39
000060 37 2a 29 80 d2 ba 17 00 0e 6b 15 00 84 cd 1b 00
       -3.780399e-39 2.179235e-39 1.96695e-39 2.553284e-39
000070 ad c0 3f 00 a6 16 39 00 09 44 42 00 41 7f 10 80
       5.854755e-39 5.242748e-39 6.085549e-39 -1.515018e-39
000080 1f 91 08 00 47 58 1c 80 37 67 44 80 52 1d 40 80
       7.86744e-40 -2.603062e-39 -6.28184e-39 -5.88799e-39
000090 2e 4e 21 00 8b b4 48 00 23 e1 27 80 79 95 43 80
       3.058617e-39 6.676922e-39 -3.662348e-39 -6.206599e-39
0000a0 e6 18 46 8e 16 f8 92 88 54 7d bf 80 89 14 02 80
       -2.4417372e-30 -8.84538e-34 -1.7585539e-38 -1.91038e-40
0000b0 10 ff 00 00 a8 8a 00 80 b8 5f 00 80 79 e4 00 00
       9.1499e-41 -4.974e-41 -3.4337e-41 8.196e-41
0000c0 49 ae 03 80 26 08 12 82 ed 49 2c 88 fd fd 0f 8c
       -3.38028e-40 -1.0728724e-37 -5.1846267e-34 -1.1092751e-31
0000d0 21 ff 29 8f 91 b1 00 93 bb 8e 8f 96 46 23 45 9a
       -8.381479e-30 -1.6243418e-27 -2.3192972e-25 -4.076714e-23
0000e0 f4 db 95 9d 1f 12 6f 9f 46 3e 72 21 b8 48 da 23
       -3.9667398e-21 -5.0625208e-20 8.207521e-19 2.3666405e-17
0000f0 17 23 5f 80 e6 fb 00 80 66 4b 4d 80 9c 4f 61 80
       -8.73696e-39 -9.0364e-41 -7.098381e-39 -8.936602e-39
000100 2a 9f 1b 00 b4 66 20 00 29 b8 3f 00 4d e4 27 80
       2.536656e-39 2.975579e-39 5.8517e-39 -3.663483e-39
000110 80 d8 0b 80 2b 60 4f 80 c8 c5 36 80 c8 2e 00 80
       -1.087856e-39 -7.289503e-39 -5.030067e-39 -1.6782e-41
000120 fd c6 06 80 29 f7 58 00 9e e7 65 80 01 f1 1e 80
       -6.22397e-40 8.170188e-39 -9.358474e-39 -2.841521e-39
000130 6e 3f 3d 80 87 be 64 00 d7 ea 11 00 44 25 00 00
       -5.62472e-39 9.251898e-39 1.645448e-39 1.3368e-41
000140 66 d3 80 8d a6 ff 9f 8a 05 b8 99 86 d8 9c 01 81
       -7.939501e-31 -1.5407307e-32 -5.7822596e-35 -2.3806088e-38
000150 8d d0 02 80 6e b5 00 00 cc 3c 01 00 2b 72 00 80
       -2.58485e-40 6.5085e-41 1.13645e-40 -4.0956e-41
000160 71 2b 00 00 20 c4 00 80 fc 09 00 80 90 0f 00 80
       1.5584e-41 -7.0356e-41 -3.582e-42 -5.583e-42
000170 95 4c 00 80 cb 0a 02 00 bf fc 00 80 b6 37 00 00
       -2.7472e-41 1.87543e-40 -9.0668e-41 1.9985e-41
000180 cc aa 02 00 0e 10 00 80 a3 69 00 80 e1 39 02 00
       2.44941e-40 -5.76e-42 -3.7895e-41 2.04434e-40
000190 d2 b8 2f 00 28 c8 66 00 2a da 4c 00 7c 38 28 00
       4.38257e-39 9.439023e-39 7.05776e-39 3.693683e-39
0001a0 0d 77 3f 80 45 16 4f 80 7f ff 64 00 12 6e 2f 80
       -5.828344e-39 -7.262993e-39 9.275204e-39 -4.355754e-39
0001b0 85 a8 15 00 14 ef 47 00 54 1a 01 00 70 03 64 80
       1.988999e-39 6.606085e-39 1.0128e-40 -9.184783e-39
0001c0 f4 e7 23 80 a6 54 1f 80 12 4a 04 00 fa 4e 31 00
       -3.297451e-39 -2.877267e-39 3.93913e-40 4.528271e-39
0001d0 73 bd 55 00 df 2d 04 80 74 0e 21 00 df 34 01 80
       7.873979e-39 -3.83797e-40 3.035756e-39 -1.10802e-40
0001e0 34 06 31 b0 f5 dd 14 b0 2f c0 a3 af 98 32 10 b0
       -6.440104e-10 -5.4157506e-10 -2.9786082e-10 -5.2458793e-10
0001f0 e2 1c 23 af b4 0b 83 2e b4 b2 26 2f 44 dd 11 2f
       -1.4835025e-10 5.959269e-11 1.51611e-10 1.3266283e-10
000200 72 e9 96 2e c0 91 d3 2d 5f f5 c4 2c b5 f9 79 2b
       6.8626785e-11 2.4052649e-11 5.5978967e-12 8.880911e-13
000210 9d 17 38 2a db db 6b 28 6a 66 b4 26 b0 0c b8 24
       1.6350675e-13 1.3092794e-14 1.2517768e-15 7.9818773e-17
000220 01 50 5b 23 4f 5c d6 22 96 d0 d4 23 08 d1 1c 25
       1.1888955e-17 5.810255e-18 2.3073426e-17 1.3601666e-16
000230 4d 87 1e 80 ab 93 18 00 61 9c 40 80 cc 51 5a 80
       -2.803602e-39 2.257025e-39 -5.93357e-39 -8.294538e-39
000240 bc 8c 0e 00 47 01 5a 00 e8 ed 14 00 4e 50 49 80
       1.336183e-39 8.265653e-39 1.922055e-39 -6.732799e-39
000250 08 ea 53 80 f6 8c 6d 00 dd 18 71 00 1b 38 49 80
       -7.706301e-39 1.0060636e-38 1.038633e-38 -6.724118e-39
000260 94 31 2d 00 b6 b0 53 00 2d e3 31 00 cc c8 27 80
       4.150383e-39 7.685738e-39 4.581435e-39 -3.653617e-39
000270 5d 97 45 80 07 aa 66 80 8a 55 24 00 70 b3 03 80
       -6.390948e-39 -9.428215e-39 3.336763e-39 -3.39877e-40

net.conv_net.1.bias f4 [4]
000000 46 41 2d 00 d3 59 3e 00 2e 21 65 00 46 b7 39 80
       4.156013e-39 5.726024e-39 9.287288e-39 -5.30037e-39

net.conv_net.2.weight f4 [4]
000000 89 80 e5 9d 8a 8e 84 0e 75 3d 8d 9b d0 f3 aa 9b
       -6.0748698e-21 3.2677772e-30 -2.336621e-22 -2.82817e-22

net.conv_net.2.bias f4 [4]
000000 67 dc f6 a6 15 3e 08 a2 b4 10 65 ae d4 21 9c 9b
       -1.7129419e-15 -1.8464303e-18 -5.2083407e-11 -2.5829896e-22

net.conv_net.2.running_mean f4 [4]
000000 a5 f1 06 1e 45 e3 8b a0 c6 e3 1c 8a c1 fd 8a ad
       7.143872e-21 -2.369791e-19 -7.553966e-33 -1.5801473e-11

net.conv_net.2.running_var f4 [4]
000000 0a 9e 12 03 bb f0 1d 08 04 00 00 00 e0 24 2b 22
       4.3086964e-37 4.7528446e-34 6e-45 2.3194343e-18

net.conv_net.4.weight f4 [4, 4, 20]
000000 fc 1b 2f 25 08 76 50 26 6f bb 70 27 79 74 7a 28
       1.5188312e-16 7.232446e-16 3.3408299e-15 1.3903044e-14
000010 df cc 41 29 70 64 ec 29 cb 4d 49 2a 6b 34 8c 2a
       4.3032306e-14 1.04979285e-13 1.7879376e-13 2.4905368e-13
000020 0a 69 ac 2a 8f 94 b8 2a 3b 97 c4 2a e3 59 a6 2a
       3.0626223e-13 3.278805e-13 3.492153e-13 2.9549895e-13
000030 df 6c 7c 2a d8 98 09 2a e3 40 83 29 15 ad d8 28
       2.2419868e-13 1.2221073e-13 5.828825e-14 2.405588e-14
000040 30 10 39 28 6b 5d 90 27 42 5c ee 26 4a 54 41 26
       1.0273073e-14 4.0069313e-15 1.6539574e-15 6.707456e-16
000050 8a 40 fa a3 8d 4d 28 a4 9a 17 9c a3 01 e4 39 a2
       -2.7132388e-17 -3.649488e-17 -1.692355e-17 -2.519288e-18
000060 48 cd 25 20 82 04 6c 1e 7b 61 bd 1a d1 dc 6f 14
       1.4043965e-19 1.2494668e-20 7.8326056e-23 1.2109965e-26
000070 4d 64 f8 8d ea e3 ab 83 00 39 01 80 aa 53 00 80
       -1.5308327e-30 -1.0102803e-36 -1.12283e-40 -3.0013e-41
000080 ac c0 00 80 1a e4 00 80 04 45 00 80 fe 86 00 00
       -6.9118e-41 -8.1827e-41 -2.4758e-41 4.8426e-41
000090 4f b9 00 00 9f bf 00 00 98 2a 00 00 b1 d7 01 80
       6.6476e-41 6.874e-41 1.528e-41 -1.69211e-40
0000a0 8e d3 23 99 89 a0 0e 98 31 0e 33 96 7b 3b 77 14
       -8.469626e-24 -1.843412e-24 -1.4463983e-25 1.2482044e-26
0000b0 ed 34 72 92 2c a4 9d 91 cb 77 e7 8e 11 30 c8 8a
       -7.642697e-28 -2.487141e-28 -5.7061253e-30 -1.927738e-32
0000c0 72 9f 14 81 0c 98 0e 00 95 e6 01 00 8a ae 00 80
       -2.7297703e-38 1.340241e-39 1.74553e-40 -6.2613e-41
0000d0 0f bb 00 00 f4 18 00 00 ff 19 00 80 34 08 00 80
       6.7104e-41 8.951e-42 -9.326e-42 -2.943e-42
0000e0 73 73 00 00 45 94 00 00 db 97 00 00 70 9b 00 00
       4.1415e-41 5.3189e-41 5.4475e-41 5.576e-41
0000f0 b0 91 3c a3 0f dc 10 a2 d7 e0 72 a1 4e d9 2c a0
       -1.0222351e-17 -1.9632137e-18 -8.229036e-19 -1.4640867e-19
000100 39 01 af 9f b2 c0 56 9f 39 ff cb 9f 99 af c7 a0
       -7.4117406e-20 -4.5475657e-20 -8.6396075e-20 -3.3828112e-19
000110 0f 61 5f a2 8e d3 69 a3 48 63 cf a3 2c ad c8 a3
       -3.0273518e-18 -1.2675754e-17 -2.2485032e-17 -2.1757385e-17
000120 23 8c 6d a2 86 90 8e 20 f8 7c 8c 20 c8 99 37 1f
       -3.2193677e-18 2.4151373e-19 2.379962e-19 3.8878962e-20
000130 5c 63 92 1d 5d 10 74 1b 03 38 97 18 4f 56 0b 15
       3.8748613e-21 2.0188494e-22 3.9089143e-24 2.8138912e-26
000140 f4 a9 1c 2e 2f 06 e5 2e 5b 39 a2 2f 2d e4 53 30
       3.5621242e-11 1.0414813e-10 2.9508382e-10 7.708561e-10
000150 62 50 f5 30 f0 43 87 31 6a b6 e9 31 9c 87 40 32
       1.7848942e-09 3.9367407e-09 6.8019306e-09 1.1206705e-08
000160 e8 f8 9b 32 76 1b c5 32 10 da 06 33 46 0a 15 33
       1.8157564e-08 2.2946306e-08 3.1397633e-08 3.470111e-08
000170 4e d5 21 33 04 87 1f 33 d4 0a 11 33 4a b6 03 33
       3.7679733e-08 3.714287e-08 3.377029e-08 3.0666605e-08
000180 07 a0 ee 32 8d 32 e1 32 9c 6e bf 32 69 85 91 32
       2.7779619e-08 2.6216435e-08 2.2285626e-08 1.694089e-08
000190 73 6a 6d 00 ce 6f 02 06 53 f3 d4 09 00 b6 12 0d
       1.0048256e-38 2.4532424e-35 5.1265965e-33 4.52088e-31
0001a0 d9 f6 1f 10 7d ca 9d 12 31 a8 32 14 18 0b ee 13
       3.1547385e-29 9.95801e-28 9.019873e-27 6.0090586e-27
0001b0 25 db aa 11 7a 98 a1 0d 36 00 a2 06 a9 1e 04 00
       2.695633e-28 9.9590985e-31 6.0937937e-35 3.78341e-40
0001c0 ec ea 00 00 44 e9 01 00 98 98 00 00 5b 36 01 80
       8.4274e-41 1.75515e-40 5.474e-41 -1.11335e-40
0001d0 85 f3 01 00 2d 90 a7 04 23 15 a9 0d 13 95 e2 13
       1.79194e-40 3.9393916e-36 1.0420518e-30 5.719742e-27
0001e0 2d 8e 07 00 e9 37 06 00 77 e6 05 00 8c 70 04 00
       6.93852e-40 5.7107e-40 5.41853e-40 4.07716e-40
0001f0 49 32 03 00 97 f5 01 00 12 28 01 00 f9 04 01 80
       2.93545e-40 1.79937e-40 1.0621e-40 -9.362e-41
000200 45 ce 00 00 aa 9e 00 80 57 9e 00 00 da 1e 01 80
       7.3996e-41 -5.6918e-41 5.6802e-41 -1.02903e-40
000210 08 9a 00 80 d7 d1 00 00 86 e5 00 80 98 48 00 80
       -5.5256e-41 7.5276e-41 -8.2337e-41 -2.6042e-41
000220 bd 9e 01 00 20 54 06 00 2d 55 d0 01 61 8a 56 05
       1.4878e-40 5.81191e-40 7.6529354e-38 1.0087648e-35
000230 27 79 21 ad 7f 84 48 ae 5e 5f 0e ad 13 89 65 ae
       -9.178692e-12 -4.5592415e-11 -8.092941e-12 -5.2190318e-11
000240 1c 46 29 ae d8 c8 bd ad 3d 2b 0a ae c4 36 4e ae
       -3.848842e-11 -2.1576005e-11 -3.141597e-11 -4.688762e-11
000250 bf c7 e2 ad f3 23 83 ae a6 8f a9 ae 57 d7 b5 ae
       -2.578193e-11 -5.963576e-11 -7.710747e-11 -8.269179e-11
000260 96 76 f1 ae 52 c6 14 ae 7b ed 0d ae 47 5e 48 ad
       -1.0980476e-10 -3.3827448e-11 -3.2270613e-11 -1.13896175e-11
000270 19 a4 16 ad cf bb 80 ac dc ab bb ab 72 ff 06 ab
       -8.56295e-12 -3.6588297e-12 -1.333485e-12 -4.7960865e-13
000280 be 0a 24 b2 2e 4d 67 b2 77 7d bf b2 e5 74 11 b3
       -9.548499e-09 -1.3463518e-08 -2.2292381e-08 -3.386676e-08
000290 bb d8 16 b3 49 0e 0a b3 e7 de cc b2 30 4f 7e b2
       -3.512171e-08 -3.214362e-08 -2.385009e-08 -1.4802751e-08
0002a0 85 af ec b1 b4 c7 2a b1 64 6b 59 b0 33 de 62 af
       -6.8884582e-09 -2.4851774e-09 -7.909675e-10 -2.0633521e-10
0002b0 49 1d 78 ae b4 90 5d ad e0 65 30 ac 6d 71 25 ab
       -5.6414682e-11 -1.2594526e-11 -2.5067656e-12 -5.8777186e-13
0002c0 72 12 2e aa b6 62 3d a9 be cf 4d a8 af 56 36 a7
       -1.5460704e-13 -4.205205e-14 -1.1424833e-14 -2.5304565e-15
0002d0 b7 ef ab a9 72 53 cf 2b 04 06 a3 2c 17 78 f4 2c
       -7.6355094e-14 1.4731395e-12 4.6334065e-12 6.9482298e-12
0002e0 b3 bc d5 2c 47 90 83 2c 97 ab 9e 29 13 cf 92 ac
       6.074774e-12 3.739262e-12 7.0463756e-14 -4.1725594e-12
0002f0 df c7 0c ad 69 99 08 ad 35 76 ac ac 2e 79 18 ac
       -8.002459e-12 -7.764769e-12 -4.9016576e-12 -2.1667767e-12
000300 8b c2 20 ab 27 71 a4 a9 76 bf a0 a7 fb a7 24 a5
       -5.71134e-13 -7.302692e-14 -4.4616503e-15 -1.4281646e-16
000310 a3 a3 24 a2 12 fb 0c 9d a8 0b 48 1e db 22 4b 1d
       -2.2312773e-18 -1.8658646e-21 1.0590322e-20 2.6884846e-21
000320 2c df 4b 2e 4c 0b 5a 2e e5 b6 34 2e 7a 0c 91 2d
       4.6355073e-11 4.9577495e-11 4.1089705e-11 1.6490132e-11
000330 4a 9a 03 ae 4c 15 c0 ae f5 7a 15 af 8f 4c 3a af
       -2.9922988e-11 -8.734932e-11 -1.3595154e-10 -1.69438e-10
000340 a1 b8 38 af d8 ff 0e af 53 d5 a7 ae 61 ab 03 ae
       -1.6800296e-10 -1.3005719e-10 -7.632175e-11 -2.9938167e-11
000350 ff 43 07 ad 51 a1 c8 ab f6 0a d1 a9 cf e5 8e 29
       -7.68896e-12 -1.4255629e-12 -9.283366e-14 6.345932e-14
000360 f3 54 52 29 c7 c1 ae 28 69 9f fe 27 17 a9 19 27
       4.670305e-14 1.9401918e-14 7.0671995e-15 2.132468e-15
000370 df 85 8a a9 bc ee 45 a7 c2 72 e0 a4 fb 01 37 a1
       -6.151654e-14 -2.746866e-15 -9.733892e-17 -6.2005433e-19
000380 29 3b 54 9f 1b e2 8b 9e f8 18 c1 9f 7a 27 a0 a0
       -4.4941682e-20 -1.4810712e-20 -8.1779987e-20 -2.7131178e-19
000390 82 80 61 a1 b4 32 eb a0 00 a7 83 a0 09 66 92 9f
       -7.6403044e-19 -3.98441e-19 -2.2302775e-19 -6.200221e-20
0003a0 48 a7 86 9e bb d5 9a 9d d8 0a 98 9c 29 ff 8d 9b
       -1.4256988e-20 -4.0984453e-21 -1.0061319e-21 -2.3491387e-22
0003b0 a0 fd 61 9b 4f bc 76 9b a6 c5 89 9b bd 8d 55 9c
       -1.8693514e-22 -2.0409489e-22 -2.2792476e-22 -7.065898e-22
0003c0 72 76 ed 26 06 8b 5d a7 02 93 23 a7 cf b0 80 27
       1.6477283e-15 -3.0745276e-15 -2.2700487e-15 3.5718833e-15
0003d0 9d da 0f 27 1d 1e 92 26 da 5b d1 26 39 a5 98 26
       1.9963747e-15 1.0138947e-15 1.4527185e-15 1.0591902e-15
0003e0 ab 67 ee a6 ef 53 ac 26 b7 0a 76 a4 cd 41 44 a7
       -1.6542667e-15 1.1957648e-15 -5.3351823e-17 -2.7236135e-15
0003f0 c4 19 32 27 07 db 14 a7 af b5 85 26 0e 86 b1 a7
       2.471643e-15 -2.065786e-15 9.277974e-16 -4.927271e-15

net.conv_net.4.bias f4 [4]
000000 24 b1 97 b4 e4 d1 14 80 2d ed d9 37 66 d3 16 00
       -2.8254829e-07 -1.912004e-39 2.597886e-05 2.096216e-39

net.conv_net.5.weight f4 [4]
000000 f3 23 b9 39 78 e7 a0 3a 63 69 7f 3d 24 53 e6 3b
       0.00035312734 0.0012276014 0.062356364 0.007028954

net.conv_net.5.bias f4 [4]
000000 93 85 00 40 40 e3 02 bb 2b 68 03 40 23 85 6e bc
       2.0081527 -0.0019971877 2.053233 -0.014558109

net.conv_net.5.running_mean f4 [4]
000000 10 01 98 b4 dd d1 14 80 4a 9f cb 37 61 d3 16 00
       -2.831298e-07 -1.911995e-39 2.427366e-05 2.09621e-39

net.conv_net.5.running_var f4 [4]
000000 04 00 00 00 04 00 00 00 04 00 00 00 04 00 00 00
       6e-45 6e-45 6e-45 6e-45

net.conv_net.7.weight f4 [1, 4, 1]
000000 fe 8b 00 c0 52 18 d7 bc 0e 2d 04 c0 c4 77 9f 3c
       -2.0085444 -0.026256714 -2.06525 0.019466288
