models/neuron_6.pth (torch, 7945 bytes, 13 tensors)

net.conv_net.1.weight f4 [4, 2, 20]
-4.3462602e-09 -3.7970125e-09 -4.72297e-09 -9.720063e-09 -2.004452e-08 -7.427881e-08 -2.1253179e-07 -5.121902e-07
-1.1737955e-06 -1.965198e-06 -2.9977195e-06 -3.711982e-06 -2.5248337e-06 2.500296e-06 5.3420645e-06 7.77678e-06
-2.203458e-06 -1.1436368e-05 -1.745807e-05 -1.6691616e-05 -2.689327e-39 -3.351631e-39 1.933301e-39 -4.659264e-39
1.711927e-39 2.974476e-39 -2.993333e-39 2.908515e-39 -2.839308e-39 4.800055e-39 -2.656192e-39 3.70516e-40
4.460909e-39 2.872396e-39 -6.12931e-40 7.73273e-40 2.435339e-39 1.934965e-39 -3.15825e-40 1.8030673e-38
-0.00037628933 -0.00033479455 -0.00028065481 -0.00026197685 -0.00025815857 -0.0002688914 -0.00026928724 -0.0002523661
-0.00024270167 -0.00021979706 -0.00023446704 -0.00027052566 -0.00032540172 -0.00040770488 -0.0004884524 -0.0006344299
-0.00078127155 -0.0009429725 -0.0011908577 -0.00139174 -2.7726608e-05 -2.7920738e-05 -2.736021e-05 -2.8089979e-05
-2.8023745e-05 -2.8627823e-05 -2.8624752e-05 -2.7084981e-05 -2.3302338e-05 -2.481206e-05 -2.4518717e-05 -2.3875744e-05
-1.6367505e-06 1.038156e-06 2.4417252e-05 7.661249e-05 0.00011589895 0.00014441066 0.00016082922 0.00022153938
3.6945923e-17 1.1541476e-16 3.1628965e-16 5.198698e-16 3.9085454e-16 9.4651134e-17 2.8413894e-18 1.00568885e-20
1.4186028e-24 4.0109917e-29 2.3581678e-29 9.901163e-25 1.7753995e-19 4.5828246e-16 6.4075766e-14 2.223975e-12
9.4681155e-12 2.2479015e-11 2.4619012e-11 1.9339752e-11 -3.9695e-41 2.6702e-41 2.6794e-41 8.0796e-41
7.5834e-41 1.5351e-41 -1.32805e-40 2.455e-42 1.5294e-41 -2.2115e-41 7.861e-42 -9.6795e-41
-3.1067e-41 -8.3156e-41 -4.2225e-41 3.6437e-41 5.0768e-41 1.341e-42 6.7771e-41 -1.45406e-40
-0.3671246 -0.22994418 -0.1685146 -0.046195336 0.10674706 0.17128645 0.17569633 0.02906682
-0.07486235 -0.07289899 0.01604519 0.056485962 -0.07998258 -0.18335086 -0.3173039 -0.31672454
-0.18712251 -0.054758172 0.16042146 0.3757893 0.047990773 0.0002966961 0.019793324 0.021561375
0.052121658 0.092362225 0.12613595 0.17846721 0.21151112 0.09562179 0.07257488 0.26493138
0.27082977 0.18515219 0.11509726 0.10794728 0.040511828 -0.20396195 0.08177284 0.036533922
00000000: 1c56 95b1 e076 82b1 af47 a2b1 4afd 26b2
00000010: 5e2e acb2 3583 9fb3 4b34 64b4 717d 09b5
00000020: 4e8b 9db5 d8e1 03b6 6e2c 49b6 5d1b 79b6
00000030: 5070 29b6 c2ca 2736 fc3f b336 0479 0237
00000040: 1fdf 13b6 d4de 3fb7 eb72 92b7 f904 8cb7
00000050: c048 1d80 fc7e 2480 420d 1500 22bc 3280
00000060: 28a4 1200 a163 2000 3298 2080 c2ab 1f00
00000070: d6ea 1e80 9a44 3400 62ec 1c80 d908 0400
00000080: 3393 3000 1247 1f00 9aac 0680 926b 0800
00000090: bc84 1a00 e511 1500 6470 0380 2e56 c400
000000a0: b348 c5b9 5d87 afb9 da24 93b9 f059 89b9
000000b0: 7559 87b9 fef9 8cb9 1f2f 8db9 0150 84b9
000000c0: bc7d 7eb9 5379 66b9 44db 75b9 57d5 8db9
000000d0: ae9a aab9 39c1 d5b9 7c0b 00ba df4f 26ba
000000e0: 3fce 4cba d031 77ba 8e16 9cba 0c6b b6ba
000000f0: 7096 e8b7 5437 eab7 9b83 e5b7 c5a2 ebb7
00000100: 8914 ebb7 c825 f0b7 301f f0b7 8e34 e3b7
00000110: 6479 c3b7 7e23 d0b7 8bad cdb7 c548 c8b7
00000120: 52ae dbb5 c556 8b35 a6d3 cc37 04ab a038
00000130: c60e f338 f16c 1739 44a4 2839 064d 6839
00000140: 0c62 2a24 6d10 0525 1d54 b625 9fd7 1526
00000150: f34f e125 2b40 da24 54a8 5122 21f8 3d1e
00000160: a684 db17 a661 4b10 8925 ef0f 8c36 9917
00000170: 289a 5120 4717 0426 2a49 9029 927f 1c2c
00000180: 9a90 262d 3eba c52d 168d d82d 401d aa2d
00000190: a76e 0080 6f4a 0000 b14a 0000 3ae1 0000
000001a0: 65d3 0000 cb2a 0000 3572 0180 d806 0000
000001b0: a22a 0000 a63d 0080 ea15 0000 d30d 0180
000001c0: 9a56 0080 cee7 0080 b575 0080 9265 0000
000001d0: 858d 0000 bd03 0000 ebbc 0000 5595 0180
000001e0: c1f7 bbbe 7d76 6bbe 178f 2cbe 5237 3dbd
000001f0: 349e da3d b765 2f3e bde9 333e 8a1d ee3c
00000200: 6f51 99bd 114c 95bd 3471 833c d35d 673d
00000210: e8cd a3bd 54c0 3bbe a875 a2be b829 a2be
00000220: 0b9d 3fbe 1b4a 60bd 8645 243e 7567 c03e
00000230: f991 443d e08d 9b39 9c25 a23c 7ba1 b03c
00000240: 857d 553d 6828 bd3d c829 013e 1cc0 363e
00000250: 5f96 583e 5bd5 c33d 24a2 943d 16a5 873e
00000260: 33aa 8a3e 8998 3d3e 1db8 eb3d 7713 dd3d
00000270: bbef 253d 67db 50be 8578 a73d 98a4 153d

net.conv_net.1.bias f4 [4]
-3.37929e-39 -2.9374836e-10 9.395001e-39 -1.5584074e-08
00000000: 16cc 2480 687d a1af 714d 6600 bedd 85b2

net.conv_net.2.weight f4 [4]
4.518611e-09 0.0012034907 1.5606724e-14 -0.58966964
00000000: 1f42 9b31 72be 9d3a a892 8c28 97f4 16bf

net.conv_net.2.bias f4 [4]
-4.0372516e-10 -0.0015567793 -1.7314059e-15 -1.0721952
00000000: 44f3 ddaf d80c ccba 9a85 f9a6 b13d 89bf

net.conv_net.2.running_mean f4 [4]
3.6201226e-07 3.8098184e-05 -6.8522114e-13 0.0011100648
00000000: 965a c234 9dcb 1f38 63df 40ab 987f 913a

net.conv_net.2.running_var f4 [4]
1.5003068e-09 5.6558973e-05 4.7906965e-21 0.68354344
00000000: 5a33 ce30 bc39 6d38 c6fc b41d b4fc 2e3f

net.conv_net.4.weight f4 [4, 4, 20]
5.5745557e-27 3.3425245e-35 -5.37031e-40 -5.44561e-40 -3.90511e-40 -8.96632e-40 1.86404e-39 1.9217925e-32
6.085518e-31 2.9006446e-26 4.1583712e-26 1.9124617e-23 8.776731e-23 7.362881e-22 2.476818e-21 1.716145e-21
2.5403919e-22 8.852384e-24 3.599274e-25 1.6269492e-26 -3.9083986e-11 -4.463816e-11 -5.6967663e-11 -1.1281356e-10
-2.617629e-10 -8.2126406e-10 -1.0714662e-09 -5.4574714e-09 -8.417199e-09 -1.1048988e-08 -2.8803234e-08 -5.6302078e-08
-6.115639e-08 -1.0475657e-07 -1.2079356e-07 -1.0238989e-07 -7.895028e-08 -6.215647e-08 -4.5954526e-08 -2.4015758e-08
-3.30665e-20 4.783558e-20 1.8524366e-19 2.925171e-19 4.4465476e-19 5.566169e-19 2.8279562e-18 3.2935433e-18
9.497403e-17 3.025396e-16 5.4511085e-15 7.366144e-15 1.720844e-14 2.8315222e-13 1.2132356e-13 8.02835e-13
3.0224536e-12 1.4995867e-12 9.055699e-13 5.4781673e-13 -8.607129e-09 -5.0317763e-09 -2.7677187e-09 -5.129808e-10
-3.46746e-09 -6.1976944e-09 -4.5014867e-09 -3.845859e-09 -3.4186782e-09 -2.623227e-09 -1.9265058e-09 -1.5798433e-09
-1.3557258e-09 -1.650656e-09 -1.6317299e-09 -1.5770414e-09 -6.5643474e-10 -3.1302205e-09 -7.4306135e-09 -1.977691e-08
5.839606e-22 6.110026e-23 1.871652e-25 -3.7929027e-26 2.2554442e-27 -3.1395135e-28 -1.5417969e-26 -1.7234518e-26
2.5382504e-25 -6.7714795e-25 -2.292907e-21 -1.2746338e-20 -1.5602194e-19 -3.4228868e-19 -1.5257982e-19 -7.1885595e-20
-1.3059235e-21 1.5740519e-22 1.4615448e-25 5.6798645e-28 0.00012749548 0.00012283659 0.00013194025 0.0001332931
9.242466e-05 5.6554094e-05 2.1174437e-06 -5.6869336e-05 -0.00011067321 -0.00018523665 -0.00026615214 -0.00031642994
-0.00038413244 -0.0004308024 -0.0004514772 -0.00048705225 -0.00048756925 -0.00046685207 -0.00045686576 -0.00043440372
2.9325535e-30 6.762381e-31 9.894059e-33 7.197029e-36 1.449565e-39 -1.799e-40 -6.3402e-41 -1.52129e-40
-1.02131e-40 -1.1066e-41 2.4936e-41 -3.77354e-40 -7.1151904e-36 -1.6965181e-32 -1.4086118e-29 -2.1488367e-27
-4.8506965e-26 -1.7913164e-25 -1.5012125e-25 -1.7950177e-26 -0.010126512 -0.022236418 -0.049899742 -0.060251087
-0.065648794 -0.055470556 -0.060548063 -0.07087144 -0.0996278 -0.14698708 -0.18984903 -0.16197337
-0.19358951 -0.20375688 -0.11862532 -0.026869537 -0.10944652 -0.13914612 -0.18202356 -0.17486098
1.2481294e-20 8.851024e-19 -7.118602e-18 -2.2262986e-15 -1.2490989e-14 -1.7124072e-14 -1.56113e-14 -1.1867533e-14
-9.155671e-15 -2.971632e-14 -6.036147e-14 -5.909193e-13 -2.0829942e-12 -4.716824e-12 -6.880139e-12 -2.9216146e-12
-1.3721944e-12 -4.6482956e-13 -2.0503826e-13 -4.712656e-14 6.8037334e-16 -5.419308e-16 -3.9114518e-16 -3.8439859e-16
-7.571958e-15 -8.176215e-14 -3.0304483e-13 -6.97728e-12 -1.5914704e-11 -5.023965e-11 -1.6451075e-10 -3.7622477e-10
-5.8704014e-10 -7.1771633e-10 -4.7662974e-10 -1.7179592e-10 -3.4538056e-11 -6.1610305e-12 -6.7477653e-13 1.1194925e-13
-1.4317981e-20 -5.069686e-21 1.8106582e-21 1.6742331e-20 1.2127215e-19 8.5862206e-19 1.3890478e-17 2.7161114e-17
4.329259e-16 1.3160547e-15 1.01094085e-14 1.463408e-14 4.23154e-14 1.2038744e-13 7.288513e-14 8.117819e-14
3.4990707e-14 1.1212722e-14 8.627166e-16 7.4359706e-17 -6.233402e-09 -3.5420693e-09 -1.3714506e-09 4.4527218e-10
1.0512256e-09 1.6863352e-10 -1.9128472e-09 -4.1849866e-09 -5.489214e-09 -4.869681e-09 -2.7949898e-09 -1.2127427e-09
-5.15695e-10 -1.6146e-10 -3.751283e-11 -6.120272e-13 5.091181e-12 1.6350053e-12 -3.8532792e-12 -7.833831e-12
5.8741394e-30 -4.9179193e-30 7.39853e-32 3.5566506e-30 3.9272338e-31 -1.540156e-31 4.3569693e-31 2.0500974e-31
-9.840168e-31 -1.2240605e-30 2.0767064e-28 7.17715e-28 -1.5052797e-26 1.8162546e-26 -4.245777e-27 -2.0802247e-27
00000000: b6d4 dc13 16b8 3106 06d9 0580 04ee 0580
00000010: 9640 0480 72c3 0980 2f4c 1400 0292 c70a
00000020: 817c 450d 0aa2 0f15 9ee9 4d15 42f6 b819
00000030: 5535 d41a 8887 5e1c a124 3b1d 12ab 011d
00000040: a98e 991b e23a 2b19 c6c8 de16 1020 a114
00000050: a8e4 2bae 1a52 44ae e38b 7aae 6314 f8ae
00000060: dae7 8faf 52bf 61b0 de42 93b0 6d84 bbb1
00000070: 3c9b 10b2 f7d1 3db2 fb6a f7b2 cad0 71b3
00000080: 1555 83b3 89f6 e0b3 7bb3 01b4 70e1 dbb3
00000090: 608b a9b3 e17a 85b3 895f 45b3 364b ceb2
000000a0: f226 1c9f abe5 611f 76b2 5a20 efab ac20
000000b0: 2a3d 0321 c948 2421 95aa 5022 4605 7322
000000c0: c6fe da24 f766 ae25 9a65 c427 58b2 0428
000000d0: f6ff 9a28 8966 9f2a 2399 082a 5cfa 612b
000000e0: afaf 542c 4e0c d32b 30e5 7e2b 5b32 1a2b
000000f0: 8ede 13b2 f9e3 acb1 3932 3eb1 d101 0db0
00000100: 3448 6eb1 7ff3 d4b1 7fab 9ab1 8924 84b1
00000110: 06ee 6ab1 4c44 34b1 7363 04b1 cb21 d9b0
00000120: 5c54 bab0 4bdd e2b0 6443 e0b0 36bf d8b0
00000130: 7d70 34b0 6c1b 57b1 5e50 ffb1 e3e1 a9b2
00000140: c37d 301c 3bbb 931a 05b3 6716 c1d0 3b95
00000150: d8b1 3213 85fd c691 32b1 9894 b2ae aa94
00000160: 2f1c 9d16 3091 5197 463f 2d9d 82c5 709e
00000170: bd32 38a0 340d caa0 6c22 34a0 2dbc a99f
00000180: 7858 c59c 8c4a 3e1b 34ee 3416 8900 3412
00000190: 4fb0 0539 b2cd 0039 7159 0a39 98c4 0b39
000001a0: 1dd4 c138 7f34 6d38 6819 0e36 fc86 6eb8
000001b0: 3a19 e8b8 163c 42b9 568a 8bb9 82e6 a5b9
000001c0: 6265 c9b9 52dd e1b9 3eb4 ecb9 0c5b ffb9
000001d0: 70a0 ffb9 d3c3 f4b9 7c87 efb9 aec0 e3b9
000001e0: c1ea 6d0e aa73 5b0d d77d 4d0a 5a10 1905
000001f0: ccc8 0f00 7df5 0180 bdb0 0080 13a8 0180
00000200: b31c 0180 d91e 0080 8345 0000 e91b 0480
00000210: c852 1785 302d b08a a7d9 8e8f 963f 2a93
00000220: e231 7095 15c1 5d96 53d7 3996 1bc5 b194
00000230: abe9 25bc 2629 b6bc ac63 4cbd d8c9 76bd
00000240: e072 86bd 1835 63bd 3f01 78bd 0c25 91bd
00000250: a909 ccbd c883 16be c967 42be 59dc 25be
00000260: 543c 46be a5a5 50be d5f1 f2bd 811d dcbc
00000270: 7f25 e0bd 527c 0ebe 6264 3abe c20e 33be
00000280: d6c3 6b1e 399e 8221 a650 03a3 f66b 20a7
00000290: 8504 61a8 6c3d 9aa8 359d 8ca8 56c9 55a8
000002a0: 14ef 24a8 96d4 05a9 05ec 87a9 3954 26ab
000002b0: e393 12ac 60f5 a5ac c812 f2ac 2197 4dac
000002c0: 831e c1ab 80d6 02ab 41da 66aa 393d 54a9
000002d0: b11a 4426 6f33 1ca6 d77a e1a5 3897 dda5
000002e0: 7e67 08a8 ac1c b8a9 5d99 aaaa c07d f5ac
000002f0: bafc 8bad d1f4 5cae a9e1 34af eed4 ceaf
00000300: 475d 21b0 cc48 45b0 d603 03b0 41e4 3caf
00000310: 65e6 17ae a1c5 d8ac c6ee 3dab 5916 fc29
00000320: c13a 879e ff86 bf9d 39cf 081d 7920 9e1e
00000330: 422c 0f20 a66b 7d21 f71d 8023 5e84 fa23
00000340: 9690 f925 d9a9 bd26 6b1d 3628 e4cf 8328
00000350: 5692 3e29 518b 072a 6b1f a429 0acc b629
00000360: 8a95 1d29 8efd 4928 40a9 7826 3976 ab24
00000370: 952d d6b1 be68 73b1 a17d bcb0 7dca f42f
00000380: b67a 9030 1e6a 392f 2a73 03b1 88cb 8fb1
00000390: a39b bcb1 2b52 a7b1 fb11 40b1 97ad a6b0
000003a0: cfc0 0db0 f386 31af b1fb 24ae 3545 2cab
000003b0: 4821 b32c 461b e62b 4193 87ac 70d0 09ad
000003c0: 8d48 ee0e 987e c78e ab13 c00b 5f46 900e
000003d0: 5de4 fe0c 76ec 478c 4964 0d0d 160f 850c
000003e0: 75aa 9f8d 7c9d c68d 7da0 8311 f573 6312
000003f0: 6013 9594 86df b314 4b31 a893 f8cf 2493

net.conv_net.4.bias f4 [4]
-6.496039e-39 -4.5389716e-05 -8.656593e-39 -8.807944e-06
00000000: 50bc 4680 d660 3eb8 0f43 5e80 d5c5 13b7

net.conv_net.5.weight f4 [4]
0.041611463 0.33359864 0.008204452 0.15621012
00000000: c870 2a3d 71cd aa3e f76b 063c 8cf5 1f3e

net.conv_net.5.bias f4 [4]
-0.033407997 1.663279 -0.0194304 1.8999578
00000000: d3d6 08bd 54e6 d43f 812c 9fbc d131 f33f

net.conv_net.5.running_mean f4 [4]
-4.2091547e-10 -0.010273415 -1.4655888e-10 -0.0067581567
00000000: 9666 e7af d351 28bc a824 21af 8773 ddbb

net.conv_net.5.running_var f4 [4]
3.4083543e-18 0.00273058 6.995724e-19 0.0017735044
00000000: fe7d 7b22 88f3 323b 327a 4e21 ef74 e83a

net.conv_net.7.weight f4 [1, 4, 1]
0.10794716 -1.5019559 0.036424227 -1.6238693
00000000: 6713 dd3d 1740 c0bf 9231 153d f3da cfbf
