models/neuron_9.pth (torch, 7945 bytes, 13 tensors)

net.conv_net.1.weight f4 [4, 2, 20]
00000000: 58f8 1e37 eda9 00b7 7c29 8ab5 a04a 1737
00000010: e3a2 c736 096c 32b6 7d9d d436 9f9a 57b6
00000020: a9cc d836 6696 0335 374f f035 b126 4f36
00000030: d6af e4b6 eede c736 3b99 0137 da6b 1036
00000040: 9856 7936 8a38 80b6 464e 3436 62b0 5635
00000050: 692c 0000 b312 0000 f359 0000 8f4d 0080
00000060: 9c2c 0000 b149 0000 5f61 0080 693f 0000
00000070: fd38 0000 882f 0000 de46 0180 5e2c 0080
00000080: bb50 0080 2b10 0080 83e9 0000 ad4f 0000
00000090: 1f82 1300 c11d 0100 1858 0000 e921 0200
000000a0: 0bc2 7cbe 39bc 83bc 1cc8 ca3d 9a32 693d
000000b0: 5d5d 463d 45e1 0ebd 3317 a33b 9476 01bc
000000c0: b05f 0d3d 5a6d 1f3e 1262 d3bd 0938 443c
000000d0: 1997 0dbd 9abc d93d 3e13 023e ad7b f2bb
000000e0: 3a7c 8f3c 641f bb3d 8f03 993d b8ac 55be
000000f0: cc7d ddbd b6d2 27be 059e ccbd 3cdb 7cbd
00000100: 3afd e7bd 6997 08be 2302 13be 5da0 f9bd
00000110: 2974 67bd 2f19 523e 48ca fb3d f94d 713e
00000120: 39d2 093f b02e e03e 58f6 c83e ae96 d53e
00000130: f987 c13e 4d20 f33e 2e68 013f 86c4 23bf
00000140: afba 420e 77d2 bd0a f694 0e0b 0389 a40e
00000150: 2df7 5d13 a52d e116 6181 c717 b04a cc16
00000160: 0a91 7b14 503d 6311 2b32 0e0d 8ab6 0408
00000170: 58f6 b301 b7aa 0500 d339 0300 e182 3900
00000180: 11b9 ea0a 377b 0795 420f 3b9d 0c88 34a3
00000190: 2b7a 0100 6870 0080 baea 0000 fb11 0080
000001a0: e976 0080 71ee 0000 cbad 0100 3c15 0080
000001b0: fbc7 0000 7b7d 0000 b74b 0180 0189 0000
000001c0: 1555 0000 db55 0080 6957 0000 9679 0000
000001d0: 189a 0180 3713 0000 3bc3 0000 34ce 0a80
000001e0: 8566 0000 0721 0080 39bf 0000 ac56 0080
000001f0: 55c2 0080 d180 0180 7405 0000 b29f 0080
00000200: b95f 0000 9dae 0280 b779 0180 de87 0580
00000210: 5bf9 5b81 d4a9 8085 34f6 cc86 af40 4c0a
00000220: 8bdc 5d0c fa03 4f0d a5fa f00d 1539 b40c
00000230: 2ea5 0080 5beb 0080 2703 0080 8040 0180
00000240: af3e 0180 5986 0100 308e 0080 b973 0100
00000250: 0c96 0100 8807 0000 a665 0180 af96 0100
00000260: 134b 0180 4864 0000 f7df 0000 ba2c 0000
00000270: 3485 0080 675a 0000 5823 0000 41bd 0080
9.475356e-06 -7.6689585e-06 -1.0293875e-06 9.017676e-06 5.9496247e-06 -2.6586952e-06 6.3364264e-06 -3.2127498e-06
6.461127e-06 4.902016e-07 1.7904448e-06 3.0867925e-06 -6.8153995e-06 5.9566146e-06 7.724676e-06 2.152045e-06
3.7154296e-06 -3.8212793e-06 2.6867651e-06 7.9977883e-07 1.5931e-41 6.708e-42 3.2268e-41 -2.7823e-41
1.6003e-41 2.6435e-41 -3.493e-41 2.2747e-41 2.0444e-41 1.7051e-41 -1.17258e-40 -1.5916e-41
-2.896e-41 -5.8e-42 8.3768e-41 2.8582e-41 1.791553e-39 1.02509e-40 3.1602e-41 1.95836e-40
-0.24683397 -0.016080962 0.09901449 0.056933023 0.048428882 -0.034882803 0.004977131 -0.007901806
0.034515083 0.15569058 -0.1032144 0.01197625 -0.034567926 0.10631676 0.12702653 -0.007399997
0.01751529 0.09136847 0.07471382 -0.20866668 -0.108150095 -0.16388974 -0.09991077 -0.061732516
-0.11327596 -0.13339008 -0.14356284 -0.1218879 -0.056507263 0.2051742 0.122944415 0.235649
0.538364 0.4378562 0.39250445 0.41716522 0.3779905 0.4748558 0.5054959 -0.63971746
2.4002231e-30 1.8279206e-32 2.746027e-32 4.056106e-30 2.8015989e-27 3.6379516e-25 1.2892733e-24 3.3005112e-25
1.27008655e-26 1.7926036e-28 4.3817516e-31 3.993688e-34 6.61077e-38 5.20418e-40 2.9625e-40 5.281574e-39
2.2602995e-32 -2.7360232e-26 -2.4757132e-21 -9.786629e-18 1.35661e-40 -4.0324e-41 8.4204e-41 -6.45e-42
-4.2657e-41 8.5537e-41 1.5418e-40 -7.617e-42 7.174e-41 4.5014e-41 -1.18997e-40 4.9148e-41
3.0522e-41 -3.0799e-41 3.1357e-41 4.3617e-41 -1.47114e-40 6.893e-42 7.0035e-41 -9.92327e-40
3.6777e-41 -1.1848e-41 6.8598e-41 -3.1092e-41 -6.9713e-41 -1.38046e-40 1.956e-42 -5.7288e-41
3.4339e-41 -2.4631e-40 -1.35499e-40 -5.07917e-40 -4.040285e-38 -1.2099447e-35 -7.7098034e-35 9.834408e-33
1.7091588e-31 6.3791586e-31 1.4851482e-30 2.7767746e-31 -5.9255e-41 -8.443e-41 -1.131e-42 -1.14974e-40
-1.14322e-40 1.4003e-40 -5.1007e-41 1.33349e-40 1.45662e-40 2.702e-42 -1.283e-40 1.4589e-40
-1.18767e-40 3.5974e-41 8.0343e-41 1.6045e-41 -4.7784e-41 3.243e-41 1.2679e-41 -6.7892e-41

net.conv_net.1.bias f4 [4]
00000000: d45a 3f80 821c 8136 a4b7 5900 c20d 1480
-5.818219e-39 3.8478183e-06 8.239237e-39 -1.841645e-39

net.conv_net.2.weight f4 [4]
00000000: 828a 0100 617c a9be d742 3e3d e14f c5a6
1.41523e-40 -0.33102706 0.046450462 -1.3691272e-15

net.conv_net.2.bias f4 [4]
00000000: f950 cc8a 4978 983f aea5 34bd 8ae6 1183
-1.9674944e-32 1.1911708 -0.044103317 -4.2876316e-37

net.conv_net.2.running_mean f4 [4]
00000000: dd71 11b1 5a67 963b baf6 e01f ee10 ed8a
-2.1165e-09 0.004589957 9.5275865e-20 -2.2828638e-32

net.conv_net.2.running_var f4 [4]
00000000: 6b8f 8f30 2888 723d 08f2 ca06 0400 0000
1.0445381e-09 0.05921188 7.633959e-35 6e-45

net.conv_net.4.weight f4 [4, 4, 20]
00000000: e980 0000 b005 0080 0e59 0080 6c59 0000
00000010: dc60 0080 c536 0080 7447 0080 e06f 0000
00000020: 0379 0000 a96c 0180 7d88 0000 dc81 0000
00000030: d65d 0000 8ba1 0000 0e45 0180 3687 0080
00000040: 51a3 0280 b639 0100 2c4e 0080 b679 0080
00000050: fb5d 0000 0b60 0000 0c47 0000 3a1d 0080
00000060: de82 0000 e1c8 0000 7f99 0180 3870 0000
00000070: fa4b 0000 3de5 0000 731c 0080 31da 0000
00000080: 2ffa 0080 a92c 0100 d04d 0000 bcbf 0080
00000090: 099d 0500 6153 0080 0c53 0100 7670 0000
000000a0: 7632 0080 c149 0080 49e6 0000 3533 0000
000000b0: e0e0 0080 6d2e 0000 5f19 0100 bd89 0080
000000c0: b5d5 0080 3d15 0100 ef76 0100 89a8 0100
000000d0: 59fb 0100 4324 0200 b969 0200 663c 0380
000000e0: 32b8 0480 ffdc 0680 55a4 0480 a42a 0680
000000f0: a329 a615 710f 0d16 7413 8916 6d13 9916
00000100: 8eef 2417 7893 a216 9849 2917 cbe6 f716
00000110: c835 2017 1f8c 7217 b0b5 4c17 6138 3718
00000120: 03c4 0418 7d81 2918 898d 1c18 dde4 2917
00000130: 0b14 4217 4a4e 1116 8d77 d715 1c31 1a15
00000140: f425 0200 7188 0380 0062 0100 0a3e 0180
00000150: 01cb 0080 ef5f 0080 09c7 0480 95e3 0a82
00000160: 3977 0280 e1c5 e886 c410 5984 7282 2780
00000170: f011 6581 0784 0280 625b f283 1e0c 0380
00000180: b4eb 0580 9ceb 0280 3bac 0180 c69d 0080
00000190: 290a 0380 563d 8b97 4363 0080 7552 618e
000001a0: bf71 898c f7c6 b78a be6d 39a3 6f88 aa89
000001b0: 17dd 7498 688d cea1 c59e 8d92 95b5 da9f
000001c0: ad2c 3890 ba45 3b96 9652 ba22 2b87 af1f
000001d0: 3ca9 b11d e2a5 5021 2998 18a3 54a7 0ca1
000001e0: cf63 0f80 6eaf b781 2a18 6680 0698 4b81
000001f0: 3cba 0984 d334 4585 e3d3 1188 f63a 1b87
00000200: ecaf a785 5678 9789 4f95 8b88 3ebf 4c87
00000210: 6a66 0286 fc2b 7783 9ebf 4186 a922 1186
00000220: 6ea3 4d85 dae6 1e85 89ed a185 18d0 9f87
00000230: 6a34 0180 7944 0180 74c1 0180 ff02 0280
00000240: b82c 0280 4d7f 0280 d150 0280 bb78 0280
00000250: 60cc 0280 a069 0380 a0cb 0480 8c76 0880
00000260: eb20 4880 5538 8783 4900 4386 b8a3 fe88
00000270: 97a2 628b 368b f98c 345c 8b8d 0abf d88c
00000280: 289d b612 7083 1312 a05c 6711 f80b 8610
00000290: 77fd 000f 9ceb 440e bdd3 540d 669a e70c
000002a0: 493c 540e 6dd3 f78b 977f ff0c b439 940b
000002b0: 12a7 9d0d d674 470d 267f 2a0c 4b4f 1308
000002c0: d675 0e0c 2ea4 0791 12ca 860f 89a3 ce0f
000002d0: 0a60 1d3e 30b9 243e ed65 3e3e c87d 0cbd
000002e0: 9a27 27bc 9f94 83bd 013b 62bd ca34 0d3e
000002f0: c02c 1e3e 3191 e73d 3cae a23c 12f0 003d
00000300: 1345 fdbc 95ef f4bd 2e24 28be 3b57 c5bd
00000310: dd1f 1fbd d4f3 2dbc 89dd 693d e500 533f
00000320: 711e 0200 87bd 0000 962c 0080 471f 0180
00000330: 6576 0180 9981 0980 9da2 dc80 c0de 0980
00000340: 74dd 5881 0451 0680 ad69 0080 20f2 0080
00000350: c615 0000 c2ac 0080 ea26 0000 606c 0080
00000360: 4a7c 0100 98a1 0684 3653 ce0b 5c32 a58d
00000370: 6bbc 1d19 9b97 f318 67a2 b298 0ac4 bb99
00000380: fa6c 6a9a 5a74 f39a 1f97 889b 7d21 0b9c
00000390: eea6 919c 06fe 249d 925d bd9d 470b 3e9e
000003a0: a9ba c09e e983 3e9f c634 999f 9d1b 01a0
000003b0: 3c43 0aa1 ac66 66a0 dbc9 2ca3 84f5 bd9f
000003c0: 2a23 0080 a909 0000 fd13 0080 de84 0080
000003d0: f382 0000 7326 0000 a35f 0080 2b15 0000
000003e0: a581 0080 ba24 0100 742d 0080 f52e 0000
000003f0: 5a7b 0080 af42 0080 9520 0080 9441 0080
4.6244e-41 -2.04e-42 -3.1947e-41 3.2079e-41 -3.4747e-41 -1.9648e-41 -2.5633e-41 4.0133e-41
4.3411e-41 -1.30815e-40 4.8963e-41 4.6585e-41 3.3662e-41 5.795e-41 -1.16608e-40 -4.8505e-41
-2.42258e-40 1.12538e-40 -2.8043e-41 -4.3662e-41 3.3714e-41 3.4454e-41 2.5487e-41 -1.0485e-41
4.6946e-41 7.2062e-41 -1.469e-40 4.0257e-41 2.7255e-41 8.2235e-41 -1.0206e-41 7.8272e-41
-8.9749e-41 1.07857e-40 2.7914e-41 -6.8781e-41 5.15511e-40 -2.9911e-41 1.21627e-40 4.0343e-41
-1.8102e-41 -2.6458e-41 8.2611e-41 1.837e-41 -8.067e-41 1.6654e-41 1.00937e-40 -4.9411e-41
-7.6664e-41 9.9454e-41 1.34501e-40 1.52295e-40 1.82002e-40 1.96679e-40 2.21597e-40 -2.97173e-40
-4.33419e-40 -6.30291e-40 -4.26293e-40 -5.6631e-40 6.711256e-26 1.1394762e-25 2.214582e-25 2.4730743e-25
5.329362e-25 2.6265577e-25 5.4699733e-25 4.0050653e-25 5.176667e-25 7.8371275e-25 6.6145277e-25 2.368066e-24
1.715956e-24 2.1908113e-24 2.0233984e-24 5.489571e-25 6.271008e-25 1.173771e-25 8.7026426e-26 3.1138793e-26
1.97286e-40 -3.24452e-40 1.26991e-40 -1.14091e-40 -7.2824e-41 -3.4414e-41 -4.38742e-40 -1.0203952e-37
-2.2644e-40 -8.755946e-35 -2.5515926e-36 -3.62838e-39 -4.2073527e-38 -2.31033e-40 -1.4244462e-36 -2.79853e-40
-5.43732e-40 -2.68192e-40 -1.5362e-40 -5.6598e-41 -2.79151e-40 -8.998148e-25 -3.5608e-41 -2.7773093e-30
-2.117665e-31 -1.7697101e-32 -1.0052109e-17 -4.1054313e-33 -3.1647883e-24 -1.3996533e-18 -8.937491e-28 -9.2626994e-20
-3.632202e-29 -1.5127742e-25 5.0502842e-18 7.4339e-20 4.7026494e-21 7.0692685e-19 -8.272158e-18 -4.76553e-19
-1.413337e-39 -6.747531e-38 -9.375889e-39 -3.7394283e-38 -1.6189787e-36 -9.272598e-36 -4.388342e-34 -1.1678231e-34
-1.5769228e-35 -3.646509e-33 -8.4008605e-34 -1.5403455e-34 -2.4525524e-35 -7.2637268e-37 -3.6440044e-35 -2.7296933e-35
-9.669071e-36 -7.471525e-36 -1.5227624e-35 -2.4045968e-34 -1.10638e-40 -1.16399e-40 -1.61233e-40 -1.84746e-40
-1.99713e-40 -2.29338e-40 -2.12662e-40 -2.26981e-40 -2.56987e-40 -3.13398e-40 -4.40389e-40 -7.7721e-40
-6.623964e-39 -7.94752e-37 -3.6675633e-35 -1.5325559e-33 -4.3648336e-32 -3.844831e-31 -8.5887335e-31 -3.3395047e-31
1.1524557e-27 4.654703e-28 1.8251229e-28 5.287212e-29 6.359703e-30 2.4272307e-30 6.5582414e-31 3.568411e-31
2.6160044e-30 -9.545906e-32 3.9365761e-31 5.709435e-32 9.716093e-31 6.1462246e-31 1.3134586e-31 4.432941e-34
1.0974742e-31 -1.0700214e-28 1.3291255e-29 2.037616e-29 0.15368667 0.16086268 0.18593569 -0.03429964
-0.010202313 -0.064248316 -0.05523205 0.13789669 0.15446758 0.1130699 0.019858472 0.03147895
-0.030916726 -0.11959759 -0.16420051 -0.096357785 -0.038848747 -0.010617215 0.057096038 0.8242324
1.94591e-40 6.799e-41 -1.5994e-41 -1.03056e-40 -1.34307e-40 -8.7301e-40 -2.0262144e-38 -9.06427e-40
-3.983182e-38 -5.80076e-40 -3.791e-41 -8.6858e-41 7.811e-42 -6.1974e-41 1.396e-41 -3.8878e-41
1.36422e-40 -1.5825825e-36 7.9473516e-32 -1.0181034e-30 8.1547605e-24 6.296711e-24 -4.6175906e-24 -1.9414526e-23
-4.8478096e-23 -1.0069042e-22 -2.2596972e-22 -4.6034525e-22 -9.638445e-22 -2.1836546e-21 -5.0124633e-21 -1.0060848e-20
-2.0405992e-20 -4.034318e-20 -6.488533e-20 -1.0935861e-19 -4.6845203e-19 -1.9515729e-19 -9.366883e-18 -8.0450785e-20
-1.2614e-41 3.465e-42 -7.17e-42 -4.7664e-41 4.6976e-41 1.3793e-41 -3.4308e-41 7.594e-42
-4.6508e-41 1.0501e-40 -1.6306e-41 1.6845e-41 -4.425e-41 -2.3922e-41 -1.1688e-41 -2.3525e-41

net.conv_net.4.bias f4 [4]
00000000: b370 0900 7103 1080 cd5c 4436 ad78 8100
8.66948e-40 -1.470602e-39 2.9260293e-06 1.189007e-38

net.conv_net.5.weight f4 [4]
00000000: bdcd 9931 583b 6939 1ffb 113f 9a84 772e
4.476276e-09 0.00022242719 0.57023805 5.627907e-11

net.conv_net.5.bias f4 [4]
00000000: 7c02 0bb7 0ece 6cbb 447b 1b40 18a5 04b5
-8.285624e-06 -0.003613356 2.4293985 -4.9414075e-07

net.conv_net.5.running_mean f4 [4]
00000000: 2017 1500 feb0 9ea3 110c b93f 3553 3395
1.936841e-39 -1.7205353e-17 1.4456807 -3.62144e-26

net.conv_net.5.running_var f4 [4]
00000000: 0400 0000 7c0d 9005 e7d7 9a3d 0400 0000
6e-45 1.3546648e-35 0.07560711 6e-45

net.conv_net.7.weight f4 [1, 4, 1]
00000000: e544 56bc 4503 be3b 5019 14c0 68ce 1539
-0.013077949 0.0057987296 -2.314045 0.0001428664
