models/neuron_1.pth (torch, 7945 bytes, 13 tensors)

net.conv_net.1.weight f4 [4, 2, 20]
00000000: e0c9 22bf aa17 12bf ae6b 82be 4d96 98bc
00000010: ba70 1c3e 8744 183e 3b98 983d b43d d83d
00000020: 1bd9 9b3d ab2f d33c 6e2a 06be 9797 93be
00000030: 29fa 97be d38a 71be 7b79 debd 3c46 04be
00000040: bc30 2abe 1438 e6bd 8f64 283c 83f9 643e
00000050: 5d51 64bd 84e2 76bb 33dc d73c 2fb8 c43c
00000060: e9bd 75bc c0f7 76bc 57c9 1a3b 2d45 2f3c
00000070: 7fe0 b83a 8173 88bc d188 e9bc df92 0cbd
00000080: f7d4 bebb f259 93bc 900c 9cbc 1fc8 6ebd
00000090: c882 c6bc 12f1 e1bc 0233 4cbd 1b1c 67be
000000a0: 540b 1abe efac dabe ef4d c4be 9150 98be
000000b0: 8197 fe3c ce57 253e 622e 8f3e 51be e13e
000000c0: 0e44 c63e bf87 933e 65a6 27bc d600 d7bd
000000d0: 5ab9 fabd 89da adbd 0d3d 1bbd 80e4 bfbc
000000e0: 3a4f 933d 3bfd 33bd 728e 84be fde5 fdbe
000000f0: e45e 36ba 2814 a5bd cd93 a1bd d8d2 eabd
00000100: 0f33 09be 722e c1bc 46e2 05bd 741c 24bd
00000110: b9cc acbd d052 c0bd b0c4 68bd 3bbe a2bd
00000120: b748 b1bd a3a8 17bc 07b9 bcbd 7ba7 cbbc
00000130: 3c31 babd fb04 33bd 19b8 cb3d dccc d9be
00000140: a7ac dd20 1494 2b9e 6658 fa96 7dce 0292
00000150: 09ed 598a 3c28 0b80 6865 0200 232a 0100
00000160: 5c04 0a80 0e5b 788b 551c c695 feac df9b
00000170: 9e4c eea0 671c 8da4 b5b6 17a7 19fd 3ba9
00000180: 040e 9aaa a125 66ab f983 9eab a4ae 17ab
00000190: 416e 0000 f36a 0080 6ab1 0000 2459 0280
000001a0: 3452 0000 adb6 0000 5d85 0100 d4ee 0100
000001b0: ef09 0000 0b62 0080 62d0 0280 1a80 0200
000001c0: 1d12 0180 98d2 0080 174c 0000 fc7c 0080
000001d0: ac10 0000 ca10 0100 13cf 0080 ba5f 0200
000001e0: be09 b03e d1e0 cb3d 2757 cfbd 0e1b 60be
000001f0: 8e42 09be 1852 a9bd 75c2 a9be 0c94 e9be
00000200: 0445 a2be 626c 3ebe 03bd a0bd 9e8b fd3d
00000210: a1c0 563e 7db8 943e 41af 893e 9ab7 283e
00000220: 2e38 303e 8387 2b3e b0ae 603e b130 dc3e
00000230: 5d97 2e3e a6b3 773e a0c2 213e 5a04 62bd
00000240: a453 1dbe 5213 5abe be18 c2bd d6f4 b13d
00000250: f217 653e a242 123e 765a 063d 159a 9e3c
00000260: 1c78 96bd efc5 f9bd a3a3 163d 6ae2 253e
00000270: 8526 e0bc 1187 58be 6819 353e 5f1e d83e
-0.63589287 -0.5706736 -0.25472778 -0.018626356 0.15277377 0.14869891 0.07450911 0.10558644
0.07609769 0.025779566 -0.13102123 -0.2882659 -0.29683045 -0.23588113 -0.10863014 -0.12917417
-0.16620153 -0.11241165 0.010277881 0.22360806 -0.055741657 -0.0037671635 0.026350116 0.024013607
-0.014998891 -0.015073717 0.0023618543 0.010697645 0.0014104991 -0.016656639 -0.028507622 -0.034319755
-0.005823727 -0.017987225 -0.019048959 -0.05829632 -0.024232283 -0.027580772 -0.049853332 -0.22569315
-0.15043384 -0.42710063 -0.3834071 -0.29748967 0.031078102 0.16146776 0.27965075 0.44090512
0.38723797 0.28814504 -0.010232543 -0.10498206 -0.12242384 -0.08488948 -0.03790002 -0.023424387
0.07192846 -0.04394267 -0.25889927 -0.4958953 -0.0006956889 -0.08060485 -0.07889519 -0.114659965
-0.13398384 -0.023581717 -0.032686494 -0.040066198 -0.08437485 -0.09390795 -0.0568282 -0.0794644
-0.086564474 -0.009256515 -0.09214979 -0.024860134 -0.09091422 -0.04370592 0.09947223 -0.42539108
3.7553108e-19 -9.0832865e-21 -4.0445466e-25 -4.1275284e-28 -1.0492751e-32 -1.024624e-39 2.20049e-40 1.06951e-40
-9.19919e-40 -4.7831565e-32 -8.0016263e-26 -3.700405e-22 -4.036947e-19 -6.119712e-17 -2.1054505e-15 -4.174187e-14
-2.736562e-13 -8.1764635e-13 -1.1263205e-12 -5.388834e-13 3.9552e-41 -3.8366e-41 6.3644e-41 -2.15649e-40
2.9489e-41 6.5532e-41 1.39677e-40 1.77511e-40 3.564e-42 -3.5171e-41 -2.58425e-40 2.29625e-40
-9.8333e-41 -7.5547e-41 2.7296e-41 -4.4836e-41 5.981e-42 9.7858e-41 -7.4284e-41 2.18011e-40
0.34382433 0.0995499 -0.10124045 -0.2188532 -0.13404295 -0.08267611 -0.3315617 -0.45620763
-0.3169328 -0.18596032 -0.07848551 0.123801455 0.2097192 0.29047003 0.2689152 0.16476288
0.17208931 0.16750912 0.21941638 0.430059 0.17049928 0.24189624 0.157969 -0.05517993
-0.15363938 -0.21296433 -0.094773754 0.08689277 0.22372416 0.14283231 0.032801114 0.019360581
-0.07347128 -0.12195956 0.03677715 0.16199651 -0.027362118 -0.21145274 0.17685473 0.4221067

net.conv_net.1.bias f4 [4]
00000000: 21c0 9bb4 f1f8 10b6 d88f 0c80 f2d6 95b5
-2.9010792e-07 -2.1602575e-06 -1.153627e-39 -1.1163922e-06

net.conv_net.2.weight f4 [4]
00000000: 622f 803f cfb4 043f 679d d931 2234 403f
1.001446 0.5183839 6.333426e-09 0.7507955

net.conv_net.2.bias f4 [4]
00000000: 295b e0be b397 20bd 6f49 a7b2 b4ef fcbe
-0.4381955 -0.03920717 -1.9474752e-08 -0.4940163

net.conv_net.2.running_mean f4 [4]
00000000: 93cf febb c195 88bb 5c1f de28 28b7 38bc
-0.0077762096 -0.0041682427 2.4660551e-14 -0.011274137

net.conv_net.2.running_var f4 [4]
00000000: 7baa 3340 535c 013f 8e4d ee18 a9a4 903f
2.8072803 0.505315 6.159987e-24 1.130025

net.conv_net.4.weight f4 [4, 4, 20]
00000000: dd7c 1cbf 34a2 d0be 80a3 2fbe 0df9 8bbd
00000010: ef11 2dbd 8832 a8bd 8601 09be fc44 f8bd
00000020: efcf 47bd 3e6e b03c 2046 ae3d 4f92 d83d
00000030: ab3b 3f3e febb ba3e fde3 de3e 696b ae3e
00000040: 9afe 173e 719f f1bc 80d8 1fbe 27c5 80bd
00000050: 19d3 c83d 8b3a b5ba 3587 3bbd 3380 8b3d
00000060: 22d0 143e f4ef 273e 178a c53c 18d2 67bd
00000070: 6c54 ddbd 7ffa 35be e96c d4bd f1bd 45ba
00000080: 66f3 e63d c112 1e3e fd47 3b3e f107 f93d
00000090: 338d ccbc 9c99 86bd 735f ecbd 31c8 583e
000000a0: c52c 5580 780d 3f00 72a0 a601 a459 6005
000000b0: d2b3 5508 55d1 0109 fafc 1d0e ee00 1c11
000000c0: 8eec 8c12 23f7 a813 2c27 ae95 f971 f795
000000d0: 9f27 0396 7f5b 2014 5c9b 8216 81ea 2717
000000e0: 7180 8a16 e3e6 1916 c3d9 0b15 70a1 1215
000000f0: e921 d1bd 958d 75bd 2ecc 1f3b 758b fb3d
00000100: 336f 223e 7d2c 053e 120a 183e adea 1d3b
00000110: 5cf4 56be b18c 6fbe 9217 28be 6a48 f9bd
00000120: 7434 54be d2e0 bbbe 1f38 b1be ab2e 44be
00000130: 4165 8abd 9062 e63d 3213 253e 5a8d 86bd
00000140: 402a 0100 35b2 0100 7344 0300 5f97 0100
00000150: 6f89 0180 8f08 0280 6711 0280 1e65 7a8e
00000160: bc89 0a91 cb20 208d 1398 0b93 bbea b893
00000170: 1d82 8f95 86e4 f493 6566 878c 2206 0280
00000180: 6f9a 0080 0718 0000 4a45 0080 b541 0080
00000190: 5bdb 0080 558d 0080 b807 0000 140a 0080
000001a0: 3e88 0000 b595 0080 9873 0000 5d59 0000
000001b0: 9fa4 0080 ce3e 0000 c256 0080 390f 0280
000001c0: 7a35 0380 513b 0180 6e92 0080 891a 0080
000001d0: 033e 0080 44ab 0080 4e48 0080 519c 0080
000001e0: 814d 0000 055a 0000 dbf3 0000 a212 0100
000001f0: 9f28 0000 3686 0000 ce5b 0100 5c90 0180
00000200: 8c49 0100 9a06 0100 e622 0100 edf8 0000
00000210: 057f 0280 b04d 0680 cde4 0980 7ccd 1b80
00000220: adca 6085 5153 8880 5b0f 0e80 f0b8 aa85
00000230: 0f96 0080 6d57 0080 6a36 0080 4f82 0000
00000240: 98d3 0180 3d83 0180 d743 1e86 c16a c78b
00000250: c093 f290 0558 5094 b6b7 de93 85eb da8d
00000260: 4cb5 cc89 e655 0280 d4f4 0080 6801 0080
00000270: 94b3 0180 b079 5782 ed59 a686 45c3 a789
00000280: ace1 fa3d 1516 3c3e c1b6 8e3e 753d 843e
00000290: 0887 5f3e 33ce 123e a287 0c3e a2bb 323e
000002a0: 885a fa3d 0c57 3dbd f5c0 3ebe a789 80be
000002b0: e7e5 5bbe 875e 96bd 23d7 7abc f95e cfbc
000002c0: 3454 1bbd 7a5f 93bd 1643 c03b 1416 763e
000002d0: 2692 36be b167 193c f404 9fbc b89f 4ebd
000002e0: f386 c93c ad78 0b3e 3447 103e 179e debb
000002f0: 5319 c3bd 358d a3bd 606c 943d 19b5 1f3e
00000300: ac9a 893e 4a04 7a3e 42d2 5b3e e966 343e
00000310: 100c 3bbd 2fb7 1cbe 80d8 37be 065a 993e
00000320: c11c 0080 4071 0180 eb03 0100 2a64 0100
00000330: 7669 0100 eb0a 0180 6ca7 0280 ea0d 0000
00000340: a0c4 0100 424b 0180 9971 0080 ed71 0000
00000350: e295 0080 bc4c 0280 75a7 0100 de61 0180
00000360: 548a 0080 3c14 0100 ef60 0180 0c71 0100
00000370: c7d0 01be 138a 8dbd 43b3 1dbd 6b8c 3d3d
00000380: d766 903b e8d9 38bd 0bb2 593d 5fde 133d
00000390: 8729 39be 1930 44be 434e 03be 1771 d1bd
000003a0: ed16 523d b502 2c3d 7ac4 133e c65b 6b3e
000003b0: 6ed7 6c3e 6fa7 a83e 275c e23e adb4 d23e
000003c0: 32c6 ae3e d742 d43d 4376 ecbd e83d a9be
000003d0: aa3b b4be 08cd adbe 8621 adbe 0e8a 79be
000003e0: 629c e2bd ace2 833a 6545 f43d dd44 6c3d
000003f0: aadf 2bbd 04c0 54bd 1dd4 20be 09d4 72be
-0.61128026 -0.4074875 -0.17152214 -0.06834612 -0.04225343 -0.08212763 -0.13379487 -0.12122533
-0.048782285 0.021536943 0.08509469 0.10574781 0.18675105 0.36471552 0.43533316 0.34066322
0.14843217 -0.029494973 -0.15609932 -0.06287604 0.09805889 -0.0013826651 -0.04578324 0.068115614
0.14532521 0.16400129 0.024113698 -0.056596845 -0.10807118 -0.17771338 -0.103723355 -0.0007543257
0.11276893 0.15436842 0.1828918 0.12159718 -0.024969673 -0.065722674 -0.11541643 0.21170117
-7.822077e-39 5.790468e-39 6.1208997e-38 1.0548894e-35 6.4308734e-34 1.5626238e-33 1.9473548e-30 1.2306517e-28
8.893557e-28 4.2652858e-27 -7.033984e-26 -9.994232e-26 -1.0594598e-25 8.09598e-27 2.1100678e-25 5.4256596e-25
2.237616e-25 1.2432097e-25 2.824261e-26 2.9611817e-26 -0.10211546 -0.059949476 0.0024383175 0.12282459
0.15862732 0.13005252 0.14847592 0.0024096176 -0.20991653 -0.23393513 -0.16415241 -0.12172015
-0.20723134 -0.36694962 -0.3461313 -0.19158427 -0.06757594 0.11249268 0.16120604 -0.065699294
1.06992e-40 1.55764e-40 3.00061e-40 1.46137e-40 -1.41137e-40 -1.86741e-40 -1.89914e-40 -3.0863565e-30
-1.0928723e-28 -4.934328e-31 -1.7619245e-27 -4.6679592e-27 -5.796252e-26 -6.18196e-27 -2.086167e-31 -1.85871e-40
-5.54e-41 8.62e-42 -2.4856e-41 -2.3571e-41 -7.869e-41 -5.07e-41 2.769e-42 -3.615e-42
4.8874e-41 -5.3705e-41 4.1467e-41 3.2058e-41 -5.9055e-41 2.253e-41 -3.1123e-41 -1.89132e-40
-2.9469e-40 -1.13114e-40 -5.2529e-41 -9.519e-42 -2.2246e-41 -6.1439e-41 -2.5938e-41 -5.6076e-41
2.7803e-41 3.2293e-41 8.7479e-41 9.852e-41 1.4572e-41 4.8146e-41 1.24769e-40 -1.43622e-40
1.18219e-40 9.4204e-41 1.04355e-40 8.9298e-41 -2.29237e-40 -5.78882e-40 -9.08598e-40 -2.553272e-39
-1.0569655e-35 -1.2519516e-38 -1.291205e-39 -1.6054658e-35 -5.3831e-41 -3.1362e-41 -1.952e-41 4.6746e-41
-1.67741e-40 -1.38915e-40 -2.9766338e-35 -7.681264e-32 -9.5679814e-29 -1.0518675e-26 -5.622183e-27 -1.3491987e-30
-4.9281704e-33 -2.14486e-40 -8.7828e-41 -5.04e-43 -1.56256e-40 -1.5830628e-37 -6.2574394e-35 -4.038742e-33
0.12250075 0.18367799 0.27873805 0.25828138 0.21828854 0.14336471 0.13723615 0.17454389
0.12224299 -0.046225592 -0.18628295 -0.2510502 -0.2147442 -0.073422484 -0.015310082 -0.025313841
-0.0379221 -0.07195945 0.0058673723 0.2403186 -0.17829189 0.009363101 -0.019411542 -0.05044529
0.024600482 0.13620253 0.14089662 -0.006793748 -0.095263146 -0.079859175 0.072472334 0.15596427
0.26875818 0.24415699 0.21466926 0.17617382 -0.0456658 -0.15304254 -0.17953682 0.29951495
-1.0315e-41 -1.32462e-40 9.3241e-41 1.27768e-40 1.29668e-40 -9.5752e-41 -2.4373e-40 4.991e-42
1.62371e-40 -1.18833e-40 -4.0751e-41 4.0869e-41 -5.3768e-41 -2.11198e-40 1.51908e-40 -1.26944e-40
-4.9623e-41 9.9094e-41 -1.26609e-40 1.32389e-40 -0.12677298 -0.06911101 -0.038501035 0.04627649
0.0044067907 -0.045129687 0.05314831 0.03610074 -0.18082248 -0.19158973 -0.12822823 -0.10226648
0.051291395 0.04199477 0.14430419 0.22984228 0.23129055 0.32940242 0.44210932 0.4115347
0.34135586 0.10364311 -0.11545994 -0.33055043 -0.3520177 -0.3394549 -0.3381464 -0.2436907
-0.11064984 0.001006206 0.119272985 0.05768286 -0.04196135 -0.051940933 -0.15705915 -0.23713697

net.conv_net.4.bias f4 [4]
00000000: a55c 7ab5 9ee1 3180 e7ed 1eb5 0640 5f34
-9.3267073e-07 -4.580876e-39 -5.920578e-07 2.0791785e-07

net.conv_net.5.weight f4 [4]
00000000: 10ef c63f 8511 e33b 8ce5 cd3f 0239 da3f
1.5541706 0.0069295787 1.6085677 1.7048647

net.conv_net.5.bias f4 [4]
00000000: 7b96 ae3f 3742 b6bc aac2 bb3c 893e 903f
1.3639673 -0.02224837 0.022919971 1.1269084

net.conv_net.5.running_mean f4 [4]
00000000: 1149 96bd 3523 ad94 ef1b 023f 67b6 aa3d
-0.07338155 -1.7482423e-26 0.50823873 0.08335572

net.conv_net.5.running_var f4 [4]
00000000: b5e6 c63e 0400 0000 7569 f83e 4b0d c93e
0.3884789 6e-45 0.48517957 0.39267954

net.conv_net.7.weight f4 [1, 4, 1]
00000000: f5e6 f7bf d3e4 973c 84fa c7bf 2928 febf
-1.9367357 0.01854173 -1.5623326 -1.9856006
