models/stochseq_model=RNN_layers=2_hidden=16.pt (torch, 7846 bytes, 10 tensors)

weight_ih_l0 f4 [16, 2]
00000000: 9a0b 733e 3eba bbbe 6754 25bd 602d 893e
00000010: e607 e23d 1b16 6c3e fa2c b3bd 9f9f e73d
00000020: 29f0 953b 0b96 bfbd 8972 153e e784 a03e
00000030: 190c cb3d b60f c1be ad07 293d 527a 4b3e
00000040: 0749 f53b b401 a23e a907 44bc 2067 b63e
00000050: 6bbf 543e fbe0 50be 4568 8abd dd35 863e
00000060: cbb8 1d3e cf8b 09bd 90bf 583e a910 043e
00000070: 6d0b 05be 94e3 a3bd f451 b03d 6ff9 5e3c
0.23734894 -0.3666553 -0.040363695 0.2679243 0.11036663 0.23055308 -0.08748813 0.11309742
0.0045757485 -0.0935479 0.14594473 0.31351396 0.09914417 -0.377073 0.041267086 0.1987088
0.007485512 0.31641924 -0.011964717 0.35625553 0.20776145 -0.20398323 -0.06758169 0.2621297
0.15402524 -0.033580597 0.21166825 0.1289698 -0.1299264 -0.080023915 0.08609381 0.013609274

weight_hh_l0 f4 [16, 16]
00000000: fea7 f9bd 1484 873e daf6 9cbd fc99 66be
00000010: 0f6e 8c3c e5d5 1f3e 87e9 bb3d 3b77 c7bd
00000020: 0cc8 c1bb d6cd b63c 8038 bd3d 3773 ba3d
00000030: dd81 013e d799 843e 10b4 2abe fc79 693e
00000040: 7a7c ddbd 60db c0bd d166 f03d b461 603d
00000050: 2209 443e e02a 203e aac0 7e3e fe5b ddbd
00000060: 91d0 093e 7a84 b7bc 7c76 ad3d fcfe cf3c
00000070: 3eb4 87bd 39b8 a33d b9f2 243e 3582 eeba
00000080: b9bd 763d 7592 4dbd f3a1 773d 6345 76be
00000090: fa5d 7c3e c1ea 103d b9f6 27be bc99 ee3d
000000a0: 032c 1d3e 3188 303e 4ee4 30bd 5769 bb3d
000000b0: 7ba2 90be 0919 423e 6ba5 1ebe 19be 64be
000000c0: 76f2 13be 4752 ce3d 8752 1a3e a8bb 373d
000000d0: 1c04 22be d1fc febd f3e7 6c3d b7e2 e0bd
000000e0: 8d4d 9d3d f6aa 823e 856c 7a3e 7a65 1cbb
000000f0: 51cc 013e 5451 a2be cc22 6dbe e5fb aebc
00000100: a967 043e f984 1abe 4e03 f33d 9a8c 88be
00000110: f0d6 be3c 0b79 90be 672d 9cbd 7de1 56be
00000120: 1ff1 11be 1859 32be a170 8dbd 996d c13d
00000130: 49f9 263e 9b6d fc3c d4a3 8b3d cbe1 51be
00000140: d649 e33d b8d4 c53d 08bf a23d 9e90 153e
00000150: accf 52be 0e32 29be f8fb 00be e60d debd
00000160: 14e6 123e 86da 1fbe dd0e acba c1e6 8abe
00000170: d262 4f3d 7057 88be cb9e bcbd 9e1a 943d
00000180: 1057 763d 8fdb 1b3d b500 e7bc a437 ec3d
00000190: 52ac 153b 52bd 053e cae9 afbe 7683 48be
000001a0: dfa5 aa3e 082e 06be 963e b73d bc11 bebc
000001b0: aad9 8d3c 0b97 f2bd 296d 1fbe 7457 593e
000001c0: fe92 453e 106e 0dbe 34a4 683c 08af 413e
000001d0: d192 65be 042e 41be afc2 213e edcf b9bd
000001e0: da00 663c 1b69 6c3e ce34 a13d 67fb 73bd
000001f0: 0e48 ed3c 2fcf cebd af37 4c3d 1098 ccbd
00000200: bcbc 42be 2e58 30be d69b 06be a176 7f3d
00000210: da8f 853e 1179 7cbe 7eff 5cbd 7763 623d
00000220: dff5 b83d c753 e83d 5202 9d3d fe06 0fbe
00000230: d9a4 b33d fb5b 9cbd 457e 813d 2b45 993d
00000240: ca06 783d f14f 773d 29b1 89bd dca7 413d
00000250: 3eff b0bc 792a 9c3d 0dce 173e 3dcd b43d
00000260: 87fc dcbd 2335 a83d 350b 483e 93eb 43be
00000270: 220f 213d f7b9 55bd b096 963d 9c79 123e
00000280: 475c ca3c c4b7 8c3e cc9e b3bd 856a 1fbe
00000290: a1d3 243e 7ed2 bdbd ca94 60bc cc48 8dbe
000002a0: 9e56 813e 2e58 41be f5a6 afbe 4f6c 04ba
000002b0: d90b b6bd 6504 f3bd 7a67 83bd ddeb a4bd
000002c0: 1d6e f63d 332c ebba 2ee4 39bd 7cf1 e1bd
000002d0: a407 5dbe 5424 aa3d d61c e73b c22a 5cbe
000002e0: 1769 27bd 357f ca3d f554 37bd 4b63 783e
000002f0: 449f 393d 466a 063e 2936 283e da06 2b3e
00000300: c354 92be 4312 933e d3e6 473e 828b 3abe
00000310: 8a41 3abd e19f 083e 1096 953d 4318 0d3e
00000320: a6db 4b3e b387 24be 5069 293e ec73 9a3e
00000330: 93d4 42be 84be 3d3e a44d bd3d 1d44 dabd
00000340: b135 563c 50f8 a3bc b145 1cbe e619 afbd
00000350: 5d18 523e 2cc7 2f3e 0fa8 3ebe f61e e1bd
00000360: 81b6 ab3d f46b aa3d aebe 78bb 7558 2b3e
00000370: aaa7 0e3e 894e 3d3e dd4c 4dbd 0de8 79be
00000380: a4e9 883e d324 1c3e fdeb b63b 536a 6dbe
00000390: b5d3 06be c63e 21be fc3d 183e 6378 3cbd
000003a0: 5de1 86bd a685 a2be fdda ed3d be05 f23b
000003b0: 141b 3e3e 4e9f 553e 6107 a53d 118e 203d
000003c0: f376 dabd 0d7b 053d 8e47 c03d 08a2 e83d
000003d0: 5499 b3be 0ce0 9c3e 2412 1d3e 71f9 463e
000003e0: 0ad6 cd3d 15b3 0b3e cabe b93d 199f c8bd
000003f0: 2328 ba3d 7bab 383d 644d c0be 0b80 f13d
-0.12190245 0.26467955 -0.07664271 -0.22519678 0.017142324 0.15608938 0.09175401 -0.09739538
-0.00591374 0.022314947 0.09239292 0.09104007 0.12647195 0.2589862 -0.16670251 0.2280044
-0.10814758 -0.094168425 0.11738361 0.054780677 0.19144109 0.15641356 0.24878183 -0.10808562
0.13458468 -0.022402037 0.08469865 0.02539014 -0.06626175 0.07994122 0.16108216 -0.0018196764
0.060239527 -0.0501885 0.06045718 -0.24049906 0.24645224 0.03538013 -0.16402711 0.11650416
0.1534882 0.17239453 -0.04318648 0.09150951 -0.28248963 0.18954863 -0.1549279 -0.22338142
-0.1444796 0.10074287 0.15070544 0.044856697 -0.1582188 -0.12450565 0.05783839 -0.109807424
0.07680807 0.25521058 0.2445546 -0.0023864196 0.12675597 -0.31702673 -0.23157805 -0.021360347
0.12930168 -0.15089788 0.11865865 -0.2666977 0.02329585 -0.28217348 -0.07625847 -0.20984454
-0.14252137 -0.17416799 -0.06906248 0.09444732 0.16306032 0.030813983 0.06818357 -0.2049629
0.110980675 0.096597135 0.079465926 0.14605948 -0.20587033 -0.16523 -0.12596118 -0.10842495
0.1434558 -0.15610704 -0.0013126988 -0.27129176 0.05063135 -0.2662921 -0.09209975 0.07231639
0.060141623 0.038051184 -0.02819858 0.1153405 0.0022838307 0.13060501 -0.34358054 -0.19581398
0.33329675 -0.13103497 0.08947484 -0.023201816 0.017315704 -0.118452154 -0.15568985 0.21224767
0.19294354 -0.13811517 0.014199305 0.18914425 -0.22419287 -0.1886521 0.15796922 -0.09072862
0.014038289 0.2308697 0.078714 -0.059565928 0.028965022 -0.10098111 0.04985779 -0.09989941
-0.19017309 -0.17221138 -0.13145384 0.062368993 0.26086313 -0.24655558 -0.053954594 0.05527064
0.09031271 0.11344104 0.07666458 -0.13967511 0.087716766 -0.076347314 0.06322912 0.07483896
0.06055335 0.060378972 -0.06723244 0.047279224 -0.021606084 0.076252885 0.14824696 0.088282086
-0.10790353 0.0821326 0.19535525 -0.19132833 0.039321072 -0.052179303 0.0735296 0.14304203
0.024702204 0.27483952 -0.087705225 -0.15567978 0.16096355 -0.09268664 -0.013707349 -0.27594602
0.25261396 -0.18881294 -0.34307066 -0.00050515396 -0.088889785 -0.118660726 -0.06416221 -0.080528
0.12032721 -0.001794225 -0.045383625 -0.110323876 -0.21584946 0.0830771 0.007052998 -0.21500686
-0.040871706 0.09887544 -0.044758756 0.24256627 0.045317903 0.13126478 0.1642691 0.16701832
-0.28580293 0.2872487 0.19521646 -0.1821728 -0.04547266 0.13342239 0.07304013 0.13778786
0.19908008 -0.1606739 0.1654408 0.30166566 -0.19026403 0.18529707 0.092433244 -0.10657523
0.0130743245 -0.020015866 -0.1526096 -0.085498616 0.20517106 0.17165822 -0.18618797 -0.109922335
0.08384419 0.08321372 -0.003795545 0.16732962 0.13931146 0.1848699 -0.05012213 -0.24404927
0.26740754 0.15248422 0.005582331 -0.2318509 -0.13166697 -0.15746602 0.14867395 -0.046013247
-0.065859534 -0.3174259 0.11614034 0.0073859384 0.18565017 0.20861551 0.08058048 0.039197985
-0.10667219 0.032588053 0.09388648 0.1135903 -0.35077918 0.30639684 0.15338951 0.19431092
0.1005059 0.13642533 0.09069593 -0.097959705 0.09089687 0.04508541 -0.37559044 0.117920004

bias_ih_l0 f4 [16]
00000000: a663 1d3e 2f58 193b a991 713d 82c5 af3e
00000010: 5c39 82be f9fa 843e 8378 583e 8cbb 983d
00000020: 1d5f bd37 3e30 82bd 9dde b93d 74ba 73be
00000030: 0e1c ec3d c7fa b0be 60d3 5ebe 2fc7 043e
0.15370044 0.0023398509 0.058976803 0.34330374 -0.25434387 0.25972727 0.21139722 0.07457647
2.2574846e-05 -0.06356858 0.09075663 -0.23801595 0.115287885 -0.34566328 -0.2176032 0.12966608

bias_hh_l0 f4 [16]
00000000: 8e85 0cbe 69af 1cbb 2fcf 443d b422 c0bd
00000010: 4bcd b2be f3ad 67bd f466 083d cea4 be3b
00000020: 0c3f 89bd d08e 783e bd96 ee3d f90d 84be
00000030: c07f 7fbc afdc 88bd 5915 69be abe3 113c
-0.13722822 -0.0023908264 0.04804915 -0.09381619 -0.3492225 -0.056562375 0.03330131 0.005817986
-0.06701478 0.24273229 0.11649845 -0.2579191 -0.015594423 -0.06682717 -0.2276205 0.008904378

weight_ih_l1 f4 [16, 16]
00000000: 34d4 97bc 2eb7 343d fc6d d6bb 404b 86bd
00000010: fc3a de3d fc79 87be 00eb a83d 3e07 323d
00000020: e871 a4bd f3b0 7abe c41b 4cbd 8395 183d
00000030: 39fc f73d c054 5fbe 3a5a d9bc 278c c8be
00000040: 4924 76bd 0ac4 e43d 09fa 4d3c 21f6 5c3e
00000050: 5b69 84be c561 0e3e 24e2 9bbe addb 983e
00000060: 35f9 bc3d 1b50 893e e9d0 8cbe 4b7d 6cbe
00000070: 4675 f83d bc69 473d 9fd1 a1bd e216 b93d
00000080: 8e30 af3d 15a2 933e 1db4 933e d006 24be
00000090: 229d b93e a336 b8bd 7354 8c3d 1a6a 4ebe
000000a0: 556e 30bc 3965 01be 47f1 133e d950 debd
000000b0: ab7d a83e 5c45 313e 3073 493e d374 a7be
000000c0: 5d4d 55be 9e17 ab3c 6828 af3d f28b 4a3e
000000d0: 8190 003e 9867 a73e 25a5 8fbd 415d c63d
000000e0: 2f4c 923d 13fe 813d 62c3 9cbe 6757 0abd
000000f0: cf1f de3c 5dd6 ad3c 9825 68be 768e 013e
00000100: 21d0 82be 6dd4 913e d407 a83e 549d 143d
00000110: 8268 54be b0b6 7c3e 9069 28be d366 643e
00000120: 1256 613d 4419 a93e acb3 89be 4d44 2a3e
00000130: 7b23 9fbd 1c42 8dbe cb58 69be e21a adbc
00000140: 3d15 abbd 5de8 86be 0694 e0bd 8769 f73d
00000150: 60c9 2bbe b760 3b3e 6a4d 363b a1b0 d4bd
00000160: 69f3 1d3d fb08 cbbd 57ef abbe 983f 3d3e
00000170: b4a1 6dbe 2052 febd b634 353e be4b 463d
00000180: 5de2 183e 47ea 83be 08c0 7cbe fc39 8fbd
00000190: 2a36 c4bd f779 49be 9b74 bd3d 3667 fa3c
000001a0: f90a bebe d141 92bc 84ef df3d 9688 c3be
000001b0: 3004 04bb 6dbb a9be 6e35 48bd 0724 943e
000001c0: ed65 8cbe b842 b23e 960d 853e 0358 c9bd
000001d0: 01b1 5ebe 9e2a 163e 76ee 1fbe 69aa 9c3e
000001e0: cf90 ac3e 3494 3c3e 2841 8c3d ad29 363e
000001f0: 82ad ce3d 3bf5 8d3e b3bc 3ebb a664 f73c
00000200: e1d4 a5bd 629b b23e fef4 eb3b 94dd 613e
00000210: 2112 73be 7dbd 7d3e 3515 e63d 7931 ea3d
00000220: 9113 a93e a607 bd3e 280b aabe 4e84 193e
00000230: b667 b1be e119 023e 5799 c0bb 615b 663d
00000240: f7e5 7c3d d741 82be 75fd eabd 65f0 093e
00000250: 03c2 28be c9ea 1f3a dfa3 813c 9a7e 79be
00000260: 4719 c7bd 793b a33d edb6 a83e 21a9 90be
00000270: 40f1 89bd f363 5abe 8300 b73d 482d 283d
00000280: f26c 513d c679 bd3d af94 f1bd a9b3 62be
00000290: e67b 233e cbff 7b3d 7186 da3e 6af0 323e
000002a0: e985 c0be 9c47 96bc 11a6 503d d411 e8be
000002b0: 00b8 333e 6562 74bd cc46 183d d85a 03bd
000002c0: 0665 113b 8ec4 c23e 45b0 3a3e ba76 533a
000002d0: 2ade 463e 8cf3 6a3e ebac bfbe 7e31 f1bc
000002e0: 8644 963e 8faa a43e 107c c6bd 8329 7b3e
000002f0: 5416 c13d cc4e c23d ba8c 863e 12db c43c
00000300: ecf3 b3be b917 923c 93be 553c 857d b83e
00000310: 7d94 573c 3318 833e 392f ea3c bcfd 2b3e
00000320: b939 49bd 9621 663e cff5 5abe 51ba 13be
00000330: 9ab2 1a3e 35da 553e 49f6 8bbe 4cb7 003d
00000340: 6f71 ab3d 49a1 7a3d 2ac3 ce3d bf4b d0be
00000350: d490 ad3b a55f 9abe 0caa 85be e345 043b
00000360: 77c2 d33d 2c2a 0ebe 304c 273d 553c b63e
00000370: 62e3 f33d cb9e 143e 1a1c d33e 178e b0be
00000380: 9b42 82be 7b47 c63d 259d c4bd bcb9 8bbe
00000390: 6c53 30bd 18e1 c2bd 54cb 94be d795 37be
000003a0: fc82 79be fd9f adbd 58ac d13d 44a6 9f3e
000003b0: 0ea8 f43d 4da9 1c3e 1c3e 073e 7159 b3be
000003c0: 3404 bdba 5443 503c 1ea9 253e 3e71 04be
000003d0: 3dfd a13e 9435 a8be ac25 9d3e 4ecb 48be
000003e0: 370f 1d3d 9524 1e3e 83e1 623e c650 4cbe
000003f0: f574 7abc 019c 323e 8352 773e 24de b5bd
-0.018533804 0.044120006 -0.006543873 -0.065573215 0.10851094 -0.26460254 0.08247948 0.043463938
-0.080295384 -0.24481563 -0.049831167 0.03725196 0.121086545 -0.21809673 -0.026532281 -0.39169428
-0.060093198 0.11170204 0.01257182 0.21578266 -0.2586163 0.13904484 -0.3044597 0.298551
0.0922722 0.26818928 -0.27503136 -0.2309467 0.12131743 0.04868482 -0.0790131 0.09037568
0.08554183 0.28834596 0.28848353 -0.16018224 0.36252695 -0.08994796 0.06852045 -0.20157662
-0.010768493 -0.1263627 0.14447509 -0.10855264 0.32908377 0.17311615 0.19672847 -0.32706317
-0.20830293 0.020885285 0.08552629 0.19779947 0.12555124 0.32696223 -0.07013921 0.096857555
0.07143437 0.06347289 -0.30617815 -0.03377476 0.027114777 0.02122038 -0.22670591 0.12652001
-0.25549415 0.2848238 0.32818472 0.036282852 -0.20742992 0.24679065 -0.16446519 0.2230485
0.055013724 0.3302709 -0.2689489 0.16627617 -0.07770439 -0.275895 -0.22787778 -0.021130983
-0.0835366 -0.26349154 -0.10965733 0.120806746 -0.16776037 0.18298613 0.0027817138 -0.10385252
0.038562212 -0.09913822 -0.3358104 0.1848129 -0.23206216 -0.12418008 0.17695889 0.048412077
0.149301 -0.25764677 -0.24682629 -0.069934815 -0.095806435 -0.19675432 0.09250756 0.030566793
-0.37117746 -0.01785365 0.10934356 -0.38190144 -0.0020144098 -0.33150807 -0.04887908 0.28933737
-0.27421513 0.34816527 0.25986928 -0.0983124 -0.21747209 0.14664695 -0.1561831 0.30598763
0.3370423 0.1841591 0.06848365 0.17789336 0.10091688 0.27726158 -0.0029104173 0.03019936
-0.08097244 0.34884173 0.007200836 0.22057182 -0.23737384 0.24779315 0.11234514 0.114352174
0.3302274 0.36919898 -0.33211637 0.14991876 -0.34649438 0.12705185 -0.0058776545 0.05623949
0.06174275 -0.25440857 -0.11474124 0.1347061 -0.1648026 0.00061003544 0.01582521 -0.24364701
-0.09721618 0.07970328 0.3295206 -0.28254035 -0.06735468 -0.2132719 0.089356445 0.04105881
0.05112929 0.09251742 -0.11795937 -0.22138847 0.15965232 0.06152324 0.42680696 0.17474523
-0.37602165 -0.018344693 0.050939623 -0.45326102 0.17550659 -0.05966415 0.037176892 -0.032069057
0.0022185459 0.38040584 0.18231304 0.0008066703 0.19420686 0.22944468 -0.37436613 -0.029442545
0.29349154 0.32161376 -0.09691632 0.24527554 0.09428087 0.094876856 0.2627924 0.024030242
-0.35147035 0.017833577 0.013045925 0.36033264 0.013157961 0.256044 0.02858697 0.1679601
-0.049127314 0.2247375 -0.21382831 -0.14426543 0.15107194 0.2088402 -0.27336338 0.031424806
0.08371245 0.06118897 0.10095818 -0.4068279 0.005296806 -0.30151096 -0.26106298 0.0020183257
0.103398256 -0.13883275 0.040844142 0.35592905 0.11908604 0.145137 0.41232377 -0.34483406
-0.2544144 0.096816026 -0.096002854 -0.27290142 -0.043048307 -0.095155895 -0.29061377 -0.17928253
-0.24366373 -0.08477781 0.1023795 0.31181538 0.119461164 0.15298958 0.13207287 -0.35029176
-0.0014420808 0.012711365 0.16177794 -0.12933823 0.31638518 -0.32853377 0.30692804 -0.19608805
0.038344588 0.15443642 0.22156338 -0.19952688 -0.015286674 0.17442323 0.2415257 -0.088802606

weight_hh_l1 f4 [16, 16]
00000000: 5f85 ba3e 9fb2 edbd e242 8b3e ce0d 76be
00000010: e252 94be f2f7 bcbd 2651 8ebe 10c9 0fbd
00000020: 74a3 7e3e 3b80 cabc 802d 98be 1b29 903e
00000030: c101 18be aa69 36bc e395 c13e 0746 b93e
00000040: 96a4 03be 79fa bc3d 9876 de3d 9ec6 0b3e
00000050: 2f54 ee3d cf51 c7bd cccc 1dbe 3df4 363e
00000060: 2c1f 8bbe 24a6 04be ec0d 4b3d 01cf 06be
00000070: 223d e93d c3f5 f5bd 53c2 d63d 8fe5 543c
00000080: 4391 b9bd fdc7 283e 0d50 6bbd 8ff4 153d
00000090: ec8b d8bd a385 5cbe d500 c3bd 82fc d7bd
000000a0: d3fa 51bd a4c8 52ba de42 9abe f6e4 a13d
000000b0: ff8f e03d 6671 263e b4f9 323e 5dbf 4cbd
000000c0: 250e a2bd c703 a43d 1ad9 753e 3a81 ce3d
000000d0: f7f0 38bd 482b a7be 5ddf 8bbe 6fed 1fbe
000000e0: 5419 373e 5869 bebd 4484 603c 6fd3 6b3e
000000f0: 65de 82be ec45 cabd 845c a53e 3149 993d
00000100: d2b6 85bc 2298 113e 5bb6 c33c 6073 e3bd
00000110: efc4 373c fff7 283d 4338 08be 695b e33d
00000120: 6b4b 87be 86e7 60bd 7246 df3d 6e19 fe3d
00000130: 62fc 30be 705d 5cbe 1cd1 2dbd 775c fe3d
00000140: aeb1 bfbe 04c2 963e 3feb 11bf 10b1 1cbd
00000150: 3805 36be 5247 333e fb50 6e3e f0cf 2ebd
00000160: 2610 9dbe e1f4 01be 9d0a 0e3d 0630 c0be
00000170: 344a a73e 2e98 13be e52e 49be 6d91 8bbe
00000180: 921e 323c f6a8 6a3e 08ce 51bd 00cc ea3c
00000190: dfc5 2bbe 94cd 33be f789 853e 6191 11bd
000001a0: 749a 103e a777 78bd e12d cb3c d24d 44be
000001b0: 56a7 403e b42f 80be e08e 40be 9150 8abe
000001c0: 90e4 77be d17c 19be 4be3 343e 879a 29bd
000001d0: d108 0eba 9f7e 9e3c d272 52be 2c72 2cbe
000001e0: b683 483e 07f8 ba3d fd88 6ebd 98ca 6bbe
000001f0: ba43 26be d58b 823e 1d90 33be a4e5 033c
00000200: 8d74 b8ba ca4a f13c 37ff 683e 2b55 61be
00000210: a022 953e 7e54 a93d a214 873e ef8a 0ebe
00000220: 6ed6 fbbd b248 09be be5c 0ebe 7741 a53c
00000230: 102b b2bd d23f 853e 5c1b 213e 061b 983d
00000240: 5fd9 acbd edb5 a6bd 707c 873e 16f8 4bbd
00000250: 6f98 27be 6e41 073d 325f e53d fdab bdbd
00000260: 6271 173e 993a 8f3e 4ec1 ffbd b7f7 1fbe
00000270: 07f6 6dbd a046 34be 00f9 0c3e 2049 293e
00000280: 9e22 0fbd 946d 0fbe b0c5 78be 2973 93b9
00000290: 7447 2abe af31 803e deb8 603d 8825 74be
000002a0: 7313 15bd 3c6d 993e f530 3fbc 7052 b43c
000002b0: 4abc 60be 3367 aa3d 08a7 74be 783d 28bd
000002c0: 3163 34be 5d1c 83bd 935a 373d 1998 b2be
000002d0: f031 1dbe 3a1e f43d 89e0 d6bd 6c70 86bc
000002e0: fcaf 903e 7286 1bbe 1575 90be 5590 a33c
000002f0: 4573 bbbd 664f 0d3e f906 8a3e 483e 753d
00000300: 2ee4 393e dba4 693e aca5 093e c1cd 2b3e
00000310: efbc 1abe 65ec 123e 7fa9 f83d 2568 883e
00000320: 8036 06be 5f41 73be 640e 3b3e 5f64 473e
00000330: a7b2 c5bd b1fa a8bd 76f9 57bd 78bc 893d
00000340: 53fa 813e 0e9a afbe baa8 963e b3c3 04be
00000350: f4b9 1bbe 9b10 9e3d f1c4 ad3d 8c01 d23b
00000360: b16e ab3c cd2d 1a3e 1225 9fbe b486 9b3e
00000370: 9b42 9cbe 3b70 debc 1467 bfbd 276d 4c3d
00000380: 0e57 8fbc 0583 5abe 4890 c63e 139d 203e
00000390: 3dbc 61bd e19c 93be 4841 80be c87c b93d
000003a0: e996 973e 9878 7f3d aa78 9fbe b220 3f3e
000003b0: 1e84 83be 1f56 983e e9bb 7d3e 6720 583d
000003c0: 99d8 933e 3823 8c3c d528 0abc cc75 2d3c
000003d0: b710 043e 9bbf c2bd 5bec 84bd 7a42 82be
000003e0: 96a5 ea3d 3d47 213d 0687 68be 62d8 71be
000003f0: e657 cbbd 3060 1f3c 95af 533e ee8f 133e
0.3642988 -0.11606335 0.27199465 -0.24028704 -0.28969485 -0.09226979 -0.27796286 -0.035103858
0.2486704 -0.024719348 -0.29722214 0.2815636 -0.14844419 -0.011133591 0.37809667 0.3618624
-0.12855753 0.09227461 0.10862464 0.13649985 0.116371505 -0.097324006 -0.15410155 0.17866607
-0.2717222 -0.12954003 0.049573824 -0.13164903 0.11388613 -0.12009766 0.10486283 0.012994184
-0.090609096 0.1648254 -0.05744939 0.036610182 -0.10573563 -0.21535353 -0.09521643 -0.10546209
-0.051264595 -0.0008040762 -0.3012914 0.07904999 0.10964965 0.16254196 0.17478067 -0.049987186
-0.07912854 0.08008533 0.24008599 0.10083242 -0.045151677 -0.32650208 -0.2731885 -0.15617917
0.17880756 -0.092974365 0.01370341 0.23029874 -0.255603 -0.09876618 0.32297146 0.07484663
-0.016322527 0.1421819 0.023890665 -0.111059904 0.011216386 0.041252133 -0.13302712 0.111014195
-0.26424727 -0.054908298 0.10902108 0.12407194 -0.17283776 -0.21520019 -0.04243575 0.1241998
-0.37440246 0.29444897 -0.5699958 -0.038254797 -0.17775428 0.17507675 0.23273079 -0.042678773
-0.30676383 -0.1269107 0.03467809 -0.3753664 0.326738 -0.1441352 -0.19646795 -0.2725939
0.010871546 0.22916016 -0.051221877 0.028661728 -0.167747 -0.1755889 0.2608182 -0.035539035
0.14121419 -0.060660984 0.02480215 -0.19170311 0.18813834 -0.25036395 -0.18804502 -0.27014592
-0.24208283 -0.1498902 0.1766483 -0.041407134 -0.0005418184 0.019347487 -0.20551613 -0.16840428
0.19581494 0.09129339 -0.05823611 -0.23026502 -0.16236773 0.25497308 -0.17535444 0.008050356
-0.0014072821 0.029454608 0.22753607 -0.22005145 0.2912798 0.08268069 0.2638293 -0.13920186
-0.122967586 -0.13406637 -0.13902566 0.020172818 -0.0869962 0.26025254 0.15733093 0.07427029
-0.08439898 -0.08140168 0.26462126 -0.04979714 -0.16366743 0.033021383 0.11199798 -0.0926132
0.14789346 0.27974394 -0.12488042 -0.1562184 -0.058095958 -0.17605066 0.13766861 0.16531801
-0.034945123 -0.14006644 -0.24294162 -0.00028123826 -0.1662882 0.25037906 0.054863803 -0.23842442
-0.0363955 0.29966152 -0.011669387 0.022011966 -0.21946827 0.08320465 -0.23891842 -0.041074246
-0.17615964 -0.06401894 0.044764113 -0.34881666 -0.15351081 0.11919828 -0.104920454 -0.016411029
0.28259265 -0.15188006 -0.28214327 0.019966284 -0.09152845 0.1379982 0.26958445 0.05987385
0.1815345 0.22816794 0.13442105 0.16777708 -0.15111135 0.1434799 0.12141704 0.26641956
-0.13106728 -0.23755406 0.18267208 0.19471882 -0.09653216 -0.082509406 -0.05272814 0.06725401
0.25386295 -0.34297222 0.29425603 -0.12965278 -0.15207654 0.07718011 0.08484829 0.006408876
0.020926805 0.15056534 -0.3108297 0.30376208 -0.30519566 -0.027153125 -0.093458325 0.049908783
-0.017497566 -0.21339042 0.38781953 0.15684919 -0.05511116 -0.28830627 -0.25049806 0.09057003
0.29607323 0.062370867 -0.31146747 0.18664816 -0.25686735 0.29753205 0.24778713 0.052765276
0.28876188 0.017106637 -0.008432587 0.010587167 0.12897001 -0.09509202 -0.06490394 -0.25441343
0.11457364 0.03937458 -0.22707757 -0.236177 -0.09928875 0.009727523 0.20672448 0.14410374

bias_ih_l1 f4 [16]
00000000: 9557 0f3e 1676 6ebd f1bd 3fbe 0133 033e
00000010: f063 a2bd 1904 f23d a5c8 dabc b6a9 df3d
00000020: 04ad e93d 448a 3fbe 5812 263e ad6c 6d3c
00000030: 1aba 813c 5fb4 85bd 8d01 32bd 3d96 363d
0.13998254 -0.058218084 -0.187248 0.12812425 -0.07929218 0.11817188 -0.026707003 0.10921042
0.11409953 -0.18705088 0.16217935 0.014491242 0.01583581 -0.06528544 -0.04345851 0.044576872

bias_hh_l1 f4 [16]
00000000: 0f31 163e 2867 873e 0eb3 99be a975 2a3e
00000010: 3a16 bdbd eb59 5abe 434a 31be 0d57 12be
00000020: d77d 37be 2b5d 91bd 65ba 983e 6c79 8d3d
00000030: b077 2d3e b40e 35be 1d98 893d a7f3 21be
0.14667152 0.2644589 -0.3001942 0.16646446 -0.09232755 -0.21323363 -0.17313485 -0.1429102
-0.17919098 -0.070978485 0.29829708 0.06907925 0.16940188 -0.1768139 0.067184664 -0.15815602

weight f4 [2, 17]
00000000: c372 f3bd 284b 903e b290 e63d 8b89 6f3e
00000010: 00e1 973e 265a 41bd 7ada 23be 6df1 d93e
00000020: c24d d93e 8898 a3be a27e a8be ccfd 953e
00000030: 10fd c33e 21b9 27be 69cb 81bb 4e70 57be
00000040: c65e 2e3e c63b de3e e735 48be 962b 813e
00000050: caf4 303e b9ba 09be 6f83 80be ad3a 71be
00000060: 3906 3d3e 05f5 4b3e ba61 633e be30 cbbd
00000070: ad36 223e c85f 35be 7d0c a33e bbf3 803e
00000080: cb91 823e 0894 51ba
-0.118871234 0.2818234 0.11258067 0.23392312 0.2966385 -0.047205113 -0.16001311 0.42567006
0.42442137 -0.3195231 -0.32909113 0.29295194 0.3827901 -0.16379215 -0.003961016 -0.21038935
0.1702834 0.4340498 -0.19551812 0.25228566 0.1728088 -0.13450135 -0.25100276 -0.2355754
0.18459405 0.19917686 0.22205248 -0.09921406 0.1584117 -0.17712319 0.31845465 0.25185952
0.25501856 -0.00079947757

bias f4 [2]
00000000: 39df e0bd 2868 8a3d
-0.10980076 0.067581475
