models/stochseq_model=LSTM_layers=2_hidden=2.pt (torch, 4582 bytes, 10 tensors)

weight_ih_l0 f4 [8, 2]
000000 2d fa ed bd e9 f9 f0 3d 9b 2c 3b 3d be 5a 43 3e
       -0.11619983 0.117664166 0.045696836 0.19077584
000010 37 c3 90 3e 20 18 fc bd 62 8c 5a bd 41 b9 c3 3c
       0.28273937 -0.12309289 -0.053356536 0.023892047
000020 34 f5 82 bb 0c 02 53 bf f3 e9 11 be d3 4c 74 bf
       -0.0039965156 -0.82425 -0.14249401 -0.95429724
000030 9d 26 be 3d 05 96 e0 be 70 a2 1d 3e 28 3f cf 3b
       0.09284709 -0.43864456 0.15393996 0.0063246675

weight_hh_l0 f4 [8, 2]
000000 7c 5a 02 3f 12 9e 23 be 80 6e 3c 3d 26 ed c9 3e
       0.5091932 -0.15978268 0.04600382 0.39438742
000010 4f 54 c5 be be 4d b0 3e 1a 2b 70 3e 4d 1f 08 bf
       -0.38540885 0.34434313 0.23453942 -0.5317276
000020 aa 1e 64 3d 41 56 67 bf cc a8 51 3d 66 cf cd 3e
       0.055693306 -0.9036599 0.051186368 0.40197295
000030 d6 65 99 3d 70 ff a0 3d 4e 7a a1 be d3 7f f0 be
       0.07490127 0.07861221 -0.31538624 -0.46972522

bias_ih_l0 f4 [8]
000000 63 d9 8c 3f 03 8b df 3e d0 a0 8a 3d 02 c1 c2 be
       1.1003841 0.43660745 0.06768954 -0.38037878
000010 65 99 22 be 7e 15 9a 3e 10 a0 8f 3f 35 0d 4a be
       -0.15878828 0.30094522 1.1220722 -0.197316

bias_hh_l0 f4 [8]
000000 53 56 e7 3e 97 d5 5f 3f 0b e6 29 3d e2 68 30 3e
       0.45183048 0.8743529 0.04147915 0.1722751
000010 42 81 92 3e 8f 64 a1 be 86 43 7b 3d a1 9b 35 3f
       0.2861424 -0.31522033 0.061343692 0.70940596

weight_ih_l1 f4 [8, 2]
000000 37 fc 95 3f d0 b8 0e 3f a3 82 4e be 16 a6 80 bf
       1.1717595 0.5575075 -0.20167021 -1.0050685
000010 d1 8c 6f 3f 64 16 90 3f a9 45 60 3d 22 b0 2d bf
       0.93574244 1.1256833 0.054753933 -0.6784688
000020 5c a2 8f bf 19 af 75 be 7b 3a 8b bf a7 4e 97 3d
       -1.1221423 -0.23992576 -1.0877222 0.073880486
000030 f0 eb ac 3f cb 53 29 3b 45 c3 2c 3d 6b 58 00 bf
       1.3509502 0.0025837298 0.04217841 -0.50134915

weight_hh_l1 f4 [8, 2]
000000 83 d1 0d bf 8a a5 ed be 9c dd 4c 3e ed f8 63 3f
       -0.55397815 -0.4641536 0.20006412 0.89051706
000010 ae 87 40 3e 8d cf 27 be b8 2d ed 3d 44 d4 ef 3e
       0.18801758 -0.16387768 0.11580986 0.46841633
000020 c3 5c f0 be f9 9f 0b bd 3d 2d 08 3f 26 13 20 3e
       -0.46945772 -0.03408811 0.5319403 0.15632305
000030 78 74 c7 be d0 fb 2c 3e 72 91 85 bf e5 b2 76 3f
       -0.38956046 0.16892934 -1.0435011 0.9636672

bias_ih_l1 f4 [8]
000000 3b 47 20 be 93 a2 e3 3c 6d 17 21 3f 8b 1d 09 3f
       -0.15652172 0.027787482 0.6292637 0.53560704
000010 25 07 a1 be 1e 86 18 3f 3a 34 59 3f ad 83 f7 3d
       -0.31450763 0.59579647 0.84845316 0.12085662

bias_hh_l1 f4 [8]
000000 b8 2a d4 3e b2 34 03 3f 8c 51 11 3f 1f 9f b0 be
       0.41438842 0.5125228 0.56765056 -0.344964
000010 98 3a 18 be 41 3e c4 3e 2b e6 29 be ab 55 94 3e
       -0.14866102 0.38328746 -0.16591708 0.2897161

weight f4 [2, 3]
000000 28 61 3f 3f 7c 29 56 3f cd dd 99 3e 5e a7 9c 3e
       0.74757624 0.8365705 0.30052033 0.3059644
000010 f5 0f 6c bf 7a 36 c6 38
       -0.9221185 9.451523e-05

bias f4 [2]
000000 83 64 7f 3c 4a 4d 1f bf
       0.015587929 -0.6222731
