models/stochseq_model=GRU_layers=4_hidden=8.pt (torch, 11551 bytes, 18 tensors)

weight_ih_l0 f4 [24, 2]
0	0x3e80dee1	0.25170043
1	0x3e04f34d	0.12983437
2	0xbe1025ad	-0.14076872
3	0x3d9d8392	0.07691111
4	0x3db97af1	0.09056652
5	0xbea51e0f	-0.32249495
6	0xbd84d7eb	-0.064864956
7	0x3e990d10	0.29892778
8	0x3e2bb1cc	0.16767043
9	0xbf12b493	-0.57306784
10	0xbe6bf4d4	-0.23042613
11	0x3ea0319b	0.31287846
12	0x3e545ad8	0.20737779
13	0x3ec6d4cc	0.38834226
14	0x3dd9f997	0.106433086
15	0x3cb746d2	0.022372637
16	0x3ec95549	0.3932288
17	0xbe92bc4f	-0.28659293
18	0xbe24c461	-0.16090538
19	0xbdec2edb	-0.115323745
20	0x3d645cf4	0.05575271
21	0x3dbf4d4d	0.09340916
22	0xbeab2011	-0.33422902
23	0x3e967700	0.29387665
24	0x3e0a0b01	0.1348076
25	0xbeb42f8c	-0.35192525
26	0xbdd63635	-0.10459558
27	0x3e05b184	0.13055998
28	0xbf3bd53a	-0.7337223
29	0x3e90f74f	0.2831368
30	0xbe138a41	-0.14408208
31	0xbd15829c	-0.036501512
32	0xbdb1217e	-0.08648966
33	0xbea88dff	-0.32920834
34	0x3e2f8529	0.1714064
35	0xbe987ed6	-0.29784268
36	0xbcb85daf	-0.02250561
37	0xbe39d5cc	-0.18147963
38	0x3cbb2881	0.022846462
39	0x3eca79fd	0.39546195
40	0xbd7211a4	-0.059098855
41	0xbe8429cb	-0.25813136
42	0xbc079671	-0.008275614
43	0xbead027e	-0.33790964
44	0xbcc718d2	-0.024303827
45	0xbeacf1dd	-0.33778277
46	0xbd205350	-0.039141953
47	0xbd8c35c8	-0.068461955

weight_hh_l0 f4 [24, 8]
0	0xbe598160	-0.21240759
1	0xbeed3a1b	-0.46333393
2	0xbef97952	-0.48725373
3	0xbc24918e	-0.010044469
4	0xbeae1a4a	-0.34004432
5	0xbdd0ad88	-0.101893485
6	0xbe7eaebd	-0.24871345
7	0x3e8ba1d5	0.27271906
8	0x3e0a1d0b	0.13487642
9	0xbd74a23b	-0.059725028
10	0x3e6fecd5	0.23430188
11	0xbd6784da	-0.05652318
12	0x3f24ed3d	0.64424497
13	0x3e135ff2	0.14392069
14	0xbebe731b	-0.37197194
15	0x3ea12684	0.31474698
16	0x3e26d230	0.16291118
17	0x3e91feeb	0.285148
18	0xbe04aa8d	-0.12955685
19	0x3e99e5cd	0.30058137
20	0x3eda83cd	0.4267868
21	0x3dd23fc7	0.10266071
22	0xbe1863f1	-0.14881875
23	0x3f187b74	0.59563375
24	0x3e6834e9	0.22676434
25	0x3ea4b46b	0.32168898
26	0xbdf37771	-0.11888016
27	0x3e19dc85	0.15025528
28	0x3ea57008	0.32312036
29	0xbdc8b779	-0.0980062
30	0x3e7959a5	0.24350603
31	0x3c186568	0.009301521
32	0xbdb7c815	-0.089737095
33	0x3d531c46	0.051540636
34	0xbe1b6d57	-0.15178429
35	0x3ee93877	0.45550892
36	0xbe0b4726	-0.1360136
37	0xbe318e75	-0.173395
38	0x3da0a8d8	0.078447044
39	0x3eb36331	0.35036615
40	0x3e3b6c30	0.18302989
41	0x3ee49af1	0.4464946
42	0x3efa339e	0.48867506
43	0x3ec5176e	0.38494438
44	0xbe1c56eb	-0.15267532
45	0xbe26e4e1	-0.16298248
46	0xbe907e34	-0.28221285
47	0xbe59e739	-0.2127961
48	0xbe22eace	-0.15909883
49	0x3d49e94e	0.049294762
50	0x3e84949a	0.25894624
51	0x3df7e49b	0.1210415
52	0xbd9121b1	-0.07086504
53	0xbe6d84d5	-0.23195203
54	0x3d96079b	0.073256694
55	0x3ab229ea	0.0013592814
56	0x3e09f382	0.13471797
57	0xbe7ba4e3	-0.24574618
58	0xbca79e64	-0.020461269
59	0x3e1be58d	0.15224285
60	0x3cb96986	0.022633325
61	0x3c29e9dd	0.010370699
62	0xbd8f7554	-0.070048004
63	0x3e72c895	0.23709328
64	0xbd01978c	-0.031638667
65	0xbd77baad	-0.060480762
66	0xbe4ab7c9	-0.19796671
67	0xbe93d35e	-0.28872198
68	0xbe2b54b2	-0.16731527
69	0x3f0cce0d	0.5500191
70	0x3f042422	0.51617634
71	0xbe56c71d	-0.20974393
72	0xbc3adbf9	-0.011404985
73	0x3f28ba9c	0.65909743
74	0xbf11ada4	-0.5690558
75	0xbf382bd4	-0.71941876
76	0xbf16080b	-0.5860602
77	0x3eca9e1c	0.39573753
78	0x3da74bee	0.08168779
79	0xbf10c307	-0.5654759
80	0xbe8183d3	-0.25295886
81	0x3e3859da	0.18003026
82	0x3cbd7c01	0.023130419
83	0xbe970265	-0.29494014
84	0x3d0391fb	0.03212164
85	0xbd703005	-0.058639545
86	0x3f1e90dc	0.6193979
87	0xbf245f82	-0.64208233
88	0xbed3274d	-0.41240922
89	0x3ee5e498	0.44900966
90	0xbf1fcc90	-0.6242151
91	0xbe8e6549	-0.2781165
92	0xbeeb5e84	-0.45970547
93	0x3e5f59fa	0.21811667
94	0xbc77c158	-0.01512178
95	0xbd046083	-0.032318603
96	0xbe49f162	-0.19720986
97	0x3f075ca9	0.52875763
98	0x3e9f4f69	0.31115273
99	0xbf1665df	-0.5874919
100	0xbf034cd0	-0.5128908
101	0x3d785533	0.060628127
102	0x3f080c2c	0.5314357
103	0xbef76254	-0.48317206
104	0xbe9dc671	-0.3081546
105	0x3e86bc7a	0.2631567
106	0xbea71b25	-0.32637897
107	0xbdabbeb0	-0.0838598
108	0xbf149585	-0.5804065
109	0x3d4a4710	0.049384177
110	0x3e95c8c7	0.29254743
111	0xbefba2bb	-0.4914759
112	0xbf4542b1	-0.7705489
113	0x3f016d45	0.5055736
114	0xbf2621d0	-0.64895344
115	0xbdf75ae8	-0.12077886
116	0xbf332852	-0.699834
117	0xbcb274f6	-0.021784287
118	0x3e701c07	0.23448192
119	0xbf176ea2	-0.5915319
120	0x3e3be68c	0.18349665
121	0x3d86f77b	0.06590172
122	0x3d507715	0.050894815
123	0xbe35adca	-0.17742077
124	0xbdf18018	-0.1179201
125	0xbe0565b5	-0.1302708
126	0xbd9a5d16	-0.07537286
127	0xbed47337	-0.41494152
128	0xbea1a71d	-0.3157281
129	0xbe5546fd	-0.20827861
130	0xbee0f736	-0.43938607
131	0xbe39df8e	-0.18151686
132	0x3e4d3b61	0.20042183
133	0x3e2aeaf9	0.16691197
134	0xbeb8df2e	-0.36107773
135	0x3e67c00d	0.22631855
136	0xbe7da811	-0.24771143
137	0xbec4fa2e	-0.38472122
138	0xbea7cf5c	-0.3277539
139	0xbd5b54a7	-0.053547528
140	0xbdd7f55c	-0.105448455
141	0x3e334068	0.17505038
142	0x3c90017d	0.017578835
143	0x3e7d42b9	0.24732484
144	0x3ea8c6c9	0.3296416
145	0xbe2b7fa6	-0.16747913
146	0xbcb194d3	-0.02167741
147	0x3db60e74	0.088894755
148	0x3f0bb9cc	0.5458038
149	0xbe0527e9	-0.13003506
150	0xbe6177fe	-0.2201843
151	0xbc32d800	-0.010915756
152	0xbddd5345	-0.10806898
153	0x3e8dfb5e	0.2773084
154	0x3ea558e9	0.32294396
155	0x3d2bba30	0.04192561
156	0xbd34418f	-0.044007834
157	0x3e7bbbcc	0.24583358
158	0x3e148782	0.14504817
159	0x3ef0bc63	0.47018728
160	0xbe2dd8dd	-0.16977258
161	0xbf009d11	-0.50239664
162	0xbdbf74cb	-0.09348448
163	0x3ebc9b8d	0.36837426
164	0x3dac774e	0.08421193
165	0x3d713958	0.058892578
166	0xbe55a125	-0.20862253
167	0x3f049dab	0.5180308
168	0x3ccec4de	0.025240358
169	0xbebb9d50	-0.36643457
170	0xbe23e07e	-0.16003606
171	0xbda31b49	-0.079641886
172	0xbe98c890	-0.29840517
173	0xbec3463a	-0.38139516
174	0xbce6f428	-0.028192595
175	0x3e84dc33	0.2594925
176	0xbe06ca96	-0.13163218
177	0x3e8b32e0	0.27187252
178	0xbe90fb81	-0.28316882
179	0xbedbbfbc	-0.4291972
180	0xbe92150c	-0.28531682
181	0xbe033374	-0.12812597
182	0xbde0f070	-0.1098336
183	0xbeb04c2d	-0.34433118
184	0xbea218d9	-0.31659582
185	0xbf107f3c	-0.56444144
186	0x3e1411a2	0.14459851
187	0x3e22c1e6	0.15894279
188	0x3e67473c	0.22585768
189	0xbed9a715	-0.42510286
190	0xbe801cff	-0.25022122
191	0x3e490698	0.19631422

bias_ih_l0 f4 [24]
0	0x3cc9ac06	0.02461816
1	0xbe3849d6	-0.17996916
2	0x3ec60276	0.38673753
3	0x3f15ffba	0.5859333
4	0x3cc55ff4	0.024093606
5	0x3e66a5be	0.22524163
6	0x3e9e22ca	0.30885917
7	0x3f018ccc	0.50605464
8	0xbf0449ee	-0.5167531
9	0xbf0f3a4c	-0.5594833
10	0xbe60be11	-0.21947505
11	0xbf288685	-0.6583026
12	0xbcf622a0	-0.030045807
13	0xbec6947d	-0.38785163
14	0xbf1a9774	-0.6038735
15	0xbe9f341a	-0.31094438
16	0x3dd39df1	0.10332859
17	0xbdb6c153	-0.089235924
18	0xbda8f084	-0.08249
19	0x3ed6e77c	0.41973484
20	0x3e6bdb5a	0.23032895
21	0xbdc3ca0c	-0.09560022
22	0xbea775e9	-0.32707146
23	0x3eca4f52	0.39513642

bias_hh_l0 f4 [24]
0	0xbe51c051	-0.20483519
1	0xbdebad94	-0.11507717
2	0x3dedd403	0.11612704
3	0x3dff85fc	0.12476727
4	0x3e999048	0.2999289
5	0x3ebae89f	0.365056
6	0x3efbeb82	0.49203116
7	0x3ee0a43c	0.438753
8	0xbeebc585	-0.46049133
9	0xba88cf80	-0.0010437816
10	0xbe947082	-0.28992087
11	0xbdfcd702	-0.12345697
12	0xbee6c60d	-0.45072976
13	0xbe1cff44	-0.15331751
14	0xbeef975d	-0.4679517
15	0xbec0095e	-0.37507147
16	0x3deac064	0.11462477
17	0xbea92034	-0.33032382
18	0x3e7328cd	0.23746033
19	0x3f047696	0.5174345
20	0x3dd5b347	0.10434585
21	0xbea74695	-0.32671037
22	0xbf0aef8c	-0.5427177
23	0x3eddf415	0.43350282

weight_ih_l1 f4 [24, 8]
0	0x3cb61923	0.022228783
1	0xbf088fc0	-0.53344345
2	0x3ba8baf0	0.005149238
3	0x3da3da96	0.08000676
4	0xbe97fb79	-0.29684046
5	0xbe41242a	-0.18861452
6	0x3e88f5dc	0.26750076
7	0xbd23e6d0	-0.04001504
8	0x3ed298fc	0.41132343
9	0x3f182fd3	0.59447974
10	0xbe46cbd9	-0.19413699
11	0xbecae9bd	-0.39631453
12	0x3ea0202e	0.3127455
13	0x3e37824b	0.17920797
14	0x3e98ee08	0.29869103
15	0xbc69d855	-0.014272769
16	0xbe8f3d8b	-0.2797664
17	0xbe915ff0	-0.28393507
18	0x3da8f23d	0.08249328
19	0xbd67cca5	-0.05659165
20	0xbee54924	-0.44782364
21	0xbe888767	-0.26665804
22	0xbe0faf9d	-0.14031835
23	0x3d6e76f0	0.058218896
24	0x3dc5b5a7	0.09653788
25	0x3e9dca30	0.3081832
26	0xbed22bbf	-0.41049
27	0x3e36ab25	0.17838724
28	0x3f04ca65	0.5187133
29	0x3d241fd0	0.0400694
30	0x3e8fd821	0.2809458
31	0x3ddaec42	0.10689594
32	0x3e8abe0e	0.27098125
33	0xbe929db9	-0.28635958
34	0x3ebb709d	0.36609355
35	0x3eb72205	0.35768142
36	0xbe7f801f	-0.24951218
37	0xbecdb6cc	-0.40178525
38	0xbedb7274	-0.42860758
39	0x3d352351	0.044223133
40	0x3ec4668f	0.38359496
41	0xbd23cf65	-0.03999271
42	0xbee33968	-0.44379735
43	0xbcd15438	-0.025552854
44	0x3f05508c	0.5207603
45	0x3e10f16f	0.141546
46	0xbd9e2dca	-0.07723577
47	0xbe645916	-0.22299609
48	0xbe7caa65	-0.24674375
49	0xbe741cf9	-0.23839177
50	0xbdfa372b	-0.12217554
51	0xbe0b5261	-0.13605644
52	0xbea1f4bf	-0.3163204
53	0xbed76a87	-0.4207346
54	0x3c93ac3d	0.018026466
55	0xbe376476	-0.17909417
56	0x3e421d7c	0.1895656
57	0xbebb0efb	-0.36534867
58	0x3e965b9f	0.29366776
59	0xbe144093	-0.14477758
60	0xbf1ac47a	-0.6045605
61	0xbe88c468	-0.26712346
62	0xbde60e11	-0.11233152
63	0xbec2c3b1	-0.38039926
64	0x3d11b160	0.03556955
65	0xbbf09e95	-0.007343123
66	0x3e996ead	0.2996725
67	0xbe123c87	-0.14280902
68	0xbe041c51	-0.12901427
69	0x3d8837e0	0.06651282
70	0x3e45d658	0.19320047
71	0xbed8eb86	-0.4236719
72	0xbeb0d579	-0.34537867
73	0x3e8e3c2c	0.27780282
74	0xbdf9e507	-0.122018866
75	0xbf32a601	-0.6978455
76	0xbd43897f	-0.04773855
77	0xbdc092f2	-0.094030276
78	0x3f379df7	0.7172541
79	0xbf07000e	-0.5273446
80	0xbb97a059	-0.004627269
81	0x3ca412ce	0.020028498
82	0xbe2a4bf3	-0.16630535
83	0xbe4ee939	-0.20206155
84	0xbe6198dc	-0.22030967
85	0xbe0c5d54	-0.13707477
86	0x3b247220	0.0025092438
87	0xbebc5e8c	-0.36790884
88	0xbec4de63	-0.38450918
89	0x3f310fd2	0.69164765
90	0xbe9d8e80	-0.3077278
91	0xbf215ba5	-0.63030463
92	0xbe2863b1	-0.16444279
93	0x3ef47c86	0.47751254
94	0x3ecf69dd	0.40510455
95	0xbcb63ebb	-0.02224671
96	0xbd834364	-0.06409338
97	0xbe239d4b	-0.15977971
98	0xbe86a478	-0.26297355
99	0xbcb98afd	-0.022649283
100	0xbf056de6	-0.52120817
101	0xbe9b1801	-0.3029175
102	0xbe36c659	-0.17849101
103	0xbea1d7fe	-0.316101
104	0xbf0963c1	-0.5366784
105	0x3f192f15	0.59837466
106	0xbea731a8	-0.32655072
107	0xbf2b6c31	-0.6696196
108	0xbea3001e	-0.31836027
109	0x3f0e6768	0.55626535
110	0x3f12703c	0.57202506
111	0xbef1c03e	-0.47216982
112	0xbb14107d	-0.0022592836
113	0x3cfa57a5	0.03055937
114	0xbec251dc	-0.3795308
115	0xbecbf991	-0.39838842
116	0xbefc8923	-0.49323377
117	0xbe387542	-0.1801348
118	0x3f01965d	0.5062006
119	0xbefaeefc	-0.49010456
120	0xbec47222	-0.38368326
121	0x3f2b9f88	0.670403
122	0xbda125c9	-0.07868535
123	0xbdc3336f	-0.095312946
124	0xba0deb0c	-0.0005413748
125	0x3d1ae258	0.037813514
126	0x3ef95c86	0.48703402
127	0xbef9d165	-0.48792568
128	0xbebb1e27	-0.36546442
129	0xbe32a1e0	-0.17444563
130	0xbdf1b51c	-0.11802122
131	0x3e68da4e	0.22739527
132	0xbed46e0d	-0.41490212
133	0xbe43cc22	-0.19120839
134	0x3e8b5561	0.27213576
135	0x3de9a567	0.11408501
136	0xbd3df107	-0.04637244
137	0xbd4f20e4	-0.050568476
138	0xbca850d2	-0.02054635
139	0x3f02cd06	0.5109409
140	0xbe15dabd	-0.14634223
141	0xbe8308c1	-0.25592616
142	0xbefa5bd9	-0.488982
143	0x3d060db1	0.0327279
144	0x3ca36dfd	0.019949907
145	0xbe95d064	-0.29260552
146	0x3eec7a8f	0.46187255
147	0x3c4e046e	0.012574298
148	0x3e6ff4ac	0.23433179
149	0xbf0165f5	-0.505462
150	0xbeeb911b	-0.46009144
151	0xbea7157b	-0.32633576
152	0xbf03e10e	-0.5151528
153	0xbe5cdd61	-0.21568824
154	0xbe693bfa	-0.22776785
155	0xbe2c39d6	-0.16818938
156	0x3d0262bd	0.031832445
157	0xbe15700c	-0.14593524
158	0x3e0d02b3	0.13770561
159	0xbef15471	-0.47134736
160	0x3c85ca13	0.016331708
161	0xbe824434	-0.2544266
162	0xbe40d911	-0.18832804
163	0xbe1a5622	-0.1507192
164	0xbec48028	-0.38379025
165	0x3ed08468	0.40726018
166	0x3b97be0a	0.0046308087
167	0xbe81da53	-0.2536188
168	0xbdb1ef28	-0.086881936
169	0x3c656902	0.014002087
170	0x3e19a44c	0.1500408
171	0x3eb04bd3	0.3443285
172	0xbf0795cf	-0.52962965
173	0xbdda35fa	-0.106548265
174	0xbedb297e	-0.42805094
175	0x3e0c238c	0.13685435
176	0x3e1f5d24	0.15562874
177	0xbebcb687	-0.36858007
178	0xbe8429fc	-0.25813282
179	0x3eaf9e64	0.3430053
180	0xbee10072	-0.43945652
181	0xbf1880e6	-0.59571683
182	0xbed04797	-0.4067962
183	0xbd9affd9	-0.0756833
184	0xbe0a63da	-0.13514653
185	0xbf029bd3	-0.5101902
186	0x3dee0a99	0.11623115
187	0xbe539834	-0.2066353
188	0xbeb485be	-0.35258287
189	0xbeb0c319	-0.34523848
190	0x3c9802fe	0.018556114
191	0xbc11c309	-0.008896598

weight_hh_l1 f4 [24, 8]
0	0x3e7060ec	0.23474473
1	0x3dceffe7	0.10107403
2	0xbead61f0	-0.33863783
3	0x3cb3c009	0.021942155
4	0xbea00e13	-0.31260738
5	0xbe2eb131	-0.1705978
6	0x3e001c89	0.12510885
7	0x3d1eb79c	0.038749322
8	0x3ed08da8	0.40733075
9	0x3e8ee17e	0.27906412
10	0xbe8e0c13	-0.27743587
11	0x3ec20fe1	0.3790274
12	0x3ed8b2e4	0.42323983
13	0x3e67114b	0.2256519
14	0x3e560c10	0.20903039
15	0x3e86d24e	0.26332325
16	0x3dacf549	0.08445222
17	0xbe2dd857	-0.16977058
18	0x3ed04f96	0.4068572
19	0xbe5e5a71	-0.21714188
20	0xbd493d12	-0.049130507
21	0x3e70cf02	0.23516467
22	0xbe0fe335	-0.14051516
23	0x3d2df1c5	0.042466898
24	0x3d3fcef6	0.046828233
25	0x3e04103c	0.12896818
26	0x3dffbb37	0.1248688
27	0xbe5a6303	-0.21326832
28	0x3e8b1f93	0.27172527
29	0x3e13ea45	0.14444835
30	0xbe13f616	-0.14449343
31	0x3d7b0ecd	0.061293412
32	0xbefaeb1f	-0.49007508
33	0xbe201362	-0.15632394
34	0x3ea36387	0.3191187
35	0xbec7eccc	-0.3904785
36	0xbec414cf	-0.38297126
37	0x3d9ee272	0.07758035
38	0xbe48d9bf	-0.19614314
39	0xbeadce94	-0.3394667
40	0x3d5ee9bb	0.05442212
41	0xbe0f3292	-0.13984135
42	0xbd7afc3f	-0.061275717
43	0x3da22472	0.07917108
44	0x3b8263e5	0.0039791935
45	0x3e2b309c	0.16717762
46	0xbe6494d7	-0.22322403
47	0xbd85a295	-0.06525151
48	0x3d87a30f	0.06622898
49	0xbedbaf92	-0.42907387
50	0x3da60fbe	0.08108471
51	0xbea603ca	-0.32424766
52	0x3e44fc37	0.19236837
53	0xbe682373	-0.22669773
54	0xbe96c6df	-0.29448602
55	0x3c9553fc	0.018228523
56	0xbec47155	-0.38367715
57	0x3e298e17	0.16558109
58	0xbd605c44	-0.05477549
59	0x3e2244f1	0.15846612
60	0xbe19ae86	-0.15007982
61	0xbdf71e8c	-0.12066373
62	0xbe3323bf	-0.17494105
63	0xbe62bf72	-0.22143343
64	0xbd43ebfb	-0.04783247
65	0x3dcd3b7e	0.10021113
66	0xbf01a4ea	-0.50642264
67	0x3e2f6652	0.17128876
68	0x3ef65039	0.4810808
69	0xbe102313	-0.1407588
70	0x3cef4634	0.02920828
71	0xbd992eb0	-0.07479608
72	0x3f06d861	0.5267392
73	0xbdaa826f	-0.083256595
74	0xbe78401f	-0.2424321
75	0x3ad7692b	0.0016434541
76	0x3c9f9467	0.019479943
77	0x3e82a32f	0.25515124
78	0xbf16db16	-0.5892805
79	0x3ed9b344	0.4251958
80	0x3e9ae015	0.30249086
81	0xbd6fd2e2	-0.058550723
82	0xbef9566f	-0.48698756
83	0x3f18d919	0.59706265
84	0x3f31a102	0.69386303
85	0x3e618864	0.22024685
86	0xbf17447c	-0.59088874
87	0x3ee3962c	0.4445051
88	0xbdefce1e	-0.117092356
89	0xbec2650e	-0.37967724
90	0xbd5d98ff	-0.054100987
91	0x3a38ddbd	0.00070520845
92	0x3e8b6f5c	0.27233398
93	0xbde660f2	-0.112489596
94	0xbdad5666	-0.08463745
95	0xbdeca237	-0.115543775
96	0x3e7696c4	0.2408095
97	0xbd297a85	-0.04137661
98	0xbf03dcf4	-0.5150902
99	0x3f008c18	0.50213766
100	0x3ed3a337	0.4133546
101	0x3eed14e2	0.46304995
102	0xbe80add5	-0.25132623
103	0x3edd0516	0.43167943
104	0x3f111aca	0.566815
105	0xbeba93a5	-0.3644077
106	0xbdcf514d	-0.10122929
107	0x3ef91a5e	0.4865293
108	0x3e537027	0.20648251
109	0xbd6db351	-0.058032338
110	0xbe323e3e	-0.17406556
111	0x3f0d2d3e	0.5514716
112	0x3f24a8bd	0.64319974
113	0xbe512bd6	-0.20426878
114	0xbe9d4951	-0.30719998
115	0x3e2f2040	0.17102146
116	0x3e0202fe	0.12696454
117	0x3f22aa18	0.6354079
118	0xbe1384b5	-0.14406092
119	0x3a47f801	0.0007628203
120	0x3f0f7f82	0.56053936
121	0xbef7c35b	-0.48391232
122	0xbe5fadde	-0.21843669
123	0x3dbb3770	0.09141433
124	0x3ee99a2c	0.45625436
125	0x3cf4a867	0.029865457
126	0xbef17460	-0.471591
127	0x3de13f95	0.109984554
128	0x3e132748	0.14370453
129	0xbec13536	-0.3773591
130	0xbd7cab6e	-0.061686926
131	0xbe869343	-0.26284227
132	0xbe5172bd	-0.20453925
133	0xbeaa1112	-0.3321615
134	0x3e4f6379	0.2025279
135	0x3ded227f	0.11578845
136	0x3e8b2e35	0.2718369
137	0xbe17904a	-0.14801136
138	0x3c7593e4	0.014988873
139	0x3d23052e	0.03979986
140	0x3e3b0cde	0.18266627
141	0x3e51e4a1	0.20497371
142	0xbe8d4052	-0.27588135
143	0x3e2d860c	0.16945666
144	0xbdf8df9b	-0.12152024
145	0x3e86d24f	0.26332328
146	0x3e70cb5f	0.2351508
147	0xbc8ba2c9	-0.017045395
148	0x3de9157e	0.113810524
149	0xbd98898d	-0.07448111
150	0x3e7d6656	0.2474607
151	0xbe44558f	-0.19173263
152	0xbe672548	-0.22572815
153	0xbec979fb	-0.39350876
154	0xbdd799fa	-0.105274156
155	0xbd968ae2	-0.073507085
156	0x3ce6d4f7	0.028177721
157	0xbde499a2	-0.11162116
158	0x3c2a6d3f	0.010402023
159	0x3e887721	0.26653388
160	0x3e882e9d	0.26598063
161	0xbe060bab	-0.13090388
162	0xbea2cb59	-0.31795767
163	0x3dc731e9	0.097263165
164	0x3eb7b021	0.35876563
165	0x3d1cdb62	0.038295157
166	0x3c742f43	0.014903846
167	0x3d5092c1	0.050921205
168	0x3e83119a	0.25599366
169	0x3c90b280	0.01766324
170	0xbe084359	-0.13306941
171	0xbdb21c9a	-0.086968616
172	0x3df30621	0.11866403
173	0xbe4d86f7	-0.20071016
174	0xbe8ba80a	-0.2727664
175	0x3d66a85a	0.056312896
176	0x3e64d1db	0.22345679
177	0x3e0fd207	0.14044963
178	0x3ebdb07c	0.3704871
179	0x3d07200b	0.032989543
180	0xbeca0824	-0.39459336
181	0xbcb5db82	-0.022199396
182	0x3e858e5d	0.26085177
183	0xbeae5850	-0.34051752
184	0x3e86df82	0.26342398
185	0x3df3be47	0.11901527
186	0x3eb7b78b	0.3588222
187	0x3e50d7fc	0.20394892
188	0x3e9bfae1	0.30464843
189	0x3e8766db	0.2644566
190	0x3eaa0a16	0.3321082
191	0xbeaf2e45	-0.34214988

bias_ih_l1 f4 [24]
0	0x3e82f197	0.25574943
1	0x3dd0d858	0.10197514
2	0x3e64ead7	0.2235521
3	0xbeafcf6b	-0.34337935
4	0xbdd5416d	-0.104128696
5	0x3e31a059	0.17346324
6	0x3d178472	0.036991544
7	0xbe435944	-0.19077021
8	0xbd0c86ae	-0.034308128
9	0xbeeb5c11	-0.4596868
10	0xbd9af01f	-0.07565331
11	0xbe65af20	-0.22430086
12	0x3b7079dd	0.003669373
13	0xbd91b85b	-0.07115241
14	0xbec23457	-0.37930557
15	0xbed13a51	-0.40864804
16	0xbe6235d4	-0.22090846
17	0x3e41bc3d	0.18919463
18	0x3dbe0a94	0.09279361
19	0xbd59256b	-0.0530142
20	0x3cfe761f	0.031062184
21	0xbe15a575	-0.14613898
22	0x3e340522	0.17580083
23	0xbec15f49	-0.3776801

bias_hh_l1 f4 [24]
0	0xbd585c04	-0.052822128
1	0x3e5aa183	0.21350674
2	0x3ed58598	0.41703486
3	0xbdbc7f67	-0.092039876
4	0xbe2c1ea2	-0.1680856
5	0x3e153a5a	0.1457304
6	0xbe6f6da9	-0.23381676
7	0xbd136717	-0.035986986
8	0xbe0e4c54	-0.13896304
9	0xbd9605a4	-0.073252946
10	0xbe1f19e4	-0.1553722
11	0xbe0a8875	-0.13528617
12	0xbec8d79c	-0.39226997
13	0xbf10dd08	-0.56587267
14	0xbed6eda8	-0.41978192
15	0xbe6c6d94	-0.23088676
16	0xbad1adc8	-0.0015997225
17	0xbdef3f49	-0.116819926
18	0x3ec2364a	0.37932044
19	0xbd70cc3b	-0.05878852
20	0xbef3c0e1	-0.47608092
21	0xbe0bdf32	-0.13659361
22	0x3e7b57d6	0.24545226
23	0x3e86e223	0.26344404

weight_ih_l2 f4 [24, 8]
0	0xbef27888	-0.47357583
1	0xbe406821	-0.18789722
2	0x3e801f69	0.25023964
3	0xbe889d79	-0.26682642
4	0xbeb5ef82	-0.35534292
5	0xbf081f3c	-0.5317266
6	0xbec3cfbf	-0.38244435
7	0xbf1c8643	-0.6114237
8	0x3e9c62d5	0.30544153
9	0x3ec37577	0.38175556
10	0x3e996064	0.29956353
11	0x3e0ed768	0.13949358
12	0xbe975788	-0.2955897
13	0xbd98b01f	-0.074554674
14	0x3ebd81cb	0.37013087
15	0xbd08ca44	-0.03339602
16	0x3d9143ca	0.07093008
17	0x3e46697a	0.19376174
18	0xbe89f30c	-0.26943243
19	0x3edee4eb	0.43534026
20	0x3bb9d625	0.00567128
21	0x3efe725f	0.49696633
22	0x3e804ec2	0.25060087
23	0x3ea40875	0.32037702
24	0x3c9fefca	0.01952352
25	0x3ec04fe9	0.37560967
26	0x3e52ad85	0.20574005
27	0x3e9f4ad5	0.3111178
28	0xbde55d28	-0.11199409
29	0x3eb39587	0.35075018
30	0x3ec06b42	0.3758183
31	0x3d302a58	0.043009132
32	0x3be96d7a	0.0071236463
33	0xbe6d34fe	-0.23164746
34	0xbe935e26	-0.28782767
35	0x3d163138	0.036668032
36	0xbdaaf954	-0.08348337
37	0xbe0225c9	-0.12709726
38	0x3be716c2	0.0070522735
39	0x3e985f6d	0.29760304
40	0xbc3cdd4e	-0.0115273725
41	0x3edcb939	0.43110064
42	0xbdd3ef1b	-0.1034834
43	0x3e601505	0.21883018
44	0xbe8e94f5	-0.2784802
45	0x3e313b1e	0.17307708
46	0x3e0cbfbf	0.1374502
47	0x3ec7ff8d	0.39062157
48	0xbe28f21b	-0.16498606
49	0xbe48326b	-0.19550483
50	0x3e4339e8	0.19065058
51	0xbebb5102	-0.36585242
52	0x3e285dac	0.16441983
53	0xbebcbb92	-0.36861855
54	0xbe66bcdf	-0.22532986
55	0xbcbf35b7	-0.023341043
56	0xbe797460	-0.243608
57	0xbe6ac6b6	-0.22927365
58	0x3e75cd63	0.2400413
59	0xbec2705e	-0.37976354
60	0x3d30c61b	0.043157678
61	0x3d325f96	0.04354819
62	0x3ced8497	0.028993888
63	0xbeabd40a	-0.3356021
64	0x3cbca2ed	0.023026908
65	0xbe634fa0	-0.22198343
66	0xbf18558f	-0.5950555
67	0x3ec3f512	0.3827291
68	0x3ddc48f2	0.10756101
69	0x3d35e8c0	0.04441142
70	0xbed3d48b	-0.41373095
71	0xbe80ce62	-0.25157458
72	0x3eeb7f7a	0.45995694
73	0xbea56903	-0.3230668
74	0xbeef2b77	-0.4671285
75	0x3e8fab48	0.28060365
76	0x3f092592	0.5357295
77	0x3e3197e6	0.17343101
78	0xbeb2207a	-0.34790403
79	0x3efe7562	0.4969893
80	0x3eddb26b	0.43300185
81	0x3d062a91	0.03275544
82	0xbec33fae	-0.3813452
83	0x3eeafdab	0.45896658
84	0x3f042fce	0.51635444
85	0xbdbf82af	-0.09351098
86	0xbdbe5e75	-0.0929536
87	0x3e9ace6c	0.30235612
88	0x3f24fd41	0.64448935
89	0xbe1b48a3	-0.15164427
90	0xbf188aed	-0.59586984
91	0x3e4ff24a	0.2030727
92	0x3defda5a	0.11711569
93	0xbc28c19a	-0.010300064
94	0xbe45c414	-0.19313079
95	0x3f1cf74c	0.61314845
96	0x3e8cbd33	0.27488098
97	0xbec23249	-0.3792899
98	0x3c6e8bc9	0.014559695
99	0x3f14fddb	0.5819985
100	0x3eb95c0f	0.36203048
101	0x3da2e18c	0.07953176
102	0x3da9b80e	0.08287059
103	0x3c9b92c9	0.018990891
104	0x3ef0188e	0.46893734
105	0xbb979161	-0.004625485
106	0xbef548da	-0.47907144
107	0x3f1771ba	0.5915791
108	0x3f178f86	0.59203374
109	0x3dad60f1	0.08465756
110	0xbe8ad2a5	-0.27113834
111	0x3f0e4813	0.55578727
112	0x3e35bc03	0.17747502
113	0xbf18edfe	-0.5973815
114	0xbdb4ce71	-0.08828438
115	0x3e5268f5	0.2054785
116	0x3dcea530	0.10090101
117	0xbd703477	-0.058643784
118	0xbe9a4253	-0.30128726
119	0xbd922844	-0.07136586
120	0x3dba83f2	0.09107198
121	0xbf019095	-0.5061124
122	0xbf1f79f1	-0.6229544
123	0x3ee60e65	0.44932857
124	0x3e923b5d	0.28560916
125	0x3f27088d	0.6524742
126	0xbf0640df	-0.52442735
127	0x3ec34e72	0.38145787
128	0xbeacabd4	-0.33724844
129	0xbec75011	-0.38928273
130	0x3e31db43	0.17368798
131	0xbe6d8e77	-0.23198877
132	0xbeb95ad0	-0.36202097
133	0xbe94e8fb	-0.29084
134	0x3cd3943c	0.02582752
135	0xbd76105d	-0.0600742
136	0xbee76976	-0.45197648
137	0x3c16b1e6	0.009197688
138	0x3edd9b3e	0.43282503
139	0x3d848c9e	0.06472133
140	0xbe0ba315	-0.1363643
141	0xbf276d18	-0.6540084
142	0x3e86961f	0.26286408
143	0xbe666726	-0.22500286
144	0x3e98a4b0	0.29813147
145	0x3e3c8e3e	0.18413636
146	0x3e0e24a2	0.13881162
147	0x3e4d77f9	0.20065297
148	0xbdefbd4c	-0.117060274
149	0x3ebea307	0.37233755
150	0x3daa9080	0.083283424
151	0x3e7d9df5	0.24767287
152	0xbda05d7a	-0.07830329
153	0xbda37b3b	-0.07982489
154	0xbefadca6	-0.48996466
155	0x3e0cc43e	0.13746735
156	0xbe3423f7	-0.17591844
157	0xbf140048	-0.5781293
158	0xbee93cd3	-0.45554218
159	0xbe90e461	-0.2829924
160	0xbea4d8de	-0.32196707
161	0xbc4630ec	-0.012096625
162	0xbe3e3f14	-0.1857875
163	0xbed2c719	-0.41167524
164	0x3da5a76c	0.08088574
165	0xbee3a2d1	-0.44460157
166	0xbdbda00d	-0.09259043
167	0xbecfeb13	-0.40609035
168	0xbeccd537	-0.4000642
169	0xbee47f31	-0.4462829
170	0xbece203e	-0.40258974
171	0xbc30fbde	-0.010802237
172	0x3e95381a	0.29144365
173	0xbcae6d43	-0.021292334
174	0xbeca0a94	-0.39461195
175	0xbdff186c	-0.1245583
176	0xbeee327d	-0.46522895
177	0xbd293a88	-0.041315585
178	0xbdbe845a	-0.09302588
179	0xbedfe922	-0.43732554
180	0x3e6abd31	0.22923733
181	0xbe5fbb4c	-0.21848792
182	0xbe27ead7	-0.16398178
183	0xbe397027	-0.18109189
184	0x3daeb2cf	0.08530199
185	0x3ea38ec0	0.31944847
186	0xbdc98163	-0.09839132
187	0x3ee9a33d	0.45632353
188	0x3ec19c6f	0.37814662
189	0x3edcf786	0.43157595
190	0xbc692886	-0.014230853
191	0x3e2507c2	0.1611624

weight_hh_l2 f4 [24, 8]
0	0xbe39d38a	-0.18147102
1	0x3e84cf6a	0.25939494
2	0x3cf7063e	0.030154344
3	0x3c63877d	0.013887283
4	0xbe6d24a1	-0.23158504
5	0x3e4b3ca0	0.19847345
6	0x3e888a0e	0.26667827
7	0xbed4c2ef	-0.41554973
8	0xb9b46646	-0.00034408475
9	0x3e86d73e	0.26336092
10	0xbe11c2f8	-0.14234531
11	0xbed3a550	-0.4133706
12	0x3c89c37f	0.016816853
13	0x3e36a7a0	0.17837381
14	0x3e3113dc	0.17292732
15	0x3d8e05a3	0.06934669
16	0xbda98124	-0.08276585
17	0xbdbe10dc	-0.092805594
18	0xbee7899d	-0.45222178
19	0x3b6eeeaf	0.0036458184
20	0xbe29fbd7	-0.16599976
21	0xbe1a1e1e	-0.15050551
22	0x3e19b2e8	0.15009654
23	0x3cb9b1c8	0.02266778
24	0xbe153e60	-0.14574575
25	0xbe52bc75	-0.20579703
26	0xbee109d4	-0.4395281
27	0x3d8da2fd	0.06915853
28	0xbe1b34ab	-0.1515681
29	0xbea41fd3	-0.3205553
30	0x3e95f434	0.29287875
31	0xbd824ed5	-0.06362692
32	0x3db4402c	0.08801302
33	0xbe9c96b5	-0.3058373
34	0x3e5c3928	0.21506178
35	0xbd4f633a	-0.05063174
36	0x3e180f61	0.14849617
37	0x3d93cae6	0.07216434
38	0xbe35955d	-0.17732759
39	0xbea06d8f	-0.31333587
40	0xbd50934b	-0.05092172
41	0x3e2bbd3d	0.16771407
42	0x3d4833ec	0.04887764
43	0xbdcb9c68	-0.099419415
44	0xbe85c6ee	-0.26128334
45	0x3e8d8b31	0.27645257
46	0x3ecbbda8	0.39793134
47	0xbe6a01e4	-0.22852284
48	0x3c43952f	0.011937424
49	0x3dbd9319	0.09256572
50	0xbea48f3d	-0.32140532
51	0x3e5b6822	0.21426442
52	0x3d9c6304	0.07636073
53	0x3e940688	0.28911233
54	0x3e07b401	0.1325226
55	0xbdc8871a	-0.097913936
56	0x3e7533bc	0.23945516
57	0x3e41880c	0.18899554
58	0xbe5ba8f2	-0.21451166
59	0xbe8c7019	-0.27429274
60	0xbdaf3c2e	-0.085564
61	0x3d5e72b3	0.054308604
62	0x3ec6199f	0.38691422
63	0xbe9082b8	-0.2822473
64	0xbe86cee0	-0.26329708
65	0xbe17c373	-0.14820652
66	0xbeeaf1d7	-0.45887634
67	0x3e5fa079	0.21838559
68	0x3cf8a420	0.030351698
69	0x3e455aa2	0.19272855
70	0x3da3553e	0.07975243
71	0x3f0b7470	0.54474545
72	0x3cdb5fbb	0.026779046
73	0xbe671be1	-0.22569229
74	0xbe8edc7b	-0.27902588
75	0x3e1407a7	0.14456044
76	0x3f4547f1	0.770629
77	0x3ec1828d	0.37794915
78	0xbebb38c9	-0.3656676
79	0xbd70b7b3	-0.05876894
80	0xbe17efc0	-0.14837551
81	0xbf167837	-0.58777183
82	0xbdd76ed4	-0.10519186
83	0x3f116e79	0.5680919
84	0x3c44d9c9	0.012014815
85	0x3e9dfd2f	0.30857226
86	0xbcd6e24b	-0.026230952
87	0xbcc45907	-0.023968233
88	0xbf06a288	-0.52591753
89	0xbe80abae	-0.2513098
90	0x3d9c521a	0.07632847
91	0x3f3ef474	0.74591756
92	0xbec92686	-0.39287204
93	0x3f0e99b9	0.5570331
94	0xbf00f3a2	-0.50371754
95	0x3e89ac4d	0.26889268
96	0xbf121140	-0.5705757
97	0xbeb0ee19	-0.34556654
98	0xbc28afd1	-0.010295824
99	0x3dc97d72	0.0983838
100	0x3ec9402d	0.39306775
101	0x3e5683a5	0.20948656
102	0xbe9c6af7	-0.30550358
103	0x3eb1120b	0.34584078
104	0xbd2d5eec	-0.042326853
105	0xbe01e771	-0.12685944
106	0x3effc678	0.49956107
107	0x3e893515	0.2679831
108	0xbe54756d	-0.2074792
109	0x3f23cd71	0.63985354
110	0xbf2749e5	-0.6534713
111	0x3f0bae28	0.54562616
112	0xbdd102b9	-0.102055974
113	0xbec779d1	-0.38960126
114	0x3e16b73b	0.14718334
115	0x3f12f00f	0.5739755
116	0x3dae9cbe	0.0852599
117	0x3e37161f	0.17879532
118	0x3dc410dd	0.09573529
119	0x3f10f22b	0.5661952
120	0xbf1307ba	-0.57433665
121	0xbf0fa4c5	-0.56110793
122	0xbe8bfa59	-0.27339438
123	0x3f157233	0.5837738
124	0x3edc4380	0.43020248
125	0x3efc9c76	0.4933812
126	0xbf418814	-0.75598264
127	0x3e434f7d	0.19073291
128	0xbdfa36dd	-0.122174956
129	0x3e4c3661	0.19942619
130	0xbdb0af7e	-0.086272225
131	0xbef2a79c	-0.473935
132	0x3e9b06a0	0.30278492
133	0xbea71230	-0.32631063
134	0x3edaaca5	0.42709842
135	0xbecd7b01	-0.40132907
136	0x3e435f60	0.19079351
137	0x3e8ebfdc	0.27880752
138	0xbe4f4f5f	-0.20245121
139	0xbdb1eba9	-0.08687527
140	0x3ebdab04	0.37044537
141	0xbd08dd61	-0.03341425
142	0x3e6e5aa5	0.23276766
143	0x3df699d9	0.12041063
144	0xbe439c3a	-0.19102564
145	0x3eb64107	0.35596487
146	0x3e7e943d	0.24861236
147	0xbd12ac0d	-0.03580861
148	0x3eae77c0	0.34075737
149	0xbec7fb0d	-0.39058724
150	0xbe10798b	-0.14108865
151	0xbe5d8ddd	-0.21636148
152	0xbed33c1e	-0.41256803
153	0xbea9b0f7	-0.33142826
154	0x3ed9d226	0.42543143
155	0xbe82ac9b	-0.25522313
156	0x3d2053f9	0.039142583
157	0xbddd7bd5	-0.10814635
158	0xbd53b69b	-0.051687818
159	0x3ec1b8a3	0.3783618
160	0x3dfed1d6	0.12442367
161	0xbe49b84b	-0.19699208
162	0xbaca448d	-0.0015431807
163	0xbe1ab515	-0.1510814
164	0xbbc4ffdd	-0.0060119466
165	0x3e333f6c	0.17504662
166	0x3e5cc9d1	0.21561362
167	0x3e986474	0.2976414
168	0xbde859c9	-0.1134525
169	0xbcf853ab	-0.030313333
170	0xbc55197a	-0.013006562
171	0x3dd79ed9	0.10528345
172	0x3e643b15	0.22288163
173	0x3d910b2b	0.07082208
174	0x3d212726	0.039343975
175	0xbe746562	-0.238668
176	0xbdf76df9	-0.120815225
177	0xbe4646fd	-0.19363017
178	0xbe07bf6a	-0.13256612
179	0xbe621899	-0.22079696
180	0x3d82c44c	0.06385097
181	0xbea60564	-0.32425988
182	0x3ec37f0f	0.38182876
183	0x3da625b0	0.08112657
184	0xbeb8da63	-0.36104116
185	0xbef4e08f	-0.47827575
186	0x3ed2e0d2	0.4118715
187	0x3e25ad96	0.16179499
188	0xbda3f4cc	-0.08005676
189	0xbcecbcfc	-0.028898709
190	0x3e420e7a	0.18950835
191	0x3e418c4d	0.18901177

bias_ih_l2 f4 [24]
0	0x3e761dda	0.24034825
1	0xbe74c6a8	-0.23903906
2	0x3e635d66	0.22203597
3	0xbde91f38	-0.11382908
4	0x3e858b7d	0.26082984
5	0x3dfe56c7	0.12418895
6	0xbdc3dc7f	-0.09563541
7	0xbdbdd078	-0.09268278
8	0xbf0dcd64	-0.55391526
9	0xbe2d1486	-0.1690236
10	0xbe9122c4	-0.28346837
11	0xbf117494	-0.5681851
12	0xbf0da931	-0.5533629
13	0x3d66ee02	0.056379326
14	0xbec75176	-0.38929337
15	0xbdc41be2	-0.09575631
16	0xbe454f73	-0.19268589
17	0x3ec157b8	0.37762237
18	0xbeb55c39	-0.35421923
19	0xbd29cabf	-0.04145312
20	0xbea64a1b	-0.32478413
21	0x3e2891e4	0.16461903
22	0x3e6d0410	0.23146081
23	0x3e05df52	0.13073471

bias_hh_l2 f4 [24]
0	0x3e02f5cf	0.12789081
1	0x3e87c76c	0.26519334
2	0xbe662a85	-0.22477157
3	0x3d4dfd5c	0.05029045
4	0x3d861970	0.065478206
5	0x3d50b317	0.050952043
6	0x3e15d153	0.14630632
7	0x3ec70a55	0.3887507
8	0xbe6853e6	-0.22688255
9	0xbf17fc83	-0.5936968
10	0xbe866cb4	-0.2625481
11	0xbe8820c8	-0.2658751
12	0x3dc5ffea	0.09667952
13	0x3ca14c90	0.019689828
14	0xbf0466bd	-0.51719266
15	0xbcb9e7c2	-0.022693519
16	0x3e7d2052	0.2471936
17	0xbddcd8df	-0.107835524
18	0x3e42f5e7	0.19039117
19	0xbdb3930b	-0.087682806
20	0x3e4fc8af	0.20291398
21	0xbeb5220b	-0.35377535
22	0x3ded7ed5	0.11596457
23	0xbead3a03	-0.33833322

weight_ih_l3 f4 [24, 8]
0	0xbc3380c2	-0.010955991
1	0x3eae9f7d	0.34106055
2	0x3e93a003	0.28833017
3	0xbecea37e	-0.4035911
4	0xbdd2a128	-0.10284644
5	0xbef20546	-0.47269648
6	0xbe4f08b2	-0.20218161
7	0xbed04c61	-0.40683272
8	0xbeaf41ac	-0.3422979
9	0x3dcc049c	0.09961817
10	0x3e8985db	0.26859936
11	0xbe3c350b	-0.1837961
12	0x3d10d8ee	0.03536313
13	0xbd709656	-0.05873712
14	0xbe94c700	-0.29058075
15	0x3e0d535e	0.13801333
16	0xbd57e2a3	-0.052706372
17	0x3de56963	0.112017415
18	0x3dd3079f	0.10304188
19	0xbe3e915e	-0.1861014
20	0xbdb0c0f1	-0.08630551
21	0xbe2c865c	-0.16848129
22	0xbe0d283e	-0.13784882
23	0xbe01d46d	-0.1267869
24	0x3d1ffa0c	0.039056823
25	0x3ea87293	0.32899913
26	0xbe5be6c5	-0.2147475
27	0x3ef748b4	0.48297656
28	0x3e80d446	0.25161952
29	0x3e1fdfa8	0.15612662
30	0x3e27a3bd	0.16371055
31	0xbe5e6006	-0.21716318
32	0xbd5d69a3	-0.05405582
33	0x3eab5a0b	0.33467135
34	0x3e42e494	0.19032508
35	0x3dad16a4	0.08451584
36	0xbe119a27	-0.1421896
37	0xbdb983a7	-0.09058314
38	0xbe9f4b51	-0.3111215
39	0xbebc16c9	-0.36736134
40	0x3e8744ca	0.2641967
41	0x3c901d0e	0.01759198
42	0xbe1b4f2d	-0.15166922
43	0xbed99d05	-0.4250261
44	0x3e1efcfb	0.15526192
45	0xbe5d0620	-0.21584368
46	0x3e09d2c0	0.13459301
47	0xbeb773bb	-0.35830483
48	0xbeb69546	-0.35660762
49	0xbcb52f71	-0.022117348
50	0x3e9d33f6	0.30703706
51	0x3ce3a93a	0.027790654
52	0x3d19a918	0.037514776
53	0xbdce7aa9	-0.10081989
54	0xbecd0e41	-0.40049937
55	0x3ee121db	0.43971142
56	0xbec54e33	-0.38536224
57	0xbedfb064	-0.43689263
58	0x3d085436	0.033283435
59	0xbe7400d5	-0.23828442
60	0x3aadf0cf	0.0013270619
61	0xbe987a37	-0.29780743
62	0xbd47883f	-0.04871392
63	0x3e9716af	0.29509494
64	0xbf4c9ec6	-0.7992977
65	0xbdc9fc47	-0.09862571
66	0xbdb44516	-0.088022396
67	0x3f00c4ba	0.5030018
68	0x3da98d9f	0.08278965
69	0x3d92a13b	0.071596585
70	0xbeb0a3f7	-0.34500095
71	0x3e811589	0.25211743
72	0xbf11f1f6	-0.5700983
73	0xbda2b727	-0.0794509
74	0xbd6c5f73	-0.057708215
75	0x3f0c9d1f	0.5492725
76	0x3e0e8ab7	0.13920103
77	0x3eae7331	0.3407226
78	0xbe1d7439	-0.15376367
79	0x3edd79b0	0.43256903
80	0xbeefce14	-0.46836913
81	0xbdb61d2e	-0.08892284
82	0x3e8e9804	0.27850354
83	0x3f29fe67	0.6640381
84	0x3d1d64ea	0.038426317
85	0x3eacac34	0.3372513
86	0xbeffa606	-0.49931353
87	0x3ef1bacb	0.47212824
88	0xbd7fa448	-0.06241253
89	0xbe1f412d	-0.15552206
90	0x3e225e6f	0.15856336
91	0x3f01aaac	0.5065105
92	0x3e4cf83a	0.20016566
93	0x3ed6b146	0.41932124
94	0x3d571157	0.05250677
95	0x3e1ccdf4	0.1531294
96	0xbee40de7	-0.44541857
97	0xbe42c1aa	-0.1901919
98	0x3ed13f04	0.4086839
99	0x3f2aec15	0.6676648
100	0xbd561b5e	-0.052272193
101	0x3f0efe75	0.5585702
102	0x3cdb4a37	0.026768787
103	0x3f27a762	0.6548978
104	0xbe807174	-0.25086558
105	0xbeb8abbb	-0.3606852
106	0x3db934db	0.090432845
107	0x3e1257f5	0.14291365
108	0x3c84bfdd	0.016204769
109	0xbc34a336	-0.011025241
110	0xbdc0e1b4	-0.094180495
111	0x3ee88d55	0.45420328
112	0xbf203716	-0.62584054
113	0xbf0e2774	-0.5552895
114	0x3e89f139	0.2694185
115	0x3e885dc7	0.26634046
116	0x3f090a9e	0.53531826
117	0x3e61d8a6	0.22055301
118	0xbeb4ec6f	-0.35336635
119	0x3e1c8eaa	0.15288797
120	0xbef4b85a	-0.477969
121	0x3cb9b7bd	0.022670621
122	0xbea8a655	-0.329394
123	0xbe22b4cf	-0.15889286
124	0x3d4e2c2b	0.05033509
125	0x3f138863	0.57629985
126	0x3e44ee08	0.19231427
127	0x3e98e9b6	0.29865807
128	0x3d45695c	0.04819618
129	0xbee2af43	-0.4427434
130	0xbeb44705	-0.35210434
131	0x3ec4504e	0.38342518
132	0x3eac167d	0.33610907
133	0x3e662bc1	0.22477628
134	0x3e01a7c2	0.12661651
135	0x3ede80c5	0.43457618
136	0xbd07014d	-0.032960225
137	0xbe4bcccb	-0.19902341
138	0x3e2dbdbd	0.1696691
139	0xbdda811c	-0.10669157
140	0xbf08aa1e	-0.5338458
141	0xbe8a6807	-0.27032492
142	0xbea53679	-0.32268122
143	0x3daf7492	0.08567156
144	0x3ea86909	0.32892635
145	0x3ea24330	0.31691885
146	0xbed2e0f1	-0.41187242
147	0xbd26aea1	-0.040693883
148	0x3f04c5f4	0.5186455
149	0x3ea93ddd	0.3305501
150	0x3bc5c575	0.0060355016
151	0xbe8bcb03	-0.27303323
152	0xbe8cf447	-0.2753012
153	0x3daf3b9d	0.08556292
154	0x3edd4a25	0.4322063
155	0xbe0d5f52	-0.13805893
156	0xbf038376	-0.5137247
157	0xbedc480c	-0.43023717
158	0xbee7fe54	-0.45311224
159	0x3e324c2c	0.1741187
160	0x3ea3b3cc	0.31973112
161	0xbdbb09de	-0.091327414
162	0x3ebfcebd	0.37462416
163	0xbf024db0	-0.5089979
164	0xbec70a6c	-0.3887514
165	0xbe31c331	-0.17359616
166	0xb9e15388	-0.0004297758
167	0xbe94fd31	-0.2909942
168	0x3e957609	0.29191616
169	0x3ec3bb31	0.38228753
170	0xbddb3e09	-0.10705192
171	0x3d97706c	0.0739449
172	0x3d07806c	0.033081457
173	0xbec43801	-0.38323978
174	0x3dc0c4b7	0.094125204
175	0xbebe53b7	-0.37173244
176	0x3e04b90a	0.12961212
177	0x3ed00092	0.40625435
178	0xbefff9fa	-0.49995404
179	0x3ef2fc53	0.47458133
180	0x3e9b79b8	0.30366302
181	0x3ee51c1d	0.4474801
182	0x3e511a2c	0.2042014
183	0xbed4613d	-0.41480437
184	0xbe8ca83f	-0.27472112
185	0xbe4cb6ac	-0.19991559
186	0x3f1b59a2	0.60683644
187	0x3e2d7eb1	0.1694286
188	0xbdc38850	-0.09547484
189	0x3d8b5e22	0.06805064
190	0xbf00d355	-0.5032247
191	0x3eeffbc7	0.46871778

weight_hh_l3 f4 [24, 8]
0	0xbed6f10e	-0.41980785
1	0x3c141a34	0.00903945
2	0x3e1aeea2	0.15130094
3	0xbe52e2c3	-0.20594315
4	0x3dcfeffb	0.101531945
5	0xbd2951b3	-0.04133768
6	0xbe56ed29	-0.20988907
7	0xbe544d96	-0.20732722
8	0x3e53cb51	0.20683028
9	0x3ee21056	0.44153088
10	0xbd9cd062	-0.07656933
11	0xbc3c0911	-0.011476771
12	0x3cccabaa	0.0249842
13	0x3e2a5e03	0.16637425
14	0xbe6f2b22	-0.23356298
15	0x3e81cca5	0.25351444
16	0xbe8f849d	-0.28030863
17	0xbd86063a	-0.065441564
18	0xbe66948f	-0.22517608
19	0xbec11b57	-0.3771617
20	0xbebd8812	-0.37017876
21	0xbe683292	-0.22675541
22	0xbc9e5452	-0.019327316
23	0xbd7f14fd	-0.062275875
24	0x3c4c442f	0.012467428
25	0x3da911f9	0.08255381
26	0xbe1a06d0	-0.15041661
27	0x3e356c55	0.17717107
28	0xbd85a080	-0.065247536
29	0xbd7e0654	-0.062017754
30	0xbed1190b	-0.4083942
31	0xbe98f8e0	-0.29877377
32	0xbe3c4939	-0.18387307
33	0x3ecde04e	0.40210193
34	0xbedaaf81	-0.42712024
35	0x3e080022	0.132813
36	0x3e299771	0.16561677
37	0x3e897405	0.26846328
38	0xbe81e67f	-0.25371167
39	0x3ed9ad6f	0.42515132
40	0x3bb319c3	0.0054657175
41	0x3e5afa04	0.21384436
42	0x3dffece5	0.12496356
43	0xbcb5c89b	-0.022190383
44	0x3ed31e5e	0.41234106
45	0x3f058152	0.5215045
46	0xbdb1ce6d	-0.08681951
47	0xbdd80733	-0.10548248
48	0xbe87aaa2	-0.2649737
49	0xbc1c0d51	-0.009524659
50	0xbe32b178	-0.17450511
51	0x3e76d120	0.24103212
52	0x3d3db1b7	0.04631206
53	0xbdab5828	-0.08366424
54	0x3d993af4	0.074819475
55	0x3e256e9b	0.16155474
56	0xbe58d89f	-0.21176384
57	0x3d1b2488	0.037876636
58	0xbeb645b8	-0.35600066
59	0xbe8c308c	-0.27380788
60	0x3e190029	0.14941467
61	0x3d244911	0.040108744
62	0xbe6e8f4f	-0.23296855
63	0x3de3152b	0.11088022
64	0x3ece8661	0.40336898
65	0xbe8c8c9b	-0.27451023
66	0xbead2994	-0.33820784
67	0x3f04df8f	0.51903623
68	0xbe508688	-0.2036382
69	0xbe5f7374	-0.21821386
70	0xbee3022b	-0.44337592
71	0x3f43076c	0.761832
72	0x3f36a10e	0.713395
73	0xbee55d0b	-0.4479755
74	0xbebd8830	-0.37017965
75	0x3f2b332e	0.6687497
76	0xbedaaff3	-0.42712364
77	0xbe79c503	-0.2439156
78	0xbe0bf182	-0.13666347
79	0x3eddedc5	0.43345466
80	0x3eddde71	0.43333772
81	0xbf09a09a	-0.53760684
82	0xbd817960	-0.063219786
83	0xbddeb639	-0.108746
84	0xbe089203	-0.13336949
85	0xbeb7fd65	-0.35935512
86	0x3e0d8b2e	0.13822624
87	0x3ee297d5	0.44256464
88	0x3f031886	0.51209295
89	0x3ca14975	0.019688347
90	0xbe649852	-0.2232373
91	0x3eb966b1	0.3621116
92	0xbe8da975	-0.27668348
93	0xbeef8ce0	-0.46787167
94	0x3f0d1635	0.5511201
95	0x3d61289b	0.054970365
96	0x3ef7d640	0.48405647
97	0xbee37aca	-0.44429618
98	0xbe21cd3c	-0.15800947
99	0x3ea1b4d1	0.31583264
100	0xbebc5c17	-0.3678901
101	0xbe2ba4bc	-0.1676206
102	0xbf048a55	-0.5177358
103	0x3ebe85bb	0.37211403
104	0x3ea0aef2	0.31383473
105	0xbf4431a0	-0.7663822
106	0x3e8d4d24	0.27597916
107	0xbefa492f	-0.4888396
108	0xbf49b376	-0.7878946
109	0xbefeca36	-0.4976365
110	0x3f3078b7	0.68934196
111	0x3f31b236	0.69412553
112	0x3f002ccf	0.5006837
113	0xbeb31f7f	-0.34984967
114	0xbe227eab	-0.15868632
115	0xbd99918e	-0.074984655
116	0x3df6eaba	0.12056489
117	0xbebc97d7	-0.36834595
118	0xbdffa156	-0.12481944
119	0x3e4e8388	0.20167363
120	0xbd14efc5	-0.036361475
121	0xbf0cd5e4	-0.5501387
122	0x3f1fe896	0.6246427
123	0xbed9418b	-0.42432818
124	0xbe85c638	-0.2612779
125	0xbf17e40d	-0.5933235
126	0x3f2b71ba	0.6697041
127	0x3d8d1533	0.06888809
128	0x3df950a0	0.12173581
129	0xbea4620f	-0.32106063
130	0xbecd2657	-0.40068313
131	0xbde22f13	-0.11044135
132	0x3d9082ba	0.07056184
133	0xbda49c20	-0.08037591
134	0x3e687ee8	0.22704661
135	0x3e1fb8de	0.15597865
136	0xbe5924ba	-0.21205416
137	0x3df4aed2	0.11947407
138	0xbc1f300c	-0.009716045
139	0x3e45c968	0.19315112
140	0x3e5edbb6	0.217635
141	0x3cc4902a	0.023994524
142	0xbe67b0a0	-0.22625971
143	0xbe27bd84	-0.16380888
144	0x3eeeef66	0.46667022
145	0xbddcf6b2	-0.10789241
146	0x3dacd8a5	0.08439759
147	0xbe953b07	-0.29146597
148	0x3d900d61	0.07033802
149	0xbecdbd88	-0.40183663
150	0x3d529ef1	0.05142111
151	0xbeaf40ee	-0.34229225
152	0x3de81b3e	0.11333321
153	0xbe0b9102	-0.13629535
154	0xbe80487d	-0.25055304
155	0xbe8e5b25	-0.27803913
156	0xbe6d0071	-0.231447
157	0xbe761e52	-0.24035004
158	0xbe99e468	-0.30057073
159	0xbe48feea	-0.19628492
160	0xbd0e49dc	-0.034738407
161	0xbe174aee	-0.14774677
162	0xbe12365e	-0.14278552
163	0x3dd0a261	0.10187221
164	0xbe3dd8f4	-0.18539792
165	0x3ef6c3ff	0.48196408
166	0xbeec9460	-0.4620695
167	0x3dca41a4	0.09875801
168	0xbf0e43b5	-0.5557206
169	0xbcf017d9	-0.029308246
170	0x3dfb193f	0.12260675
171	0xbe74949f	-0.2388482
172	0x3ea51558	0.32242846
173	0x3e448c9a	0.1919426
174	0xbd8de8a6	-0.0692914
175	0xbf0d7a82	-0.5526506
176	0x3e5174d2	0.2045472
177	0x3e569571	0.20955445
178	0x3d8dee66	0.069302365
179	0xbe855aff	-0.26045987
180	0x3e412390	0.18861222
181	0xbde30044	-0.11084035
182	0x3d3def53	0.046370815
183	0x3d800f04	0.06252864
184	0xbe67f64f	-0.22652553
185	0x3e9321a2	0.28736597
186	0x3d79732a	0.060900845
187	0x3ed0d81e	0.40789884
188	0x3e4fe5ee	0.20302555
189	0x3e6103f8	0.2197417
190	0xbc7a25f6	-0.01526784
191	0x3e72d260	0.23713064

bias_ih_l3 f4 [24]
0	0xbd901bec	-0.07036576
1	0xbe3fee13	-0.18743162
2	0xbd72396b	-0.05913679
3	0xbde1c0d7	-0.110231094
4	0xbd39006e	-0.045166425
5	0x3ef319b7	0.47480556
6	0xbd803dc5	-0.062617816
7	0xbe6a1b1b	-0.22861902
8	0x3ebfef0b	0.37487063
9	0xbb466e20	-0.0030278042
10	0xbecb06d5	-0.3965365
11	0xbea48034	-0.3212906
12	0xbeceb755	-0.40374246
13	0xbcd4af63	-0.025962537
14	0xbeff48df	-0.49860284
15	0xbc268093	-0.01016249
16	0x3c9acc03	0.018896108
17	0x3d66a149	0.056306157
18	0xbe2421dc	-0.16028541
19	0x3dc7a20b	0.09747704
20	0xbe54e3b2	-0.20789984
21	0x3e7c760d	0.24654408
22	0xbdcce0b1	-0.10003794
23	0xbe880fe4	-0.26574624

bias_hh_l3 f4 [24]
0	0x3d8cb7e7	0.06871014
1	0x3eaef76f	0.34173152
2	0xbca2e572	-0.019884799
3	0x3e97a6d2	0.2961946
4	0x3d818eee	0.0632609
5	0x3e1da1e9	0.15393795
6	0x3e5060c6	0.20349416
7	0xbea04529	-0.31302765
8	0x3e4849b2	0.19559363
9	0xbeddc713	-0.43315944
10	0xbe3ff91c	-0.18747371
11	0xbd153d3e	-0.03643536
12	0xbef45406	-0.47720355
13	0x3e9b6019	0.30346754
14	0xbd5b7b43	-0.05358435
15	0xbeb2f026	-0.34948844
16	0xbeeaade7	-0.45835802
17	0x3e993dbc	0.29929912
18	0x3c814106	0.015778076
19	0xbebc8e26	-0.368272
20	0x3d602435	0.05472203
21	0xbe289eae	-0.16466781
22	0xbead73ce	-0.33877414
23	0x3e80ae1c	0.25132835

weight f4 [2, 9]
0	0xbeb2669b	-0.34843907
1	0x3ef082de	0.46974844
2	0xbec01f6c	-0.37523973
3	0x3f17a812	0.5924083
4	0x3ef3edf1	0.47642472
5	0xbe5e8fff	-0.21734618
6	0xbf1d2b82	-0.6139451
7	0x3ed45eb0	0.4147849
8	0x3dcafacc	0.09911117
9	0x3f095dc4	0.536587
10	0xbe89262e	-0.2678694
11	0xbc4fa256	-0.012672981
12	0x3e7ad129	0.24493851
13	0xbf08e821	-0.534792
14	0xbf168945	-0.58803207
15	0xbe7378d9	-0.23776568
16	0x3e8d1321	0.27553657
17	0xbc26ecd3	-0.010188299

bias f4 [2]
0	0x3ccdbe11	0.025115045
1	0xbf063eac	-0.5243938
