models/stochseq_model=RNN_layers=2_hidden=8.pt (torch, 5215 bytes, 10 tensors)

weight_ih_l0 f4 [8, 2]
0.15517317 0.4809086 0.03883799 0.14564362 0.27754724 -0.31514564 0.05233413 -0.09646796
0.15455595 0.19864787 0.14035633 0.14319995 0.013045161 -0.36309928 -0.27612495 0.35586253
00000000: b7e5 1e3e a739 f63e 9614 1f3d 9a23 153e
00000010: ac1a 8e3e c55a a1be 505c 563d fe90 c5bd
00000020: ea43 1e3e 596a 4b3e 92b9 0f3e 02a3 123e
00000030: 5fbb 553c 26e8 b9be 4060 8dbe 9d33 b63e

weight_hh_l0 f4 [8, 8]
-0.43231165 -0.34054816 0.42695892 -0.12234296 -0.29644108 0.037526593 -0.16373515 0.006655277
-0.18597256 0.22228388 -0.2348886 0.602997 0.1717426 0.008197788 -0.47399855 0.032702535
-0.07857953 -0.037324417 -0.0068363827 0.11358882 0.03448653 -0.26350838 -0.15381376 0.14157191
-0.14227468 0.45712066 0.36864957 -0.10532325 -0.2006142 0.07135613 0.2903148 0.113697596
0.24819258 -0.13633431 -0.21403028 0.2257728 -0.060794707 0.028636273 -0.051324386 0.2037584
0.21477014 -0.2544474 0.015449259 0.33585745 -0.13233298 0.23664515 -0.11288873 0.29150313
-0.12344725 0.11839042 -0.14234854 -0.21354973 0.34448552 -0.18982147 -0.23519878 -0.0294888
-0.21511772 -0.51395553 0.27321085 -0.032333232 -0.16461875 -0.08926687 -0.20454636 -0.3356875
00000000: f457 ddbe 545c aebe 5c9a da3e f28e fabd
00000010: 20c7 97be 7cb5 193d 30aa 27be 8314 da3b
00000020: 976f 3ebe 639e 633e a386 70be 035e 1a3f
00000030: 4bdd 2f3e 0450 063c f0af f2be 18f3 053d
00000040: 4eee a0bd 7de1 18bd bc03 e0bb 41a1 e83d
00000050: bf41 0d3d 92ea 86be 5b81 1dbe 3af8 103e
00000060: 74b0 11be b80b ea3e a3bf bc3e b7b3 d7bd
00000070: cf6d 4dbe 2a23 923d 24a4 943e 49da e83d
00000080: 3226 7e3e 399b 0bbe c12a 5bbe fc30 673e
00000090: df03 79bd 9e96 ea3c 8539 52bd 0ba6 503e
000000a0: b4ec 5b3e ee46 82be e41e 7d3c 82f5 ab3e
000000b0: 4c82 07be 1b53 723e 3532 e7bd e63f 953e
000000c0: e9d1 fcbd ad76 f23d d1c3 11be c8ac 5abe
000000d0: 6860 b03e 8f60 42be f3d7 70be 7f92 f1bc
000000e0: d247 5cbe 9792 03bf 4be2 8b3e da6f 04bd
000000f0: d191 28be 8cd1 b6bd 9a74 51be 3bdf abbe

bias_ih_l0 f4 [8]
0.39263475 -0.008024466 -0.14088877 -0.2799897 0.19607675 -0.28283507 -0.12926055 -0.18094957
00000000: 6c07 c93e 0d79 03bc 2545 10be cf5a 8fbe
00000010: 58c8 483e c2cf 90be e15c 04be d84a 39be

bias_hh_l0 f4 [8]
-0.24482906 -0.22463013 0.056781754 -0.23362267 -0.23093346 0.24892008 0.107548445 -0.13310039
00000000: 78b4 7abe 7105 66be fc93 683d c83a 6fbe
00000010: d279 6cbe e8e4 7e3e 5c42 dc3d 784b 08be

weight_ih_l1 f4 [8, 8]
0.44450536 0.061481345 -0.3908712 -0.030583873 -0.040867366 0.42970377 -0.50824046 -0.005151614
0.048503146 -0.33218646 0.4623697 0.05617192 -0.098477766 0.10791375 0.40787947 0.12229567
0.4997636 -0.36788762 -0.04366511 -0.26509345 0.10327652 0.44962877 0.025078967 0.3934962
-0.2875362 -0.18548109 0.29820186 -0.28762615 -0.030986441 -0.16302522 0.21719721 -0.31450856
-0.2454301 -0.42399466 0.49427965 0.12635925 0.14558955 -0.018768664 0.54236126 0.043287117
-0.045351125 -0.08184278 0.43027952 0.19829157 -0.13105178 -0.105349414 0.6208006 -0.3712924
-0.42359358 0.17826943 0.20861752 0.06720388 0.08314204 -0.30933866 -0.16679382 -0.28952867
0.00067090703 -0.2879014 -0.38735515 -0.42796347 0.37474892 -0.22524363 -0.28830832 0.042441893
00000000: 3596 e33e ddd3 7b3d 4520 c8be 088b fabc
00000010: 8a64 27bd 2202 dc3e 0c1c 02bf dfce a8bb
00000020: 3cab 463d 5814 aabe b9bb ec3e 8714 663d
00000030: b6ae c9bd e201 dd3d 94d5 d03e 2776 fa3d
00000040: 04e1 ff3e c45b bcbe 30da 32bd 54ba 87be
00000050: a482 d33d be35 e63e 6872 cd3c 5578 c93e
00000060: f237 93be c1ee 3dbe eaad 983e bc43 93be
00000070: 47d7 fdbc 15f0 26be f268 5e3e 4407 a1be
00000080: 0752 7bbe d415 d9be 3912 fd3e 5264 013e
00000090: 6d15 153e bec0 99bc 30d8 0a3f d54d 313d
000000a0: 1ac2 39bd 309d a7bd 994d dc3e f20c 4b3e
000000b0: 7032 06be 6fc1 d7bd caec 1e3f 0a1a bebe
000000c0: 42e1 d8be 438c 363e d59f 553e 30a2 893d
000000d0: 6046 aa3d a361 9ebe 00cc 2abe 1a3d 94be
000000e0: cfdf 2f3a d067 93be 6a53 c6be 071e dbbe
000000f0: 17df bf3e 44a6 66be 269d 93be 8dd7 2d3d

weight_hh_l1 f4 [8, 8]
0.035672583 -0.123413466 -0.085463576 0.13030018 -0.038126487 -0.13473433 0.29619154 0.11533865
-0.12484727 0.22827534 -0.08104921 0.3950213 -0.22665073 -0.05795678 -0.16916923 0.51709837
-0.26467922 -0.37902492 0.14637527 -0.26428816 -0.2515876 0.36775526 -0.57043904 0.50543094
-0.10104859 -0.08430697 0.16134535 0.28561464 0.21293107 0.29333326 0.3022166 0.1814886
-0.14300103 0.43548316 -0.28712383 0.021699088 0.22331585 0.24741481 0.31182617 -0.19828069
0.18303347 0.13887326 -0.3596431 0.2107866 0.10779655 -0.33981723 -0.08372608 0.10229408
-0.19197133 0.099684514 -0.3690575 -0.46692678 0.11057433 0.040532097 0.13037524 -0.44399512
-0.24661078 0.16380659 0.3215162 0.3894168 -0.33692133 -0.25284633 -0.25776482 0.20861953
00000000: 6a1d 123d 33c0 fcbd 8707 afbd 696d 053e
00000010: 852a 1cbd ccf7 09be 6ba6 973e ac36 ec3d
00000020: edaf ffbd 03c1 693e 21fd a5bd 3b40 ca3e
00000030: 2117 68be 1764 6dbd b33a 2dbe 8f60 043f
00000040: 0984 87be 8e0f c2be 66e3 153e c750 87be
00000050: 17d0 80be 6b4a bc3e 4b08 12bf ec63 013f
00000060: 90f2 cebd 22a9 acbd b737 253e 153c 923e
00000070: 9a0a 5a3e c72f 963e 22bc 9a3e 26d8 393e
00000080: dd6e 12be a6f7 de3e e501 93be 49c2 b13c
00000090: e9ac 643e 4f5a 7d3e aea7 9f3e 180a 4bbe
000000a0: 206d 3b3e cb34 0e3e 2423 b8be 71d8 573e
000000b0: 70c4 dc3d 86fc adbe 9478 abbd 8f7f d13d
000000c0: 2294 44be 6527 cc3d 1bf5 bcbe 0711 efbe
000000d0: cb74 e23d fc04 263d 1681 053e 5453 e3be
000000e0: 8987 7cbe eabc 273e c59d a43e a461 c73e
000000f0: f480 acbe 1375 81be c0f9 83be 5ca0 553e

bias_ih_l1 f4 [8]
-0.258627 -0.24757236 -0.114763364 -0.018528273 -0.1454554 0.0764437 -0.10394446 0.35594225
00000000: c26a 84be 9c83 7dbe 0e09 ebbd 9bc8 97bc
00000010: 43f2 14be 848e 9c3d d5e0 d4bd 103e b63e

bias_hh_l1 f4 [8]
-0.1948249 -0.027342651 -0.1897437 0.2649499 -0.27323285 0.0550513 -0.46394333 0.41580182
00000000: 2e80 47be b2fd dfbc 2c4c 42be 83a7 873e
00000010: 2de5 8bbe 797d 613d fb89 edbe fae3 d43e

weight f4 [2, 9]
0.5291889 -0.54118705 0.33445746 -0.421035 -0.5779958 -0.6295409 -0.09847001 0.15898143
0.24139643 0.21767983 -0.45681724 -0.5884576 -0.124892995 0.28535256 0.074992165 0.39309907
-0.57649934 -0.00649996
00000000: ec78 073f 3c8b 0abf 023e ab3e e691 d7be
00000010: 88f7 13bf 9829 21bf a5aa c9bd 07cc 223e
00000020: a030 773e 76e7 5e3e f3e3 e9be 28a5 16bf
00000030: e6c7 ffbd bb19 923e 7e95 993d 4844 c93e
00000040: 7695 13bf 9efd d4bb

bias f4 [2]
-0.086275466 -0.30645335
00000000: 31b1 b0bd 74e7 9cbe
