models/stochseq_model=LSTM_layers=1_hidden=1.pt (torch, 3814 bytes, 6 tensors)

weight_ih_l0 f4 [4, 2]
0	0x3c7916f4	0.015203226
1	0x3f00f059	0.5036674
2	0x3d7f5f13	0.06234653
3	0xbe004eb1	-0.12530018
4	0xbe68839d	-0.22706456
5	0x3f3a2742	0.7271615
6	0xbe2fab06	-0.17155084
7	0x3d4fdab6	0.05074569

weight_hh_l0 f4 [4, 1]
0	0xbe17fa58	-0.14841592
1	0x3ef968a4	0.48712647
2	0xbf9fa487	-1.2472085
3	0x40061f4a	2.0956597

bias_ih_l0 f4 [4]
0	0x3f6b687a	0.91956294
1	0x3f16be7e	0.5888442
2	0xbdae0f5a	-0.08499022
3	0x3f9f3ef9	1.2441093

bias_hh_l0 f4 [4]
0	0x3f5958c0	0.84901047
1	0x3e97ae77	0.29625294
2	0x3eef947d	0.46792975
3	0x3f85f363	1.0464901

weight f4 [2, 2]
0	0x4001c782	2.027802
1	0x3ec1e36e	0.37868828
2	0xbf570e80	-0.840065
3	0x3da9c5ce	0.082896814

bias f4 [2]
0	0xbef5d3d1	-0.48013166
1	0xbfcaef9b	-1.5854372
