models/stochseq_model=GRU_layers=2_hidden=8.pt (torch, 7135 bytes, 10 tensors)

weight_ih_l0 f4 [24, 2]
-0.02039613 0.101195656 0.13917044 -0.21946508 -0.03257725 -0.29873988 -0.12267182 0.14486064
0.17949496 0.45965466 -0.26056877 0.080984265 -0.1405669 0.21165669 0.12903742 -0.036921147
-0.37565595 0.20555852 0.30178747 -0.08814156 0.034532383 0.08590875 -0.0670291 -0.16035119
0.023818793 -0.1896354 0.10579766 0.2858484 -0.25290722 0.57507676 0.037747156 -0.21366368
-0.15436357 0.04687286 0.23659748 -0.15818672 0.0983236 -0.30405918 0.056553323 0.41497174
0.12884745 0.26095766 0.28794628 0.27086595 0.05498988 0.48719153 -0.010414111 -0.46638405
00000000: c915 a7bc ab3f cf3d b282 0e3e 74bb 60be
00000010: b96f 05bd 6ff4 98be 5d3b fbbd 5956 143e
00000020: 87cd 373e db57 eb3e 4569 85be 14db a53d
00000030: c5f0 0fbe 88bc 583e 6322 043e a13a 17bd
00000040: fa55 c0be ef7d 523e e383 9a3e 9083 b4bd
00000050: d471 0d3d edf0 af3d 8e46 89bd 1a33 24be
00000060: a11f c33c c82f 42be 72ac d83d b95a 923e
00000070: 0e7d 81be 3b38 133f c39c 1a3d a7ca 5abe
00000080: 7c11 1ebe c2fd 3f3d 9c46 723e b3fb 21be
00000090: e25d c93d a5ad 9bbe 75a4 673d 2d77 d43e
000000a0: 96f0 033e 3e9c 853e b26d 933e f1ae 8a3e
000000b0: 123d 613d 2b71 f93e f39f 2abc e4c9 eebe

weight_hh_l0 f4 [24, 8]
-0.39646074 -0.006018547 0.27559087 0.043469246 -0.13778329 -0.2371798 0.17185141 0.40657443
-0.5030363 -0.47519383 0.0594326 -0.24801874 0.11091913 0.29053882 -0.11725134 0.05076632
-0.04363255 0.37940803 -0.36012015 0.51842976 -0.16366185 -0.17227031 0.34245735 0.19533125
-0.06745344 -0.26386097 0.12798572 0.12617785 -0.098966375 -0.04845593 -0.1713133 -0.26384538
-0.17028236 0.25831574 0.7071645 -0.30060682 -0.05687708 -0.30816996 0.1119154 0.14744164
-0.46057728 -0.20248184 0.03136237 -0.26683155 0.05834859 -0.18929611 0.2668848 -0.0027903696
0.23325726 0.0009945224 -0.15556914 0.10524412 -0.43436924 -0.49084404 -0.07861542 0.15268248
-0.11086333 0.061832618 0.10596264 -0.19836384 -0.30514193 0.3256311 0.39794785 0.12765794
-0.22258964 0.4368739 -0.4772433 0.4919454 0.034694765 0.37308964 -0.29888827 -0.63236654
0.4460736 0.013095798 -0.26897585 0.16695224 0.21143328 0.49689928 0.09583493 -0.3137444
0.66992414 0.16183358 0.026365798 0.124590635 -0.42003912 0.21890204 -0.18395326 -0.04791868
0.22934376 0.40562865 0.16210532 -0.33643347 -0.048882782 -0.04445408 -0.029835667 0.012947682
0.68731606 0.3964238 0.0069760713 -0.3305041 0.0910799 0.30833456 -0.60309976 -0.63945454
0.24384595 0.12290399 0.003471252 -0.21315941 -0.23443107 0.261908 -0.26087627 0.13004012
0.3140859 0.5183284 -0.01766767 0.3722496 0.22316588 0.17064129 0.08602681 0.0071495553
0.61727405 0.0694761 -0.23046464 -0.4824296 -0.53416884 0.46783265 -0.0505398 -0.31927258
-0.009907127 0.20048222 -0.2856643 0.22879827 0.011051956 0.03046379 -0.31544045 -0.30240786
0.24756208 -0.13302954 -0.23364225 0.17930044 -0.30355328 0.32400128 -0.18099305 -0.3800959
-0.10695868 0.12273022 0.0056885947 -0.09737625 0.22742195 -0.39521426 -0.23538893 0.21551444
-0.03243586 -0.009233956 0.35409528 0.08727197 0.22666733 -0.0434589 -0.3123644 0.3633821
-0.1958019 -0.0037565504 0.26437074 0.059395697 -0.25949028 -0.29503635 0.14587906 0.24841899
-0.10647956 -0.18096069 -0.06250468 -0.4979453 -0.36729807 -0.40331906 0.09134047 0.21274853
-0.09618317 -0.14205989 0.1469484 -0.10559644 -0.36067972 0.23629946 0.19273655 -0.041724853
0.16999716 -0.03255941 -0.45567107 0.09988283 0.015023121 -0.18225537 0.41980428 -0.28815076
00000000: e7fc cabe 3b37 c5bb 3f1a 8d3e cf0c 323d
00000010: 1017 0dbe 43df 72be d1f9 2f3e 862a d03e
00000020: fdc6 00bf 9b4c f3be 996f 733d a0f8 7dbe
00000030: 9229 e33d 81c1 943e 7821 f0bd 58f0 4f3d
00000040: 0bb8 32bd c541 c23e ab61 b8be d0b7 043f
00000050: f996 27be a167 30be 9256 af3e ea04 483e
00000060: 0725 8abd c918 87be b00e 033e c434 013e
00000070: e2ae cabd ba79 46bd c16c 2fbe be16 87be
00000080: 805e 2ebe f641 843e bc08 353f 23e9 99be
00000090: f1f7 68bd 74c8 9dbe e733 e53d f1fa 163e
000000a0: c9d0 ebbe 6657 4fbe d475 003d 259e 88be
000000b0: eefe 6e3d d7d6 41be 20a5 883e a2de 36bb
000000c0: feda 6e3e a25a 823a 844d 1fbe 3b8a d73d
000000d0: a565 debe e94f fbbe 1f01 a1bd cc58 1c3e
000000e0: 500c e3bd 3344 7d3d f102 d93d e41f 4bbe
000000f0: 903b 9cbe 1fb9 a63e d2bf cb3e c3b8 023e
00000100: 8aee 63be f0ad df3e 3c59 f4be 44e0 fb3e
00000110: 191c 0e3d 9b05 bf3e e207 99be c6e2 21bf
00000120: c263 e43e c28f 563c 34b7 89be 87f5 2a3e
00000130: f781 583e 9569 fe3e 1b45 c43d 1ba3 a0be
00000140: 2680 2b3f b4b7 253e 16fd d73c 6029 ff3d
00000150: 5e0f d7be db27 603e 3e5e 3cbe 6146 44bd
00000160: 17d9 6a3e 8fae cf3e f0fe 253e 0241 acbe
00000170: 5039 48bd 7b15 36bd ee69 f4bc 8422 543c
00000180: f2f3 2f3f 0ff8 ca3e 8797 e43b d537 a9be
00000190: 1988 ba3d 07de 9d3e bf64 1abf 4bb3 23bf
000001a0: c1b2 793e 16b5 fb3d f27d 633b 7646 5abe
000001b0: b30e 70be ce18 863e 9391 85be 3d29 053e
000001c0: decf a03e 2cb1 043f cabb 90bc 8097 be3e
000001d0: 9985 643e 97bc 2e3e d32e b03d d146 ea3b
000001e0: ac05 1e3f 7c49 8e3d ecfe 6bbe 0301 f7be
000001f0: 4abf 08bf c387 ef3e d202 4fbd b277 a3be
00000200: 8151 22bc 364b 4d3e 9742 92be 184a 6a3e
00000210: 4313 353c 338f f93c 6981 a1be 34d5 9abe
00000220: ea80 7d3e e538 08be ea3f 6fbe 899a 373e
00000230: 566b 9bbe 7fe3 a53e 3e56 39be ee9b c2be
00000240: 270d dbbd fb59 fb3d 6467 ba3b 336d c7bd
00000250: 4de1 683e 8659 cabe cc09 71be d1af 5c3e
00000260: 77db 04bd 054a 17bc fa4b b53e a6bb b23d
00000270: 7b1b 683e f601 32bd 3aee 9fbe 380d ba3e
00000280: 4b80 48be 7530 76bb 9a5b 873e e748 733d
00000290: e9db 84be 010f 97be 5261 153e 8c61 7e3e
000002a0: f511 dabd c24d 39be 7402 80bd b0f2 febe
000002b0: 7e0e bcbe d67f cebe b610 bb3d c0da 593e
000002c0: affb c4bd 2678 11be a479 163e f242 d8bd
000002d0: 03ab b8be 7cf8 713e bb5c 453e aee7 2abd
000002e0: bc13 2e3e 045d 05bd b84d e9be 5f8f cc3d
000002f0: 8923 763c 27a1 3abe 96f0 d63e 7f88 93be

bias_ih_l0 f4 [24]
0.1286063 0.073584214 -0.25827032 -0.25070655 0.056224883 -0.058517408 -0.2633024 0.22160341
0.052460123 -0.01081652 -0.12140731 -0.25125444 -0.3710304 -0.5020307 -0.26760504 -0.44207713
-0.24983737 -0.29350993 -0.03532253 -0.18699305 -0.114154294 -0.059368517 0.43340987 0.071572326
00000000: 5fb1 033e 52b3 963d 023c 84be 9c5c 80be
00000010: 104c 663d f3af 6fbd 92cf 86be 01ec 623e
00000020: 6de0 563d c637 31bc 65a4 f8bd 6ca4 80be
00000030: b2f7 bdbe 1585 00bf 8703 89be ef57 e2be
00000040: 5ed5 7fbe ef46 96be 5bae 10bd 1b7b 3fbe
00000050: bac9 e9bd 672c 73bd e6e7 dd3e 8394 923d

bias_hh_l0 f4 [24]
0.010231663 -0.120160796 0.34159508 0.3187667 -0.15271555 0.033723723 -0.14310257 0.07682574
-0.1453229 -0.2900357 -0.32291883 -0.22966644 -0.7220838 0.0058909296 -0.4437839 -0.2939512
-0.42588267 -0.33631825 0.3413477 -0.017580697 0.30343488 -0.32170847 0.1726903 0.19459112
00000000: b4a2 273c dd16 f6bd 8de5 ae3e 6435 a33e
00000010: 7761 1cbe e321 0a3d 7b89 12be d056 9d3d
00000020: 87cf 14be 8f7f 94be 9e55 a5be ae2d 6bbe
00000030: 7cda 38bf b308 c13b a537 e3be c680 96be
00000040: 4b0d dabe e831 acbe 20c5 ae3e 6505 90bc
00000050: d15b 9b3e f9b6 a4be bad5 303e e542 473e

weight_ih_l1 f4 [24, 8]
0.17923929 -0.22610332 -1.8459297e-05 0.047699455 -0.634812 -0.38158658 -0.264961 0.5624999
-0.043266743 0.22791886 0.30329904 -0.39703283 -0.13491662 -0.21030267 -0.27406543 0.10987245
-0.20278138 -0.18148874 -0.3644281 0.0076180855 0.40562424 0.12083549 0.29389638 -0.6223154
0.29384485 0.1276696 0.22004552 0.16052695 0.14075148 -0.457339 -0.16717206 0.188221
0.06852037 -0.08396713 -0.044617943 -0.56634474 -0.3751669 -0.085640475 -0.20261315 0.14552936
-0.18877667 -0.066485696 0.3047414 -0.17454189 -0.16486765 -0.36441332 -0.18483742 0.27596545
-0.022150159 -0.051928274 -0.22706155 0.00195913 0.5080895 0.54488343 0.5693369 -0.3617383
-0.3540032 -0.5333214 -0.37370613 0.14353043 0.18709435 0.08107565 0.07145613 -0.02582496
0.10547088 0.55270636 0.063944 -0.14441083 -0.035322048 0.37918028 0.053262334 0.16835989
0.5374263 0.081778854 -0.21076293 -0.18103214 -0.071691304 0.49176756 0.02563193 -0.0062999153
0.5416049 0.19505276 -0.57050335 0.19580705 -0.39119288 -0.29119337 -0.19786695 -0.2394936
0.38256407 0.49912757 0.08257469 -0.054212417 -0.03214054 -0.14399487 -0.51215917 0.05614782
0.41315737 0.14386633 0.16510527 0.013986111 -0.53070533 0.56127095 -0.21113132 -0.37816176
0.37718323 0.60650235 0.5616211 -0.079664394 -0.28499958 0.318757 -0.3576047 -0.18555681
0.0064195534 0.65387744 -0.08717808 0.3967301 -0.26048124 0.21001336 0.04376188 -0.32640147
-0.04546634 0.07922046 -0.08287466 -0.2458672 -0.57003844 -0.17037582 -0.3043613 0.4636463
0.25090986 -0.056167405 -0.199314 0.5225811 -0.029104188 -0.0065489165 0.0034114008 -0.3961106
-0.009509999 -0.059310067 -0.4539162 0.03291243 0.13025849 0.50120264 0.56947464 -0.3976023
0.05744069 0.0068310606 0.22427236 -0.30327913 -0.21533488 -0.07345726 -0.53945786 -0.10217847
-0.08681238 0.21964908 -0.5102109 0.4104932 0.507556 -0.07048151 -0.044633336 -0.37358245
-0.09440074 -0.03024647 -0.509598 0.033089276 0.22213367 0.22681382 0.35885906 -0.38457954
-0.37847486 -0.21206608 -0.08721067 -0.3216725 -0.043478135 -0.30981258 -0.11801386 0.45636368
-0.24807031 -0.32161653 0.110294625 0.32893878 0.15914166 0.54757 0.11382127 -0.56155294
-0.30151662 -0.0006464958 0.0030187475 -0.2165315 -0.059018712 -0.2922657 0.14387067 -0.17382883
00000000: 818a 373e a187 67be 0ad9 9ab7 8160 433d
00000010: 0a83 22bf 515f c3be f8a8 87be feff 0f3f
00000020: 7838 31bd 9063 693e 034a 9b3e e347 cbbe
00000030: 9527 0abe 9559 57be 4e52 8cbe cf04 e13d
00000040: eca5 4fbe 2fd8 39be 5296 babe 22a1 f93b
00000050: fbad cf3e 9978 f73d 9679 963e 1050 1fbf
00000060: d572 963e d2bb 023e 9d53 613e 2d61 243e
00000070: 2821 103e 5628 eabe 272f 2bbe 01bd 403e
00000080: 6854 8c3d f5f6 abbd 4ec1 36bd f8fb 10bf
00000090: e015 c0be 4664 afbd d279 4fbe a605 153e
000000a0: ac4e 41be a729 88bd 1107 9c3e 1cbb 32be
000000b0: 11d3 28be 6294 babe 0546 3dbe 584b 8d3e
000000c0: 4074 b5bc beb2 54bd d382 68be bf64 003b
000000d0: 2712 023f 7b7d 0b3f 10c0 113f c335 b9be
000000e0: e83f b5be c087 08bf 6956 bfbe a4f9 123e
000000f0: a995 3f3e fe0a a63d 9757 923d de8e d3bc
00000100: 1e01 d83d 2a7e 0d3f 12f5 823d 6fe0 13be
00000110: daad 10bd eb23 c23e 9b29 5a3d 8966 2c3e
00000120: c594 093f ac7b a73d 3dd2 57be 7d60 39be
00000130: e4d2 92bd f5c8 fb3e 0efa d13c 856f cebb
00000140: 9ea6 0a3f e9bb 473e 820c 12bf a581 483e
00000150: 6f4a c8be 4c17 95be a29d 4abe cf3d 75be
00000160: 70df c33e a68d ff3e eb1c a93d d70d 5ebd
00000170: cda5 03bd 6473 13be dd1c 03bf 42fb 653d
00000180: 5d89 d33e b251 133e 5b11 293e 0026 653c
00000190: 4edc 07bf 74af 0f3f cf32 58be 6b9e c1be
000001a0: 291e c13e bd43 1b3f 67c6 0f3f 1627 a3bd
000001b0: 77eb 91be 1e34 a33e f717 b7be 9b02 3ebe
000001c0: 1e5b d23b 8364 273f 6c8a b2bd 3520 cb3e
000001d0: cc5d 85be be0d 573e a83f 333d 181e a7be
000001e0: ea3a 3abd 563e a23d 31ba a9bd 9cc4 7bbe
000001f0: 0aee 11bf 0077 2ebe 3fd5 9bbe 0c63 ed3e
00000200: 4277 803e cb0f 66bd f818 4cbe e0c7 053f
00000210: e86b eebc 4b98 d6bb cf91 5f3b 02cf cabe
00000220: d4cf 1bbc 1def 72bd b467 e8be 2fcf 063d
00000230: 7b62 053e d14e 003f 17c9 113f 8792 cbbe
00000240: ee46 6b3d 17d7 df3b a7a7 653e 6747 9bbe
00000250: bf80 5cbe c370 96bd e919 0abf f242 d1bd
00000260: b0ca b1bd b0eb 603e 2e9d 02bf 2a2c d23e
00000270: 31ef 013f 9c58 90bd 72d1 36bd 3346 bfbe
00000280: 2d55 c1bd 72c7 f7bc 0475 02bf 9f88 073d
00000290: 0277 633e e241 683e 60bc b73e 9ce7 c4be
000002a0: 75c7 c1be da27 59be 829b b2bd 42b2 a4be
000002b0: 2116 32bd c19f 9ebe 40b1 f1bd 80a8 e93e
000002c0: 2506 7ebe ecaa a4be 26e2 e13d aa6a a83e
000002d0: 08f6 223e 8c2d 0c3f 201b e93d efc1 0fbf
000002e0: 6360 9abe 9979 29ba 2ed6 453b 6fba 5dbe
000002f0: 9bbd 71bd daa3 95be d552 133e 2f00 32be

weight_hh_l1 f4 [24, 8]
0.2147983 0.3633112 0.030801365 0.016545165 0.26011714 -0.017449388 -0.12727337 0.010571959
0.21498936 -0.13501108 0.100595444 -0.029069318 -0.18212731 -0.22908014 -0.38306925 -0.159931
-0.3004954 -0.2291222 -0.21321954 0.13468882 0.20125338 0.026985988 0.13488871 -0.013217158
-0.10565577 -0.14944723 0.2684918 -0.10022991 0.2721372 -0.09189245 0.21783678 0.22003393
0.19095658 0.24367462 0.33518267 0.046474602 0.02759551 0.26474997 -0.09583126 0.2579377
-0.10721496 0.16494237 -0.24448147 -0.32922184 -0.31131026 0.29750535 -0.13053566 0.2381589
-0.33937833 0.0747149 -0.077588655 0.021769855 -0.057087995 0.1668942 -0.2655176 0.28340083
-0.20420021 0.25247493 -0.5308297 -0.22065578 -0.5056049 0.03090685 0.24947582 0.24929541
-0.041943554 -0.35957062 0.5139437 0.16753027 0.11873714 -0.33130357 -0.7466608 -0.30695486
0.28889865 0.1355542 0.49535492 0.41307464 0.14508247 -0.0839613 -0.02617692 -0.50401425
0.1832442 0.25350502 0.41728514 0.18901457 0.46234098 -0.55531955 -0.045867477 -0.4360307
0.009011283 -0.1299704 -0.062829174 -0.31397098 0.48124248 -0.17959695 0.08081411 0.07041809
-0.055317085 -0.32603496 0.5479446 0.010686668 0.53104067 -0.48529437 -0.27616888 -0.65063137
0.42432165 -0.43452156 0.62538105 0.005756448 0.069774054 0.007400511 -0.65807164 -0.36103788
0.30631536 -0.2660966 0.55730516 0.34016708 0.16468403 -0.2968523 0.16943175 -0.35237804
0.2759459 -0.8165836 0.4138657 0.54349524 0.30909362 -0.2693257 -0.18445581 -0.76516986
0.26908782 -0.04853743 0.033961475 0.04531407 0.26114497 -0.44566002 0.033719566 -0.30245554
-0.21248896 -0.22424728 -0.011557414 0.31854272 -0.23960537 -0.1957669 0.22696337 -0.27246812
-0.052918445 -0.35501394 0.18270366 0.18817429 0.27938458 -0.3304271 -0.38018045 -0.3319503
-0.30237892 0.259499 -0.05303172 0.26243407 -0.008302755 0.058441475 0.14263931 -0.31713083
0.17877698 -0.11941079 0.13982311 -0.25864002 -0.19471063 -0.50901455 -0.1622962 0.015523759
-0.046842624 -0.13278371 -0.17082278 0.14108087 -0.5222209 0.6044184 0.5028237 0.5108794
-0.07765192 -0.20411775 -0.5257132 0.11558238 0.031794675 0.15766388 -0.063444145 0.22081572
0.20818669 0.08841601 -0.14983572 -0.28952533 -0.05028173 0.6197859 0.38870883 0.5929535
00000000: 16f4 5b3e ed03 ba3e 2553 fc3c ba89 873c
00000010: 132e 853e 05f2 8ebc f353 02be 0336 2d3c
00000020: 2c26 5c3e 5840 0abe fc04 ce3d c722 eebc
00000030: 957f 3abe fc93 6abe a721 c4be f4c4 23be
00000040: 88da 99be 039f 6abe 3956 5abe deeb 093e
00000050: 5e15 4e3e b811 dd3c 4420 0a3e c78c 58bc
00000060: 0d62 d8bd b208 19be c277 893e 5745 cdbd
00000070: 9155 8b3e 1c32 bcbd 9b10 5f3e 9350 613e
00000080: 1f8a 433e d785 793e 109d ab3e 275c 3e3d
00000090: fb0f e23c 4f8d 873e 2e43 c4bd 6910 843e
000000a0: 8493 dbbd a7e6 283e 5a59 7abe c48f a8be
000000b0: 0f64 9fbe 9f52 983e 24ab 05be eddf 733e
000000c0: ffc2 adbe 2004 993d cde6 9ebd b256 b23c
000000d0: 1ad5 69bd 50e6 2a3e ecf1 87be ea19 913e
000000e0: dc19 51be 6544 813e 75e4 07bf 97f3 61be
000000f0: 536f 01bf 5d30 fd3c 9776 7f3e 4c47 7f3e
00000100: 01cd 2bbd a419 b8be d091 033f 0e8d 2b3e
00000110: 752c f33d 9fa0 a9be 2a25 3fbf 3029 9dbe
00000120: 86ea 933e b8ce 0a3e 299f fd3e 857e d33e
00000130: 8090 143e e7f3 abbd fb70 d6bc 1407 01bf
00000140: 5ea4 3b3e 69cb 813e 66a6 d53e 098d 413e
00000150: f5b7 ec3e 6c29 0ebf 89df 3bbd 6a3f dfbe
00000160: 0fa4 133c f616 05be 95ac 80bd cec0 a0be
00000170: 6a65 f63e 43e8 37be de81 a53d 5c37 903d
00000180: 2b94 62bd 0eee a6be 1946 0c3f 2217 2f3c
00000190: 48f2 073f 8178 f8be 0266 8dbe c78f 26bf
000001a0: b040 d93e 9c79 debe f918 203f 96a0 bc3b
000001b0: b3e5 8e3d fc7f f23b 6277 28bf f5d9 b8be
000001c0: 5ed5 9c3e d03d 88be 8dab 0e3f 612a ae3e
000001d0: eea2 283e 06fd 97be 847f 2d3e e56a b4be
000001e0: c848 8d3e 9f0b 51bf 34e6 d33e 8122 0b3f
000001f0: 8541 9e3e 0fe5 89be fce1 3cbe 2ce2 43bf
00000200: e1c5 893e 2fcf 46bd 301b 0b3d 3f9b 393d
00000210: cbb4 853e 8d2d e4be 871d 0a3d 74db 9abe
00000220: b596 59be 14a1 65be 4f5b 3dbc 0818 a33e
00000230: 1c5b 75be 1e77 48be 1669 683e f180 8bbe
00000240: 03c1 58bd 63c4 b5be ab16 3b3e c3b0 403e
00000250: 7f0b 8f3e be2d a9be 03a7 c2be 64f5 a9be
00000260: 69d1 9abe 0edd 843e ca37 59bd c25d 863e
00000270: 4708 08bc 5460 6f3d 0a10 123e f95e a2be
00000280: 5011 373e a58d f4bd ca2d 0f3e 776c 84be
00000290: 3962 47be c74e 02bf fa30 26be 5d57 7e3c
000002a0: 0dde 3fbd 74f8 07be 2bec 2ebe 8177 103e
000002b0: 45b0 05bf 2abb 1a3f 0eb9 003f fec8 023f
000002c0: f807 9fbd 3e04 51be 2495 06bf 74b6 ec3d
000002d0: 223b 023d a472 213e 01ef 81bd 841d 623e
000002e0: e42e 553e 7413 b53d 896e 19be aa3c 94be
000002f0: 37f4 4dbd 4aaa 1e3f d804 c73e cdcb 173f

bias_ih_l1 f4 [24]
0.37836966 -0.22800209 -0.03667422 0.32219648 0.18545337 0.39851573 0.24089056 0.11375408
-0.5772293 -0.02445686 -0.23079538 -0.04783725 -0.023676168 0.0066517573 -0.6086514 -0.11367439
0.15888841 0.38503358 -0.39302236 -0.13567963 0.025049137 0.16829512 -0.009371487 0.2358943
00000000: abb9 c13e 6179 69be b537 16bd f0f6 a43e
00000010: 7de7 3d3e 410a cc3e 04ac 763e e6f7 e83d
00000020: 4dc5 13bf c159 c8bc a055 6cbe fef0 43bd
00000030: 86f4 c1bc fcf6 d93b 94d0 1bbf 1ece e8bd
00000040: a5b3 223e 1f23 c53e 3a3a c9be 9aef 0abe
00000050: d933 cd3c 8e55 2c3e de8a 19bc 468e 713e

bias_hh_l1 f4 [24]
0.14994758 -0.029907908 -0.049873784 0.13958693 -0.16596225 -0.01712586 0.29770455 -0.092650495
-0.18593329 0.031773526 -0.34827366 -0.006078243 -0.3550347 -0.13513039 -0.4219118 -0.104732774
-0.27293134 0.110813774 -0.3762454 -0.38827646 -0.33945802 0.50017315 0.41727868 0.48989657
00000000: dc8b 193e 6e01 f5bc 7448 4cbd e0ef 0e3e
00000010: 02f2 29be 884b 8cbc bb6c 983e 8bbf bdbd
00000020: 4c65 3ebe f524 023d ed50 b2be ff2b c7bb
00000030: 1cc7 b5be 9f5f 0abe d304 d8be 237e d6bd
00000040: a8bd 8bbe 55f2 e23d 3da3 c0be 2ccc c6be
00000050: 71cd adbe 590b 003f 8da5 d53e b9d3 fa3e

weight f4 [2, 9]
0.5701845 0.5597315 -0.528082 0.60043406 0.69865376 -0.16263695 0.36628154 0.071377076
-0.07903231 0.3122123 -0.26411778 0.37691116 0.2576096 0.11488997 -0.3802144 -0.43245977
-0.54015625 0.008265221
00000000: 9df7 113f 904a 0f3f 6230 07bf 0cb6 193f
00000010: f9da 323f 4d8a 26be 4189 bb3e 252e 923d
00000020: b1db a1bd 4ada 9f3e 723a 87be 80fa c03e
00000030: 68e5 833e 6f4b eb3d 76ab c2be 5e6b ddbe
00000040: ae47 0abf d96a 073c

bias f4 [2]
-0.046920143 -0.35289744
00000000: 562f 40bd f9ae b4be
