models/stochseq_model=GRU_layers=2_hidden=1.pt (torch, 4319 bytes, 10 tensors)

weight_ih_l0 f4 [3, 2]
000000 9b 07 10 bf 72 e4 c1 bf 3f d4 62 3d e3 bc 12 bc
       -0.56261605 -1.5147841 0.055378195 -0.008956167
000010 e3 cc 52 3e b3 dd 22 bf
       0.2058597 -0.63619536

weight_hh_l0 f4 [3, 1]
000000 42 db a2 be 75 44 bc bf 17 6f 87 be
       -0.31807905 -1.4708391 -0.26451942

bias_ih_l0 f4 [3]
000000 9f e1 94 3e cf 91 03 3e fe 1d ca bd
       0.29078385 0.1284859 -0.09869002

bias_hh_l0 f4 [3]
000000 b5 53 09 bf e7 3e 81 3d 54 6c 58 3f
       -0.5364335 0.06310826 0.84540296

weight_ih_l1 f4 [3, 1]
000000 ee 08 8c be 11 8f be 3d bc 4d ab 3f
       -0.27350563 0.093046315 1.3383098

weight_hh_l1 f4 [3, 1]
000000 d9 d3 4a 3f 8c de 89 3f 53 aa f3 3e
       0.79229504 1.0771041 0.47590885

bias_ih_l1 f4 [3]
000000 93 cf 45 3f 4d 99 8f bf ba 4c 11 bf
       0.7726986 -1.1218659 -0.567577

bias_hh_l1 f4 [3]
000000 00 f9 b9 be 2a d9 8a bf dd d2 7c 3d
       -0.36322784 -1.0847523 0.061724532

weight f4 [2, 2]
000000 6e b4 73 bf 00 b3 9c 3e 8e 71 e1 3e 76 b5 29 3e
       -0.9519719 0.30605316 0.44031948 0.16573128

bias f4 [2]
000000 f3 66 43 be 34 7f 41 bf
       -0.19082241 -0.7558472
