models/stochseq_model=RNN_layers=1_hidden=32.pt (torch, 8614 bytes, 6 tensors)

weight_ih_l0 f4 [32, 2]
000000 bb 60 1b bd b7 dc 6b bd 23 d5 03 3e b4 73 62 3c
       -0.037934046 -0.057583537 0.12874274 0.013821531
000010 4a 09 96 be 13 04 31 3c 80 5b 32 3d 48 4c 2e 3e
       -0.29303962 0.010804194 0.043544292 0.17021286
000020 50 0d 01 be 38 e1 73 3c 99 ca 99 bc 9b 79 82 be
       -0.12602735 0.014885239 -0.018773364 -0.25483403
000030 c0 0e 02 3e 97 75 0b 3e 52 53 ba 3a 9c 95 53 be
       0.12700939 0.13619076 0.0014215505 -0.2066254
000040 0e 20 c0 3b c1 59 5a 3d 8b 39 e2 bd 5f e7 9a be
       0.005863196 0.053308252 -0.11046132 -0.30254647
000050 3e ec 8e bc 02 7b 65 3e 52 14 e7 bd 7d 8a 7c be
       -0.017446633 0.22410205 -0.11283173 -0.24662204
000060 c9 96 26 3c 96 51 2b bd ba 8e df 3c 76 62 2d 3e
       0.010167786 -0.041825853 0.027289737 0.16932091
000070 ca ce 23 3d a1 ec 88 be 04 a4 e6 bd 9a f4 8d bd
       0.03999213 -0.26743034 -0.11261752 -0.0693142
000080 54 da 9d 3c c6 90 dd bd 78 43 85 3d 25 13 91 be
       0.019269146 -0.10818629 0.06507009 -0.2833492
000090 f7 9f b4 bc e3 66 9b be 44 17 a9 bd fa ee 84 be
       -0.022048933 -0.30351934 -0.08256391 -0.25963575
0000a0 8f 7c 8f bb 02 82 1e 3e 66 ea 42 3d a5 bb 04 be
       -0.004378862 0.15479282 0.04758682 -0.12962206
0000b0 3c 42 05 bf b1 31 45 bd d0 dc d3 bd 6d a2 16 be
       -0.5205419 -0.048143093 -0.10344851 -0.14710398
0000c0 a5 6f a9 3c 8c 24 2c 3e 8f de 94 3d a9 d1 95 3e
       0.02068312 0.16810817 0.07269012 0.2926152
0000d0 51 06 b2 3d 03 f4 85 be fc 8b 43 3b aa b5 d6 bd
       0.08692611 -0.2616273 0.0029838076 -0.104838684
0000e0 72 01 82 3d 10 7a 5f 3e 3a 21 8f bd 4b ee cb bd
       0.06347932 0.21823907 -0.06988759 -0.0995756
0000f0 25 c1 8b bd 4d d3 97 3e 66 dc 9d 3d b9 8d 57 3d
       -0.06823949 0.29653397 0.07708053 0.05262539

weight_hh_l0 f4 [32, 32]
000000 f9 9f 0e bd 20 ab ed 3d b1 1d d1 39 98 67 06 3d
       -0.03482053 0.11604905 0.00039885708 0.03281364
000010 e5 44 e5 bc e3 5c 1b 3d 70 53 a5 bd 7d ca 2a bc
       -0.027986953 0.03793038 -0.08072555 -0.0104242535
000020 de 8d c0 3d 39 6e 32 3e a9 01 c9 3c 98 6d 0f be
       0.09402059 0.17424859 0.024536924 -0.1400665
000030 44 21 ee bd 02 02 f1 3d e2 75 23 bd d9 17 4a 3e
       -0.11627439 0.11767961 -0.039907344 0.1973566
000040 1c ef 07 3e 59 6f 3f 3d 12 f6 5b 3b 91 7d d6 bd
       0.13274807 0.04673705 0.0033563417 -0.10473169
000050 4e a2 72 bd b0 cb 19 3e c5 fd 2d be 86 ff 2e 3e
       -0.059236817 0.15019107 -0.16991337 0.17089662
000060 eb 32 06 be 8b 6f 17 3d dc 41 43 3e e8 02 b6 bd
       -0.13105361 0.03697161 0.19068092 -0.08887273
000070 5b b1 69 be 55 8d 02 3e a4 30 87 bc 2a e5 fb 3d
       -0.22821562 0.12749226 -0.016502686 0.12299569
000080 44 90 0d be f9 8d 47 3c 2e 0c e9 bc b1 fa ed 3d
       -0.13824564 0.012179845 -0.02844819 0.11620081
000090 4a 09 0c be 2b a9 63 3c 43 e3 ca 3d 74 ae eb bc
       -0.13675418 0.013895313 0.09906628 -0.02876971
0000a0 0a d7 f6 3d e8 e5 ad 3c ff 3d 39 3e f1 32 bb bb
       0.12052734 0.021227792 0.18090056 -0.00571286
0000b0 70 f9 46 be 09 0f a9 3d f1 72 2f bc 74 35 15 bd
       -0.1943109 0.08254821 -0.0107085565 -0.03642793
0000c0 28 7b 03 be ca e3 d4 3d 9c 5c 2a 3e 59 df 18 be
       -0.12839949 0.1039501 0.1663689 -0.1492895
0000d0 20 41 8a 3d b3 35 fa bd 86 58 33 3e 0f 82 d3 bc
       0.06750703 -0.122172736 0.17514238 -0.025818853
0000e0 68 52 05 3e 92 5e 37 3d ef 5e af bd cd fe 21 3e
       0.13019717 0.044767924 -0.08563029 0.15819855
0000f0 fa f2 93 bd 89 41 10 bd 14 a8 eb 3c ea df 16 3d
       -0.072240785 -0.03521875 0.02876667 0.036834635
000100 49 d2 26 3e 5e 11 93 be f2 33 5f 3e af 79 42 be
       0.16291155 -0.28724188 0.2179716 -0.18991731
000110 01 ca 8b 3c d9 cd 1e 3e 77 b5 69 be dd 7e 99 3e
       0.017064096 0.15508212 -0.2282313 0.29979602
000120 56 83 af be 41 13 95 be a3 da ee bd f4 f9 0c 3e
       -0.3427989 -0.29116252 -0.116627954 0.13767225
000130 38 38 62 3e 79 13 e7 3d 8a 08 60 bd e7 71 85 be
       0.22091758 0.11283011 -0.054695643 -0.26063463
000140 a1 e8 4a 3b 17 50 a1 3d d6 92 28 3e 15 6d 00 3e
       0.0030961412 0.07876604 0.16462263 0.12541611
000150 46 49 a4 bd 79 63 24 3e 2d 69 89 be df d8 6c be
       -0.08021788 0.16053571 -0.26838055 -0.23129605
000160 c5 b6 76 be 9e 87 8f be 76 6a 9e 3e 11 e8 f2 bd
       -0.24093159 -0.28033155 0.30940598 -0.118606694
000170 b2 ef 36 bd a7 5d d3 3a d1 30 d7 bd a6 c5 5b 3e
       -0.044662185 0.0016125933 -0.10507358 0.21462116
000180 e3 f0 16 be ec dd a6 3d 09 09 12 3e 4a 00 15 3e
       -0.14740328 0.08147797 0.14261259 0.14550892
000190 e1 be f3 bd f5 ff 28 3c fb d0 16 bd 50 d8 42 be
       -0.11901642 0.010314931 -0.036820393 -0.19027829
0001a0 ba 75 f7 bd d3 c9 79 3d 01 02 b3 3d 4c c5 aa bd
       -0.120830014 0.06098349 0.087406166 -0.08338413
0001b0 f8 b7 26 be 3a 42 47 bd a3 4c d8 bd 83 8d 81 bd
       -0.16281116 -0.048647143 -0.10561492 -0.06325819
0001c0 52 3e 8c bc a9 68 c1 3b cf 6a bc 3d 54 d5 e1 3d
       -0.01711956 0.005902369 0.092000596 0.11027017
0001d0 99 48 1c be a6 00 1d be fc 04 49 3e 46 ea 42 3e
       -0.15262069 -0.15332279 0.19630808 0.1903468
0001e0 95 99 88 bc 1f 8e 13 be 24 89 1d 3e b8 99 1b bc
       -0.016674796 -0.14409684 0.15384346 -0.009497099
0001f0 3d 2f f2 3d 58 87 07 be a5 0b 01 3d 0a d4 c8 3d
       0.11825416 -0.13235223 0.031505246 0.09806068
000200 9c b3 85 bd 15 90 01 be b0 f4 5c 3d db f6 f1 3d
       -0.065283984 -0.12652619 0.05394429 0.11814662
000210 e0 2c 95 3c 9f d8 f3 3d d0 d8 06 be ce bf 81 bd
       0.018209875 0.119065516 -0.13168645 -0.06335412
000220 c4 2d 48 bd 06 a5 e0 3d 29 ac 95 3d cc d9 35 bd
       -0.04887177 0.10968976 0.073082276 -0.04439716
000230 08 14 4b 3d 74 91 a5 bd 71 d0 a0 3d e4 8e 8a 3d
       0.04957965 -0.080843836 0.07852257 0.067655355
000240 f1 98 70 bc 2e ac 2c bc d1 a9 f6 3d c0 77 7d 3d
       -0.014684902 -0.010539098 0.12044109 0.06188178
000250 46 8c 15 be bb 15 99 bd 88 58 e0 bd 07 b9 33 be
       -0.14604291 -0.07474848 -0.10954386 -0.17551051
000260 d7 64 ae 3d 49 55 37 3e 72 c2 97 bd f6 a5 fa 3c
       0.085153274 0.17903627 -0.074101344 0.030596714
000270 55 f2 22 3e 05 8a e5 bd 9f fa 18 3e c3 b4 21 be
       0.15912755 -0.11207966 0.14939354 -0.15791611
000280 6b c5 9e 3d 93 3c 07 be 08 da bb bd 3d 4f 5d bd
       0.07752498 -0.13206701 -0.091724455 -0.054030646
000290 26 10 21 3e 8c 87 58 be 4b 71 10 3e 78 a9 0c 3d
       0.15728816 -0.21145457 0.14105718 0.034341305
0002a0 cd 8c 7a 3e b6 7d 85 bd 64 cb 68 be 91 ac 2d bd
       0.24467774 -0.06518118 -0.22733837 -0.0424009
0002b0 f4 dd f0 bb d3 9d 29 3e 72 1f 3e be 7b 15 13 3c
       -0.0073506776 0.16564111 -0.18566683 0.008977289
0002c0 81 1b 46 3d 0d 34 c1 3d 45 46 dc bd c5 c1 a5 3d
       0.048366074 0.09433756 -0.1075559 0.08093599
0002d0 72 16 88 bd 86 df 19 bd 7b fc 8d 3d 39 4b b4 3d
       -0.06644906 -0.037566684 0.069329225 0.0880341
0002e0 9d 2f 43 3d 58 55 37 bd 1d f5 06 3e b3 4a d2 bd
       0.04765283 -0.044759125 0.13179441 -0.10268154
0002f0 21 03 19 be 17 1e e7 3d 68 89 3d 3e e7 21 eb 3d
       -0.149426 0.11285036 0.18509448 0.11481076
000300 60 71 c0 3c 75 f9 25 3e ed d1 d9 bc 7c 06 99 3d
       0.023491561 0.16208442 -0.026589358 0.0747194
000310 cf 5f 33 be f1 0f 8f 3d f5 ad b4 3d b7 e0 b2 bd
       -0.17517017 0.069854625 0.08822242 -0.08734267
000320 d6 56 23 3e 3e 91 5d bd ac 82 01 3d 19 03 4b be
       0.15951094 -0.054093592 0.03161876 -0.198254
000330 98 f1 20 3e 93 e6 3e be b4 4f d5 bd c7 2d 8e bd
       0.1571716 -0.18642645 -0.10415593 -0.06942325
000340 60 39 69 bc f7 c6 10 3e 15 a0 c3 3d da 7a d9 bd
       -0.014234871 0.14138399 0.095520176 -0.10619135
000350 0f 41 f8 bd 7c 46 23 be 95 af f6 3d ea 8b 3c be
       -0.12121784 -0.15944856 0.12045208 -0.18412748
000360 1b d7 3b bd f2 f9 3b 3e 5d d0 6a bd 94 4e 31 bd
       -0.045859437 0.18357065 -0.057327617 -0.04328783
000370 0a e4 4b 3d 33 ea 65 3c 7c 1b c6 3d 39 dc 18 3e
       0.049778022 0.014032888 0.09673211 0.14927758
000380 71 38 e4 bc 0a 34 d4 bc e5 42 b3 bd 7b d9 0e 3e
       -0.027858945 -0.02590372 -0.087529935 0.1395015
000390 fd 2d de 3d 8b 50 09 bd 24 04 da 3d 6e 17 d1 3d
       0.10848615 -0.033524077 0.10645321 0.10209547
0003a0 88 48 2d 3c 5e cc cc 3d 78 ca af bd e4 c0 65 3e
       0.010576375 0.099999174 -0.0858354 0.22436863
0003b0 a7 0a d2 bd e7 e2 2b 3e 75 64 14 3d a0 1f 8f bd
       -0.10255938 0.16785775 0.036228616 -0.06988454
0003c0 a2 6c 0a bd 23 55 ad 3a 82 9a 31 bd e3 9b c7 bd
       -0.033795007 0.0013224225 -0.04336024 -0.0974653
0003d0 cc 1e 99 3d b6 35 68 3e ae 70 65 3d 3f 0b 0b be
       0.07476577 0.22676739 0.056015663 -0.13578509
0003e0 19 91 3d 3c c0 54 c9 3d 3b f2 d6 3c dd 7d 03 3d
       0.0115702385 0.09830618 0.026238551 0.032102454
0003f0 31 78 22 be 79 d5 d8 bb c3 68 93 3d f1 42 3b 3e
       -0.15866162 -0.006617245 0.07197716 0.18287255

bias_ih_l0 f4 [32]
000000 e0 9e 2d be 4f d0 77 3d c5 b0 10 3d c9 c5 9f bd
       -0.16955137 0.060501393 0.03532483 -0.078013964
000010 54 33 fe bd 35 95 a8 3d de 3a 26 3e fe ad 28 3c
       -0.12412134 0.08231584 0.16233394 0.010295389
000020 82 ee 71 3e 9c 2f 48 3e ea 0c 44 3e d3 a5 f9 3a
       0.2362614 0.19549412 0.19145551 0.0019046612
000030 0d e6 36 3d 04 ef 9b bd 34 90 b3 3d 2b 02 14 3e
       0.044652987 -0.07613948 0.08767739 0.14453952
000040 51 47 13 be f8 d7 92 3d 19 96 79 3d 53 7b 19 3d
       -0.14382674 0.07170099 0.06093416 0.037471127
000050 b2 55 86 bc 1c 61 73 be 93 c5 69 bd 27 ac 1c 3e
       -0.016398285 -0.23767513 -0.057073187 0.15300046
000060 72 b7 d2 3d c7 61 9d 3e f5 12 57 be 4e 14 9b 3e
       0.10288896 0.3073866 -0.21003325 0.3028893
000070 ee f3 d0 bd 8d 23 d9 bd cc ea b2 3b ff f5 6a be
       -0.10202776 -0.10602484 0.005460119 -0.22945403

bias_hh_l0 f4 [32]
000000 f9 50 75 be 03 a6 29 3e 0a 0b 60 bd 11 a9 0a 3b
       -0.2395667 0.16567235 -0.054698028 0.00211579
000010 2e a4 48 bd 73 73 c7 3d 68 7d 00 3e 7d 4c 80 be
       -0.0489847 0.09738817 0.12547839 -0.25058356
000020 83 d3 ad bc 91 c6 e4 ba 38 c8 91 3d 12 f9 97 bd
       -0.02121902 -0.0017454197 0.07118267 -0.07420553
000030 9a a0 22 be 4b 75 90 3d e2 41 e8 bc fa 98 2a 3e
       -0.15881577 0.07053622 -0.028351728 0.16659918
000040 91 34 5b be e5 ef a4 bd c7 85 04 3e cd dc 7b bd
       -0.21406771 -0.08053569 0.12941657 -0.06148987
000050 f7 dd df bd ee f1 3f be c8 0f 1e bc f2 3c 48 3d
       -0.10931008 -0.18744633 -0.009647317 0.048886247
000060 37 92 06 3e 77 ea f8 3c 6e ac 07 be 18 b8 5e 3e
       0.13141714 0.030385239 -0.1324937 0.21749914
000070 6c 55 9e bd 40 d3 b8 3d dd a6 d2 bd f8 34 a3 bd
       -0.07731137 0.09024668 -0.10285733 -0.07969087

weight f4 [2, 33]
000000 8c 9c a4 bd ce d7 0b 3e 62 1c 63 be 04 00 22 3e
       -0.080376714 0.13656542 -0.22178796 0.15820318
000010 bc ee 84 3d c8 08 a6 be d2 83 62 3e 05 3d 43 be
       0.064908475 -0.32428575 0.22120598 -0.19066246
000020 4a d6 b5 3d 7e 74 75 be 7f 95 a4 3e 1f 15 f0 bd
       0.08878763 -0.2397022 0.32145306 -0.117227785
000030 a9 21 68 bc 10 7c 26 3e 92 3b 95 be 52 a3 9a be
       -0.014168181 0.16258264 -0.2914701 -0.3020273
000040 17 f5 a0 3d 2a e5 a5 be 0f 31 5f be 3d 4d 8b be
       0.07859247 -0.324014 -0.21796058 -0.27207366
000050 bf 33 15 3e 10 0a 02 be f8 66 16 be 40 ef 4e be
       0.14570521 -0.12699151 -0.14687717 -0.20208454
000060 e8 14 81 bb ba 42 54 3e 48 81 44 be f6 bc 4e be
       -0.00393926 0.20728579 -0.19189942 -0.2018927
000070 86 ac 10 3e 03 69 87 be ef 08 97 3e 58 20 25 3e
       0.14128312 -0.26447305 0.29499003 0.1612562
000080 2e f6 68 bd be b6 63 bd 73 45 36 be a7 b9 8d 3e
       -0.0568754 -0.0555942 -0.1779993 0.27680704
000090 b3 ef 1f be da c5 13 be 05 72 a3 3e f0 da d4 3d
       -0.15618782 -0.14430943 0.31922927 0.103933215
0000a0 4a ea b8 3d 0c 31 f9 bd 18 f2 0c be b9 b7 6d 3c
       0.09029062 -0.12167558 -0.13764226 0.014509135
0000b0 57 56 c2 bd d9 5f 94 3e ff ea 4f 3e 80 54 9c be
       -0.09489124 0.28979376 0.20304488 -0.30533218
0000c0 45 d9 f5 3d 1e 21 64 3e ef 6e 90 be 80 56 84 3e
       0.120043315 0.22278258 -0.28209636 0.25847244
0000d0 35 17 1d be d5 c0 2f 3e 0e c2 fc 3d 47 fa ae be
       -0.15340884 0.17163403 0.123417005 -0.3417532
0000e0 3e f6 1a be 73 be 80 be c0 18 81 bd 2c 1b 29 3e
       -0.15132996 -0.251453 -0.06303549 0.16514271
0000f0 92 cb 34 3c 24 d5 37 bd 36 5d 26 3e ce 63 ae 3d
       0.011034863 -0.044881 0.16246495 0.0851513
000100 ef 9f 6f 3e 21 bd cd bb
       0.23400854 -0.0062786494

bias f4 [2]
000000 3e f9 f5 3d 1e 1f 24 be
       0.1201043 -0.16027495
