models/stochseq_model=LSTM_layers=2_hidden=32.pt (torch, 56685 bytes, 10 tensors)

weight_ih_l0 f4 [128, 2]
000000 02 5a 3a bc 69 ec d3 bd 70 96 11 3d 24 9b 12 3d
       -0.011373999 -0.10347826 0.03554386 0.035792485
000010 0e 4e 8b 3e 4a 7e 14 3e 4c fb 8d be 7e 2e 37 bd
       0.27207989 0.145013 -0.27730787 -0.044722073
000020 51 9d 09 be 7a d8 8b bd 11 ea 28 3e 9d c9 eb bd
       -0.13438918 -0.06828399 0.16495539 -0.11513064
000030 15 a9 9f 3e 7e 21 cb 3c 82 b1 53 3e 1b 88 90 3d
       0.31183687 0.024796244 0.20673183 0.0705721
000040 cb 7a 6b 3e 25 96 16 3b fd 34 05 3e 16 33 40 3e
       0.2299606 0.0022977677 0.13008495 0.18769488
000050 d5 01 ef 3e 3e 6c 1d 3e de ba d2 bd 83 bb 89 3d
       0.46681085 0.15373322 -0.10289548 0.06725218
000060 b5 0e 48 be 41 cb f9 3d e8 41 92 be 54 b1 fb be
       -0.1953686 0.12196971 -0.28565907 -0.49158728
000070 e9 08 2a 3d 16 be 95 bd 7d cb 12 be 81 27 27 3e
       0.041512404 -0.07311647 -0.14335437 0.16323663
000080 36 32 9f 3e 97 85 24 bb 0f ef e6 bc 15 86 eb bd
       0.31092995 -0.002510404 -0.028190164 -0.115001835
000090 47 f8 06 3e 23 97 5a 3b 7c d8 47 3d fd a7 1d 3e
       0.13180648 0.0033354245 0.04879044 0.15396114
0000a0 0d d1 f6 3d 1e 09 40 bc 9f 6b 05 3d 2b 17 1f 3c
       0.12051592 -0.011720924 0.03257334 0.0097101135
0000b0 79 3d dd bd 37 a6 83 3d 35 d6 42 3e b3 02 dd 3d
       -0.108027406 0.06428187 0.19027026 0.107915305
0000c0 a7 4f b8 bd ad 11 aa 3d df 78 86 3d ef 19 88 3e
       -0.089995675 0.08304153 0.06566023 0.26582286
0000d0 82 f4 87 3e 55 a5 9e 3d 12 05 5c be da 13 27 bd
       0.26553732 0.07746378 -0.21486309 -0.040790416
0000e0 69 13 12 bc 36 71 af bd e1 82 c0 3a 6a a7 21 3d
       -0.008915761 -0.08566515 0.0014687442 0.0394663
0000f0 d5 05 ac be 80 85 03 bf 50 f3 fd 3d ad 02 6f bd
       -0.335982 -0.5137558 0.12399924 -0.05835216
000100 69 49 d4 3e a6 26 e6 bd 3d d4 a8 3c e9 94 43 be
       0.41462258 -0.1123784 0.020609016 -0.19099773
000110 5e a8 d5 3d 84 58 4d 3e cf cc b0 3d f7 d1 59 3d
       0.10432504 0.20053297 0.08632814 0.053178754
000120 ac d5 dd bd cc 17 4b be 16 f7 40 bd 89 7a e1 bc
       -0.1083177 -0.19833297 -0.04711064 -0.02752425
000130 ea dd 92 3c 4e c3 24 bd 6b 12 a8 3c 61 42 4e be
       0.017928082 -0.04022532 0.020516595 -0.20142509
000140 42 b7 50 be 37 de 89 3e 29 f0 f0 3c 6a 62 09 3e
       -0.20382407 0.2692735 0.029411392 0.13416448
000150 8d b8 c5 be dc e4 41 3d b3 ee 74 bd fe 9d 32 3e
       -0.38617364 0.047337398 -0.059797954 0.17443082
000160 4d 56 8f 3e e1 f5 7a 3c 91 41 82 be 4b 3e 0a be
       0.2799553 0.015317411 -0.25440648 -0.13500325
000170 93 c0 4a 3e 63 c1 f1 3c 28 73 ab 3b 0b 74 61 bd
       0.19800024 0.02951116 0.0052322336 -0.055042308
000180 56 66 2a bd 80 a9 90 be 35 8f 5b 3e 53 30 c9 3d
       -0.0416015 -0.28254318 0.21441348 0.0982367
000190 c1 5c 07 3e 26 5b 3f 3e 72 01 1d 3e b2 d2 82 3e
       0.13218977 0.18687114 0.15332583 0.25551373
0001a0 f4 c2 eb bd a9 6b 01 be 4a a0 84 3d 9c 83 71 3e
       -0.11511794 -0.12638725 0.06475885 0.23585361
0001b0 e5 b3 88 3c dc 23 d5 3b 70 6b 8f bd 7e b4 20 bd
       0.016687343 0.006504519 -0.07002914 -0.03923463
0001c0 51 46 0c be f7 d6 02 be 23 ed 31 3d 34 cf 4e 3e
       -0.13698699 -0.12777315 0.04343904 0.20196229
0001d0 bc c5 1c 3e d8 4a 34 3e 72 3a a4 3d 73 a8 19 be
       0.15309805 0.17606676 0.0801896 -0.15005665
0001e0 eb 39 15 bd 87 18 01 bd 77 94 bc 3c ec 06 a8 bd
       -0.036432188 -0.03151753 0.023020012 -0.08204445
0001f0 ab 26 00 3e cb 26 11 be d9 35 7f 3d d7 31 83 3e
       0.1251475 -0.14174955 0.062307213 0.25623962
000200 95 dd 13 3e 91 fc a9 3e 83 79 da be eb 9d ef bd
       0.14439996 0.33200505 -0.4267083 -0.11700042
000210 3f 8e 64 be 91 b9 14 be 34 a9 e3 3d 84 93 8c be
       -0.22319888 -0.14523913 0.11116257 -0.27456295
000220 14 cc 20 bc 83 7a 31 be da 00 c2 bc 66 06 93 3e
       -0.009814281 -0.17331891 -0.023682047 0.2871582
000230 09 b6 c6 3c 8c a6 9a be 91 15 2e bd ff 56 94 3e
       0.024256723 -0.3020519 -0.042501036 0.28972623
000240 59 f5 f7 be 28 aa aa be 6c 8b d9 be 38 60 a7 be
       -0.48429373 -0.33332944 -0.42489183 -0.32690597
000250 ff eb d2 be 69 12 8c be 65 67 3a be 0e 66 79 bd
       -0.41195676 -0.27357796 -0.18203504 -0.060888343
000260 33 e8 b0 be bd bd 8f 3e 7d b0 ea 3e 33 c6 4f 3e
       -0.34552154 0.28074446 0.45837775 0.20290451
000270 98 a3 3a be 0a 91 74 bd b8 98 9a 3c 47 14 72 3e
       -0.18226469 -0.059708633 0.01887165 0.23640548
000280 ee fa 94 bd 7e e7 56 3e 88 53 b2 be 8e 0e aa bd
       -0.072744235 0.20986745 -0.34829354 -0.08303557
000290 a6 21 f6 bc 41 46 91 be 9b 5a 1b 3e bb 52 af 3e
       -0.030045342 -0.28373912 0.15171282 0.34242806
0002a0 45 2e aa 3d 27 22 88 be fe 32 2c 3e 84 21 45 3e
       0.083096065 -0.26588556 0.16816327 0.19251066
0002b0 a8 31 dd 3d 36 00 61 3e c8 4d 60 3c 69 b4 65 be
       0.10800487 0.21972737 0.0136904195 -0.22432102
0002c0 cb 51 25 3d c0 09 88 3e 88 03 9d bd 56 32 a8 bd
       0.040361207 0.2656994 -0.07666689 -0.08212726
0002d0 b8 ab 01 be 93 41 8a 3e 44 03 1a be 38 c8 51 3d
       -0.12663162 0.27003154 -0.15040308 0.051216334
0002e0 62 33 d8 bb 1c 45 a0 3d b6 a8 4e bd 43 a9 5b be
       -0.006597922 0.078256816 -0.050453864 -0.21451287
0002f0 ba 4c 08 3f 97 02 4a 3e a9 a9 2a bc 78 ee 4c be
       0.53242075 0.1972755 -0.010416427 -0.20012844
000300 21 c7 9d 3e b8 98 84 be dc 48 8f 3e af 6d 87 be
       0.30815986 -0.25897765 0.27985275 -0.2645087
000310 b1 49 49 3d 82 64 77 3e 6f d9 0b be f5 3d 79 bd
       0.049142543 0.24159434 -0.13657163 -0.060850102
000320 09 a7 2f be dd a1 5b be 68 48 3a 3e 66 36 85 bd
       -0.17153563 -0.21448465 0.18191683 -0.06504516
000330 8d 9a 3f 3d 9b 69 1b 3e 79 40 c3 3d a8 49 c3 3d
       0.04677825 0.15177004 0.095337816 0.09535533
000340 55 69 97 3d fc e1 a7 3e fc 3c 8e 3e 03 38 57 3e
       0.07393137 0.327896 0.27780902 0.2101746
000350 f7 61 5d be 7b e5 ab 3e ce ec 11 3e 5e 73 64 3d
       -0.21619402 0.33573517 0.1425049 0.055774085
000360 d7 da bf bd ec 12 06 be c2 b9 de bd 7e 59 53 3c
       -0.09367912 -0.13093156 -0.10875274 0.012899755
000370 f8 0a f0 3d 4e 8e 55 be 2d c8 4c be d2 87 38 3e
       0.11720842 -0.20855066 -0.19998236 0.18020561
000380 6d fc 0b 3e 0f eb b6 bd c4 9c 8a 3a 29 26 90 be
       0.13670512 -0.089315526 0.0010575284 -0.28154114
000390 e3 d9 05 3e 83 78 bf bb 87 53 70 3d 9a 14 60 3e
       0.13071398 -0.0058432235 0.058673408 0.21882859
0003a0 71 90 74 3d 58 8f 0f 3e c3 22 79 3d 2a 3f 01 3e
       0.059708063 0.14019525 0.060824167 0.12621751
0003b0 ea 2b 24 3d e1 5e 4c be 4d f7 a0 3d b1 f3 84 be
       0.040080942 -0.19958068 0.07859669 -0.25967172
0003c0 ea 86 12 3d 3d 29 14 bd 6f 16 e3 3d 34 7d 79 be
       0.035773195 -0.03617214 0.11088263 -0.24364167
0003d0 7a e6 1b bb 39 6a 66 3e e5 50 4f 3b 53 11 89 be
       -0.0023788498 0.22501458 0.003163391 -0.2677103
0003e0 a4 07 3c bd e2 c6 39 bd a4 7a cd 3d e4 0a ed bb
       -0.045905724 -0.045355685 0.100331575 -0.0072339643
0003f0 c8 f8 8f 3e d4 86 62 be 89 c2 ae bb 14 69 f2 3d
       0.28119493 -0.22121745 -0.005333249 0.11836448

weight_hh_l0 f4 [128, 32]
000000 7b 9d 54 be 23 e7 35 be 42 42 a8 be 80 6d b4 3e
       -0.20763199 -0.17763953 -0.3286305 0.35239792
000010 54 45 b8 3d c4 9d 21 3e 61 54 eb bd 2d 7a ca 3d
       0.08997598 0.15782839 -0.114907034 0.098865844
000020 8f c5 1d bf f9 ff 0a bf 44 bc f9 be 48 e5 fb be
       -0.61629575 -0.54296833 -0.48776448 -0.49198365
000030 8d 09 e7 3d 58 2c 9d be db 0b 03 bf 6f 24 83 3e
       0.112811185 -0.30697894 -0.51189965 0.25613734
000040 2c 48 33 3e 67 80 b7 3e ec b9 e4 be 95 1c c2 3e
       0.17508 0.3584015 -0.44673097 0.3791243
000050 b8 14 41 be f1 cc a4 3e 2c 28 9e 3c e8 1a 1c 3e
       -0.1885556 0.32187608 0.019306265 0.15244639
000060 e3 e9 5d 3e ec b7 1f be cd 64 b6 3c d8 c0 c7 3e
       0.21671252 -0.15597504 0.022264862 0.39014316
000070 9b 81 72 3e 42 8d 62 be f4 b6 84 bd 94 c2 24 be
       0.23682253 -0.22124198 -0.06480208 -0.1608985
000080 f1 7f 1e 3d de 66 01 bc 4d 0d 6d bd 7d 80 f7 be
       0.038696233 -0.007898061 -0.057874013 -0.48340216
000090 a6 53 1b bd 6b 34 14 3e 45 e2 af be 9f 2c d9 3d
       -0.03792157 0.14473121 -0.34352317 0.10604214
0000a0 82 e7 92 be fe ef af be 22 b1 76 bd db 59 98 be
       -0.2869225 -0.34362787 -0.06022752 -0.29756054
0000b0 78 dd de ba a1 08 0c be de 96 25 be 73 bd 2e 3e
       -0.0017003259 -0.13675167 -0.16170833 0.17064457
0000c0 9f d4 fb 3d 8b 88 fb 3d 8c 9f d7 bd 17 d8 5a 3e
       0.12296414 0.12281903 -0.10528478 0.21371494
0000d0 b8 25 34 be 34 21 0d 3e 14 31 c4 3c be b4 7c 3e
       -0.17592514 0.13782197 0.023949184 0.24678323
0000e0 bd 3f f3 bc a5 23 12 be 5b cd 84 3e 76 0c cd bd
       -0.029693479 -0.1427141 0.25937924 -0.10012142
0000f0 ea f6 ba 3e 5d 3a e1 bd eb 06 48 be ec ec cd bd
       0.36516505 -0.1099746 -0.19533889 -0.10054955
000100 24 57 cf bd a2 b2 04 3e 3c 08 46 3c 3b af 3b 3d
       -0.10124043 0.12958768 0.012086924 0.04582141
000110 51 3e 02 3e f1 24 33 3d 2e 33 6c bd 57 20 bd 3d
       0.12719084 0.043736402 -0.057665996 0.09234684
000120 11 3b 25 3d 35 b0 4b be 1c 0c 3c bd d9 36 02 3e
       0.040339533 -0.19891436 -0.045909986 0.12716235
000130 9b 4a 0a bc d3 26 88 3d 58 0a 08 bc 2e bb 78 3e
       -0.008440639 0.0664803 -0.008303247 0.24290153
000140 1b c7 4f bd 17 a9 78 3e 19 16 dd 3d 12 e6 38 3e
       -0.05072699 0.24283253 0.107952304 0.18056515
000150 58 ac 47 3e 06 bb 1c bd 33 db 5a be 9b 6d 76 3e
       0.19499338 -0.038264297 -0.2137268 0.24065249
000160 75 a5 7c 3d a7 33 3a bc 95 48 eb 3c e2 c6 8a 3e
       0.06168123 -0.011364854 0.028721133 0.2710486
000170 fc a6 ef bb db 83 40 3e 88 eb 91 3d d0 16 05 3d
       -0.0073136073 0.18800299 0.07125002 0.03249246
000180 ed 5d 06 bd 8c 2e ac bc 6c 0f 98 bc e8 08 a8 3e
       -0.03280442 -0.021018289 -0.018562041 0.32819295
000190 c6 77 8f bd f1 67 5a 3b ca 5b 17 be 2f 13 75 3e
       -0.07005267 0.0033326114 -0.14781108 0.23933099
0001a0 bd 9d 3f be bc 48 ad bd 72 0d 64 bd ab 24 72 bc
       -0.18712516 -0.084611386 -0.055676885 -0.01477925
0001b0 d5 c4 84 3e 18 b5 42 be 5a da 8c be 31 a1 56 3e
       0.2593142 -0.19014394 -0.2751034 0.20959927
0001c0 58 4c 0f 3d c4 eb 59 3e c1 3f 6a bd 2f aa 69 3e
       0.034984916 0.21281344 -0.057189707 0.22818826
0001d0 c8 ce 7b bb f4 9f 11 3d ac 62 0a bc 5e 5f bf bc
       -0.0038422812 0.035552934 -0.008446377 -0.023360904
0001e0 12 0b ac 3e 3b 39 84 3b 41 09 75 3e 60 87 85 3d
       0.33602196 0.0040351427 0.23929311 0.06519961
0001f0 38 cf 31 bd d3 f9 18 bd aa 05 1d be 88 ce 63 be
       -0.04341051 -0.037347626 -0.15334192 -0.22246754
000200 7c ab e8 bd c1 15 82 bd 35 9c ab bc c4 72 6e 3b
       -0.11360833 -0.063518055 -0.020948509 0.0036384324
000210 17 a4 28 3d b1 73 27 3e 21 a1 44 bd 4c ce 1f be
       0.041172113 0.16352727 -0.048005227 -0.1560604
000220 e8 d8 05 be b2 ba ad bd 83 5b 05 be fd 2c 1f be
       -0.13071024 -0.08482875 -0.1302319 -0.15544505
000230 d3 d6 8a 3c 6a 87 cb 3c c5 df 3e 3d 37 00 85 3e
       0.01694814 0.024844844 0.046600122 0.25976726
000240 79 d7 37 bb 01 a5 a3 3d 4f 7a e2 bd 85 6d 6a bd
       -0.0028052016 0.07990456 -0.11058485 -0.057233352
000250 c3 4e 9a bc 66 21 a3 bc 37 ab 24 be 95 7c eb bd
       -0.018836385 -0.019913387 -0.16080938 -0.114983715
000260 15 e7 4e 3e ec b6 23 be 48 ca 5c 3e 09 de a3 3d
       0.20205338 -0.15987748 0.21561539 0.08001334
000270 08 b8 c1 3d 6f 58 1e 3e ec 77 58 be be 2c 13 be
       0.09458929 0.15463422 -0.21139497 -0.14372537
000280 41 d7 8b be 6e be c0 3d f2 da 4a be 53 96 0f 3d
       -0.27312663 0.094113216 -0.19810084 0.03505547
000290 7d 76 8b 3e 62 a3 39 3d 36 15 53 be 5b 49 74 be
       0.27238837 0.04532183 -0.2061356 -0.23856108
0002a0 cd d1 52 be 06 35 3a be 05 dd bd bc b2 15 d0 bc
       -0.20587845 -0.1818429 -0.02317668 -0.02540097
0002b0 e3 02 b2 3d f7 1e 05 bd 7e 86 bd bd 8c d3 14 3e
       0.08691957 -0.032500234 -0.09254168 0.14533824
0002c0 6c 4b 7c 3d 94 29 8b ba bb 1f 9b be ec c6 49 3e
       0.061595365 -0.001061725 -0.30297646 0.19704789
0002d0 89 c4 82 be e8 03 d4 bc 44 a8 f5 bc 31 92 1e 3d
       -0.2554057 -0.025880769 -0.029987462 0.038713638
0002e0 ac 0a 8a 3e ec 39 b0 bd c5 fc 81 3d 43 ba 07 bc
       0.26961267 -0.08604798 0.0634704 -0.008284154
0002f0 eb 6f 64 3e 8d b2 2f 3e bf 98 4c be 49 6f 9a be
       0.22308318 0.17157955 -0.19980143 -0.3016303
000300 88 e3 8d 3c 7e ee e3 bc 20 ae 55 be 26 14 ce 3d
       0.01732041 -0.027823683 -0.20867205 0.10062437
000310 f5 d2 f6 3c c5 b0 a5 bd cd 1a b1 3c 09 48 e4 bc
       0.030129889 -0.08090357 0.021619225 -0.02786638
000320 32 1c ce 3c 7e 9a 81 be 94 ed 9f be 8f 88 99 be
       0.025159929 -0.2531318 -0.31235945 -0.29986998
000330 79 af 1e 3e 81 9a 6d be e0 70 24 be b2 b4 80 3e
       0.15496625 -0.2320347 -0.16058683 0.2513786
000340 1f 14 21 bd cd e6 5d 3e 78 9a 6c be bf d7 b2 3c
       -0.03932583 0.21670075 -0.231058 0.021831391
000350 ae 5e f7 bd c9 e3 88 3e c9 87 29 be c5 e9 1a bd
       -0.120786056 0.26736286 -0.16555704 -0.037820596
000360 b2 78 01 be 3d 98 96 be 82 af 2f 3b ad d7 42 3e
       -0.12643698 -0.29413024 0.0026807492 0.19027586
000370 fa 29 5f 3e dc b6 0c 3d 09 81 2b be d5 36 f9 bd
       0.21793357 0.034354076 -0.16748442 -0.121686615
000380 36 f5 34 be bb 9f 42 3e 88 9d 96 be 72 0d 8a bd
       -0.17671666 0.19006245 -0.29417062 -0.06740846
000390 60 e2 16 3e 23 f3 31 3d 7a 85 84 bc 5c 63 0f 3e
       0.14734793 0.043444764 -0.016176928 0.14002746
0003a0 ae 04 36 be 82 1e 85 be 26 84 01 be a1 dd 02 bd
       -0.17775223 -0.25999838 -0.12648067 -0.031949643
0003b0 9e c3 8f 3e 31 08 13 be 6b 42 84 be 9e 6b 75 3e
       0.28078932 -0.14358594 -0.25831923 0.23966834
0003c0 17 b8 54 be 60 e9 67 3e 09 ea b4 bd 8f 3f 31 3e
       -0.2077335 0.22647619 -0.08833701 0.17309402
0003d0 b7 12 4c bd c2 46 52 3c aa a2 69 be 1a da 5c 3e
       -0.049822535 0.012834253 -0.22815958 0.21567574
0003e0 e3 cd 4f 3e f4 b8 6a be cf fb 41 3e 02 95 62 3e
       0.20293383 -0.22922117 0.18943714 0.22127154
0003f0 a1 41 a3 3d b4 ed 08 be 0b db b6 3c 09 4c c2 bd
       0.07971502 -0.13371927 0.022321245 -0.09487159

bias_ih_l0 f4 [128]
000000 ed c4 00 3f 07 a3 e8 3e e3 89 c4 3e d2 9b a4 3e
       0.50300485 0.4543688 0.3838645 0.3215013
000010 2c 90 ca bd 18 b2 4b 3e 96 29 5a 3e 8e 66 94 3e
       -0.0989078 0.19892156 0.21304926 0.28984493
000020 20 94 04 3f f5 df ea 3e b8 5a 13 3f 90 1b d4 3a
       0.5178852 0.4587399 0.575603 0.0016182531
000030 3c 61 f0 3e e9 59 07 3f f3 6f bb 3e f8 ce 09 3e
       0.46949184 0.52871567 0.36608848 0.13457859
000040 21 48 41 3e 09 b8 bd 3e 59 6a 9e 3d e8 20 ca 3d
       0.18875171 0.3705447 0.07735128 0.098695576
000050 cd df bf 3d 86 af 97 3d b1 d9 a1 3d fa ce 17 3e
       0.093688585 0.07406525 0.079028495 0.14825049
000060 50 e2 93 bb 6f 39 17 3e 8a bd 81 3e f4 c6 c7 3d
       -0.0045130625 0.14768003 0.2533992 0.09754744
000070 2e 4a 1d 3e 6b 1e 14 3e ad e8 3e 3f 49 46 a7 3e
       0.15360329 0.14464729 0.74573785 0.3267081
000080 8a f4 88 3e 66 44 a8 3d 98 0d 34 3e c7 3c ad bc
       0.26749068 0.08216171 0.1758331 -0.021147145
000090 a8 74 db 3d 9b c1 83 bd 94 18 93 bd 29 18 18 be
       0.1071561 -0.06433412 -0.07182422 -0.14852966
0000a0 59 a5 a2 bd d7 81 dd 3c 45 44 6c 3e 73 24 53 3d
       -0.07941694 0.027039452 0.23072918 0.051548433
0000b0 26 a0 b4 3d d2 c8 d8 bc 13 2b a0 3d d8 fb 3e bd
       0.088196084 -0.026462946 0.07820716 -0.046626896
0000c0 5f 89 4c be 68 9f dd 3c 0f 16 a3 bb f7 60 04 be
       -0.19974278 0.02705355 -0.004976995 -0.12927614
0000d0 44 d1 93 3d 3d 11 3d 3e e8 8f 87 3d bf 6b 5b bd
       0.072176486 0.18463607 0.06619245 -0.05356955
0000e0 5f 9d a5 bb 26 4f 17 bd a1 7a f5 bd 4e 68 d0 bd
       -0.0050541605 -0.036940716 -0.1198628 -0.101761445
0000f0 5e c9 38 3e b2 32 7f 3d c0 23 20 be cd 6d 51 be
       0.18045565 0.062304206 -0.15638638 -0.20452042
000100 fc b0 49 be 1b b9 10 3e 03 40 ca be d0 76 48 3e
       -0.1969642 0.14133112 -0.39501962 0.19576573
000110 ff d6 bf 3d 56 4f 29 be 37 97 bf 3c 51 50 fd bd
       0.09367179 -0.1653417 0.023387535 -0.12368835
000120 fd cc 92 be c9 42 ad be 16 13 be be db 88 a5 3c
       -0.2867202 -0.33840016 -0.37123936 0.02020686
000130 31 3a e7 3e 80 0b 89 be f8 0a 95 be a5 0a 78 3e
       0.45161584 -0.26766586 -0.2910993 0.2422281
000140 4f 6f d1 bd 1c c2 d2 3e f1 76 a7 bd 8f c6 2a 3e
       -0.102263086 0.4116372 -0.08176983 0.16677307
000150 ef 02 c5 bc 32 2c 87 3d 5b 22 5d be d3 16 01 3e
       -0.02404925 0.066002265 -0.21595137 0.12606363
000160 36 2c d7 3d 4e 99 c8 be 3a 3c f6 3c cd af b7 3e
       0.105064794 -0.39179462 0.030058015 0.35876313
000170 73 f5 16 3b de 2d 2d bd 07 c6 95 be c3 81 a8 3c
       0.0023034483 -0.04228007 -0.29252645 0.020569688
000180 4a 26 6a 3d 5c 17 fa 3d 2d d4 27 3e 2f f7 ea 3e
       0.05716542 0.12211487 0.16389532 0.4589171
000190 78 6f 81 3e 07 82 8d 3e 73 93 4d 3e 05 2f 31 3e
       0.25280356 0.27638265 0.20075779 0.17303093
0001a0 f8 ad d9 3d bd 8c eb 3e 88 2f c4 3e 23 99 1c bd
       0.10628885 0.46005812 0.38317513 -0.03823198
0001b0 e0 96 45 3e 8e fb 7c 3d ff b3 3b 3e 5b be 15 3e
       0.19295835 0.06176334 0.18330382 0.14623396
0001c0 52 ef 76 3e da 5c 19 bb b0 65 02 3e 92 ec 3d 3e
       0.24114731 -0.002340129 0.12734103 0.18547276
0001d0 93 11 03 3e 70 3b be 3c ec 43 68 3e e6 1e fa 3d
       0.12799673 0.023221701 0.2268216 0.12212925
0001e0 55 f4 75 3e dc df 85 bd 6c cc ad 3e e6 43 6a 3e
       0.24018987 -0.065368384 0.33945024 0.22877464
0001f0 f3 ed 71 3e 86 cc 95 3e ba 80 8e 3e 48 98 91 3e
       0.23625927 0.29257601 0.27832586 0.28436494

bias_hh_l0 f4 [128]
000000 e7 de 90 3e 47 1f f7 3e a0 20 a7 3d 6a 08 aa 3e
       0.2829506 0.4826605 0.081605196 0.33209544
000010 5e 3c 30 3e 9f 1e 87 3e 2d 9c a1 3e 64 ad 19 3e
       0.17210528 0.2639055 0.31564465 0.1500755
000020 81 c8 8f 3e 42 0a 2a 3f 94 9a 0a 3f e6 84 1f bb
       0.2808266 0.664219 0.5414212 -0.0024340688
000030 7a 9c 14 3f f1 f3 12 3f c1 28 03 3f 04 9e 86 3e
       0.58051264 0.57403475 0.5123406 0.2629243
000040 2d f3 a5 3b 82 6e af 3e 65 b7 d0 3d 81 4f 13 3e
       0.005064389 0.34263998 0.1019123 0.14385797
000050 5f 7c d3 3e ee da a0 3e ef 46 a3 3b 10 ca d2 3d
       0.41305825 0.3141703 0.004982821 0.102924466
000060 7f e8 09 3e 60 15 d1 3e ff e1 63 3e a3 4b a6 3e
       0.13467596 0.4083662 0.2225418 0.3247958
000070 24 6c aa 3d c8 a6 b3 3e ed af 11 3f eb b1 c7 3e
       0.083214074 0.35088181 0.56909066 0.39002928
000080 8a bb 50 3e 1d 63 24 3e ba 15 59 3e e2 2c c8 bd
       0.2038404 0.16053434 0.21199694 -0.09774186
000090 53 31 73 bb 18 81 7f bd dc 69 29 3c 03 d7 91 3d
       -0.0037108257 -0.062378973 0.01034018 0.07121088
0000a0 8a fb 20 3e d1 ba 93 bd a2 1b b0 3d d0 85 be 3d
       0.15720955 -0.07213367 0.085990205 0.093028665
0000b0 6e 44 0b 3e b5 ba 4f 3d 7e 8e 9b 3e 93 6f 1f 3e
       0.13600323 0.050715167 0.3038215 0.15569906
0000c0 6f 3a e1 3d 10 d8 87 bb 09 65 e2 bb 86 95 b3 3d
       0.109974734 -0.0041456297 -0.006909017 0.08768754
0000d0 83 ca ba 3b 35 39 31 3e 84 04 a4 3d 2d 21 ce 3d
       0.005700411 0.17306979 0.08008674 0.100649215
0000e0 94 4b 04 bd 5a 49 a4 bb 08 37 77 bd ca 76 74 bd
       -0.03229864 -0.005013627 -0.060355216 -0.0596836
0000f0 d5 d6 e3 bd 1f 84 0c be 2b ed 80 bd 79 89 86 3d
       -0.1112496 -0.13722275 -0.06295236 0.065691896
000100 50 8c e9 be 80 24 87 bd a6 b7 c9 be 4b 5a 76 3d
       -0.45614862 -0.06598759 -0.39397925 0.060144704
000110 05 87 71 bd 64 70 0d 3e 88 cd a2 bd 55 47 01 3e
       -0.058966655 0.13812405 -0.07949358 0.12624867
000120 40 c4 f3 be 41 37 bc be f2 35 de be cc 04 9c be
       -0.47610664 -0.36760905 -0.43400532 -0.3047241
000130 09 d6 ea 3e 8c 23 06 bf ed 89 e1 be 56 77 74 3e
       0.4586642 -0.5239799 -0.44050542 0.23873648
000140 b6 83 28 3e cc 3b ca 3e e6 fb 5b be 84 ba 57 3e
       0.16456494 0.39498746 -0.2148281 0.21067244
000150 a2 4d 6d be a4 3a a6 3e 47 c9 bb bd ea 0e 6c 3e
       -0.23174146 0.32466614 -0.0916925 0.23052564
000160 ad ee e8 bc de 59 d9 be e6 f7 53 3d f0 ec 87 3e
       -0.028434122 -0.42451376 0.051750086 0.26547956
000170 e3 4c 97 3e 79 b2 28 3e b6 f9 a0 be be 6f ce bd
       0.29550847 0.16474332 -0.31440514 -0.10079907
000180 9c 63 77 3c 4d 66 8f 3e c1 ca a4 3d c6 78 0c 3f
       0.015099432 0.28007737 0.08046485 0.54871786
000190 0e 9d d5 3d 98 07 dc 3d f4 ad ba 3d b5 f7 79 3d
       0.104303464 0.10743636 0.0911521 0.061027247
0001a0 25 d1 2b 3e 60 22 05 3f cb 80 be 3e e9 a4 c1 bd
       0.16779001 0.5200558 0.37207636 -0.09455282
0001b0 ad 34 a7 3d a5 c9 b5 3d 8b dc 56 3e b2 e3 6c 3e
       0.08164344 0.08876351 0.20982568 0.23133734
0001c0 c4 9c b7 3e 4d bc 90 3e 89 2f 2f 3e b6 b2 88 3e
       0.3586179 0.28268662 0.17107977 0.26698846
0001d0 5b cc 3c 3e 36 f5 25 3d 10 25 57 3e 90 38 cd 3d
       0.1843733 0.040517054 0.21010232 0.10020554
0001e0 18 39 da bb 5e 62 b3 3d 9e 26 32 3e 1f 02 81 3e
       -0.006659638 0.087589964 0.17397544 0.2519693
0001f0 47 a3 a4 bd ee 4f c1 3e fb d1 94 3e bc 00 82 3e
       -0.08038955 0.37756294 0.29066452 0.25391185

weight_ih_l1 f4 [128, 32]
000000 97 4d e3 3c 39 23 0f 3e 88 00 34 bd 3d ac e8 bd
       0.027746959 0.1397828 -0.04394582 -0.11360977
000010 c3 a4 41 be 20 2e 4d bd 17 ca 6c be b8 9c 13 3e
       -0.18910508 -0.050092816 -0.23123966 0.14415252
000020 03 65 11 bd 54 37 04 be 71 86 32 be e3 e2 ab 3c
       -0.035496723 -0.12911731 -0.17434098 0.020982211
000030 0a 8e 22 3d 7e 35 44 be 07 86 16 be 6d 62 59 bd
       0.03968624 -0.1916103 -0.14699565 -0.05307238
000040 78 4e 28 3e 4c eb c2 3d 0c 78 06 bd 9b 94 84 3e
       0.16436183 0.095175356 -0.03282933 0.25894627
000050 a5 69 11 be e5 cd b5 3c 4d c1 0d be 9a e4 cd 3d
       -0.14200456 0.022192905 -0.1384327 0.10053368
000060 b8 5e 13 3e 91 06 67 be 50 87 f5 3d 03 ba ac bb
       0.14391601 -0.22561099 0.119886994 -0.0052711978
000070 3c a5 75 3e 6a 6c 4f be 61 94 2a be 16 60 48 be
       0.23988813 -0.202562 -0.16658165 -0.19567904
000080 d5 80 ba be 93 48 a9 3e 2d e8 ca be 22 d6 0a 3e
       -0.36426416 0.33063182 -0.3963026 0.13558248
000090 71 a2 a6 3c b5 3f 23 be 54 2d f8 3d d5 b1 7a be
       0.02034113 -0.15942271 0.12118021 -0.244819
0000a0 b6 2e bc be 17 4b 8b be 1c ae 50 be 64 c0 a3 3b
       -0.36754388 -0.27205727 -0.20378917 0.0049973
0000b0 36 be 64 3e 02 35 91 be 1d e1 1a be 41 ef c2 3e
       0.22338185 -0.28360754 -0.15124936 0.3807316
0000c0 ab 7e 87 bc 0d f9 ca 3e 4d 7b 49 be c4 20 7f 3e
       -0.016539892 0.39643136 -0.19675942 0.24914843
0000d0 ea b8 e7 bd b2 a5 dc 3d d0 3c a0 bd ac 8a 93 3d
       -0.113145664 0.107737914 -0.07824099 0.07204184
0000e0 39 0c ee bd 46 9b a7 be 2e 68 1a bd de 4d 45 3e
       -0.11623425 -0.32735652 -0.03769701 0.19267985
0000f0 00 86 37 bc f4 9f b2 3d 0b a6 8b be 37 70 1e be
       -0.011201382 0.08721915 -0.27275118 -0.15472494
000100 ee 93 98 3c 2f c1 cd 3d 1e 3f 6f 3d d3 b6 48 3e
       0.018625226 0.100466125 0.058409803 0.19600992
000110 e2 d9 25 3e ae c3 b7 3d 2d 39 6f be 82 00 36 3d
       0.16196397 0.0897287 -0.23361655 0.044434078
000120 bf cf 5c be eb e3 36 bd b3 10 42 be 89 6b 38 be
       -0.21563624 -0.044650953 -0.18951683 -0.18009771
000130 07 83 06 3e 8d 33 65 bc 06 b1 6e be fc 59 99 3d
       0.1313592 -0.013989341 -0.23309717 0.07487866
000140 ad 42 b5 3d b6 ef a5 3d 98 83 10 be 3f c4 4f 3e
       0.08850608 0.08102362 -0.14112699 0.20289706
000150 2a 23 79 3d d1 6a cc 3b 70 eb 03 3d d1 de 42 3e
       0.06082455 0.0062383194 0.032206953 0.1903031
000160 fb 32 e1 3d 5d f6 5d bd 9a 94 46 3e 9a b2 1d bd
       0.10996052 -0.05419003 0.19392624 -0.038500406
000170 70 cc 50 bd 25 bf 9b bd 8d 65 f6 bd c1 1f c5 3d
       -0.050976217 -0.07604817 -0.12031088 0.09625197
000180 43 2c b8 3d f3 9a 24 3d 19 df 98 3d 12 c9 50 bd
       0.08992817 0.040186834 0.074644275 -0.050973006
000190 1a e7 ff bd d9 d0 b0 bd 2a fd fb bd e1 e3 29 3d
       -0.12495251 -0.086335845 -0.123041466 0.041477088
0001a0 ce 59 22 3c 74 e5 23 bd b1 4c d1 bc 18 27 16 be
       0.009909106 -0.040013745 -0.025549265 -0.1466335
0001b0 63 c3 ca bd 67 5f c3 bd a0 35 07 be 77 dc 50 3e
       -0.09900548 -0.09539681 -0.1320405 0.203966
0001c0 25 f9 2a 3e ab 65 b1 3d 0a 55 fd bd be e2 45 3e
       0.16696604 0.0866197 -0.123697355 0.19324777
0001d0 85 47 e3 bd 90 d8 5d 3e f4 c4 45 3e 55 af 5c 3d
       -0.11097626 0.21664643 0.19313413 0.053878147
0001e0 95 12 c8 3c d1 21 b0 3c 07 61 a5 bd 17 8a b0 3b
       0.024422923 0.0215005 -0.08075147 0.0053875553
0001f0 d5 a0 11 3e 31 87 08 bd bd 1f 67 be ab 3a 5c be
       0.14221509 -0.033332054 -0.22570701 -0.21506755
000200 bd db 68 be 36 55 5f 3e df bf b0 be 48 e5 96 3d
       -0.22740074 0.21809849 -0.34521386 0.07367951
000210 ed 13 f3 3c 6e 50 92 bb 51 8e 7e be ee 75 d5 3d
       0.029672587 -0.0044651544 -0.24858977 0.10422884
000220 ac 53 ba be b7 ff 91 be 5e 18 87 be 10 f9 3f be
       -0.36391962 -0.28515407 -0.26385778 -0.18747354
000230 71 e4 22 3e 7c 1c 45 be a3 d3 e1 be f3 61 b6 3d
       0.15907456 -0.19249147 -0.44106779 0.08905401
000240 46 6b 06 3c 0b a8 9c 3e 1e f7 4d be 4d a9 b4 3e
       0.008204287 0.30596957 -0.20113799 0.35285416
000250 f8 28 62 be 4d c3 bc 3e cb 57 0f be 5b 58 ad 3e
       -0.22085941 0.36867753 -0.13998334 0.33856472
000260 12 86 97 bd 6f e2 c8 be 6c 86 a3 3e 52 67 2b 3e
       -0.07398619 -0.39235255 0.31938493 0.16738632
000270 7b 39 31 3e 0a b0 36 bb 99 38 96 be 1a af 81 be
       0.17307083 -0.0027875924 -0.29340056 -0.25328904
000280 29 39 4c be 4b ee 44 3e b9 ab 1c 3c 8d b0 0d 3d
       -0.1994368 0.19231527 0.009562426 0.0345922
000290 aa a5 ed 3d ef 56 3f be 48 a6 01 3c be e9 66 bc
       0.116038635 -0.18685506 0.00791318 -0.014093814
0002a0 81 fe b9 bd 3b e3 1a be b7 c7 b7 bd f7 78 38 be
       -0.09081746 -0.15125744 -0.089736395 -0.18014894
0002b0 c1 51 42 3e db c7 e7 bd c8 d3 be bd f4 e0 64 ba
       0.18976499 -0.11317416 -0.09317738 -0.00087310304
0002c0 58 2e 66 3d 2e 33 0e 3d 84 40 e1 bd eb 7d 51 3d
       0.05619654 0.034716778 -0.109986335 0.051145475
0002d0 1f c9 1c 3e 00 b9 e0 3d 8b d7 d9 3c 45 03 8e 3c
       0.15311097 0.10972786 0.026592037 0.017335543
0002e0 5e 40 d5 3d 94 51 5f be 6b 2c 9d bd 57 53 4d 3e
       0.10412668 -0.21808463 -0.07674488 0.20051323
0002f0 4e 01 19 3e f0 41 03 3d d5 72 30 bd d4 29 05 be
       0.14941904 0.032045305 -0.043078262 -0.13004237
000300 35 3b 08 bf 5c df 06 3f de 08 37 bd a9 5c a4 3e
       -0.5321534 0.5268457 -0.04468619 0.32101944
000310 59 1c 0d 3f 31 e7 ac be 25 f4 87 3e 26 f9 ec be
       0.5512138 -0.33770135 0.26553455 -0.46283835
000320 98 5b 66 bc 78 90 df bd 80 c4 77 be 75 b7 70 be
       -0.014059924 -0.10916227 -0.24196053 -0.23507483
000330 7e af db 3e 16 8e 3e bf 83 62 cd be 53 d3 51 3e
       0.42907327 -0.74435556 -0.4011422 0.2049077
000340 ed f2 5b be 18 07 08 3f ce 3e 7a 3d ea aa a2 bc
       -0.21479388 0.53135824 0.06109505 -0.019856889
000350 02 32 72 be bb 47 45 3e 79 db 93 be fb da a5 3e
       -0.23651889 0.19265644 -0.28878382 0.3239363
000360 d2 ea 3a be 68 85 71 be a6 70 45 3e 74 c5 15 3f
       -0.1825364 -0.23586047 0.19281253 0.58504415
000370 c4 fe de 3e 4f 99 0f 3f 79 f9 1d bf ce d1 31 3e
       0.43553746 0.56093305 -0.6170879 0.1736519
000380 c4 76 c8 be c5 f7 26 3f 0a 07 bc be 1d d1 87 3e
       -0.3915311 0.65221816 -0.3672412 0.26526728
000390 bf ce c8 3e bc 50 be 39 d5 54 e2 bd da dd 09 bd
       0.39220235 0.00036299776 -0.11051337 -0.03365884
0003a0 e2 47 d6 be fb 52 13 bf 8a 30 66 be a7 c1 18 bd
       -0.41851717 -0.57548493 -0.22479454 -0.037294056
0003b0 3c cf 1e 3f 74 b6 07 bf a6 f4 b7 be 7c 63 14 3f
       0.62034965 -0.53012776 -0.3592884 0.579643
0003c0 29 94 14 3e 45 27 35 3f 72 12 a0 be d1 f3 38 3e
       0.14509644 0.70763046 -0.31264073 0.18061759
0003d0 03 15 13 bf 6f c5 c5 3e f2 9f 19 bf 2a 14 bd 3e
       -0.57453936 0.38627192 -0.6000968 0.36929446
0003e0 23 29 14 3e 11 2b 05 bf 24 4a a9 3e 10 5d 29 3f
       0.14468817 -0.5201884 0.33064377 0.6615763
0003f0 eb 60 77 3e 6a 59 20 3f 37 01 00 bf f6 17 ca bc
       0.24158065 0.62636435 -0.50001854 -0.024669629

weight_hh_l1 f4 [128, 32]
000000 30 29 98 3d 0d 56 87 bd a7 33 36 3e cc ba 52 bd
       0.07429731 -0.0660821 0.17793141 -0.051447675
000010 9b 1a c1 3d 56 7c 58 bd f5 e9 a5 bd 61 43 86 3e
       0.09428903 -0.05285295 -0.081012644 0.2622328
000020 90 ad 0d 3e cb 4f 6e 3d f4 af 0d bc 6e 80 0e 3e
       0.1383574 0.058181565 -0.0086479075 0.1391618
000030 73 c2 e1 3d ff b1 db bd 30 d0 d9 3d 04 ab 81 3d
       0.11023416 -0.107273094 0.10635412 0.06331447
000040 36 1a d7 3d 82 f0 aa be 5d f0 e2 3d 97 70 d3 3d
       0.10503046 -0.33386618 0.11081002 0.10324209
000050 7a 7c 57 3e b0 b6 a9 3d 3b 79 ce 3d ba 50 3e be
       0.21043578 0.08286798 0.100817166 -0.18585482
000060 b1 a3 3d 3c d5 87 9e 3c 9c 98 bd bd ee 64 6e 3d
       0.011574672 0.01935188 -0.092576236 0.058201723
000070 ba 66 4a 3e 50 3d da 3a 43 4d 98 3b 56 fb 87 bc
       0.1976575 0.0016650353 0.004647882 -0.016599339
000080 5d b8 80 be e7 63 d7 3d 3f 7c 26 3e cc 3d 42 3d
       -0.25140658 0.10517102 0.16258334 0.047422215
000090 01 19 14 3d e7 43 b0 3d 6e 42 7c be 08 5a 15 3d
       0.036156658 0.08606701 -0.24634716 0.036462814
0000a0 30 31 45 3d 5b 6a 71 be 18 bd 67 bd 55 2f 46 3e
       0.048142612 -0.23575728 -0.05657682 0.19353993
0000b0 45 fa 60 3d 4d 43 f0 bd e5 fa 2c 3e f2 0e 7a 3e
       0.054926176 -0.117315866 0.16892584 0.24419764
0000c0 ed 5e b1 3e 88 25 55 be 2d 83 a7 3e b7 bf 88 3e
       0.34642735 -0.20815098 0.32717267 0.26708767
0000d0 e6 07 35 3d 0b 10 07 be 98 04 99 3d 83 1a 20 bd
       0.044196986 -0.13189714 0.07471579 -0.039087784
0000e0 63 19 cf bd 84 61 67 3d 72 40 b8 3d 49 2e d0 bc
       -0.10112264 0.056489483 0.08996667 -0.025412695
0000f0 ce 8e a9 3d 1d 49 c0 3c 3d b3 bf bd 6a 9a f6 3d
       0.08279191 0.023472363 -0.09360359 0.12041171
000100 f0 d4 f1 3c 2b c6 14 3e bf 52 57 be f6 12 4e 3e
       0.029520482 0.1452872 -0.21027659 0.2012442
000110 33 94 48 ba 6c d5 67 be 0f 98 3e bd 24 6a 72 3e
       -0.0007651478 -0.22640008 -0.046531733 0.23673302
000120 aa a2 2c 3c 94 8b 56 3d fc d8 83 be ce 3e 88 3e
       0.010536829 0.052379206 -0.25751483 0.26610416
000130 e4 86 3a bd 2d 4f 45 3e 6e 59 01 3e 36 93 53 3e
       -0.045538798 0.19268484 0.12631771 0.20661625
000140 db 25 e0 bd a8 9a 83 bc 74 39 49 3e 8c 44 c9 bd
       -0.1094472 -0.016064957 0.19650823 -0.098275274
000150 90 81 0b 3e 44 f2 74 3d 14 1f f3 3d b1 b5 34 be
       0.13623643 0.059801355 0.11871162 -0.17647435
000160 09 63 87 3d 91 8d 04 be 21 54 3b be 45 b6 85 3d
       0.06610686 -0.12944628 -0.18293811 0.06528906
000170 55 4c 5a 3e f3 3b 1b 3d 78 fc 7c bc 12 e8 73 bd
       0.21318181 0.03789897 -0.015441053 -0.05954749
000180 e5 7a f6 bd cf 8e 47 3d 17 b7 99 bc 0f b6 de bc
       -0.12035159 0.048720177 -0.018764062 -0.027186422
000190 ea c8 9f 3c 54 02 04 be 7d e5 de bc 76 06 91 3e
       0.019504983 -0.12891513 -0.027209038 0.28325242
0001a0 32 14 37 bd cd c8 38 3d 9e d5 5f be c4 a0 5b 3c
       -0.044696994 0.045113374 -0.21858832 0.013405029
0001b0 2e 42 df 3c a6 d2 1a 3e 19 c0 21 bd d0 c4 1c 3e
       0.027253237 0.15119419 -0.03948984 0.15309453
0001c0 1c 08 80 bd 7a 5b 29 bd 03 9f c5 bc a6 b4 0e 3e
       -0.06251547 -0.041347004 -0.024123674 0.139361
0001d0 ab e9 14 bb e0 2a 32 be 7b 78 46 3e 37 07 b1 bd
       -0.0022722285 -0.17399168 0.19381897 -0.08643954
0001e0 63 6f 7a bd b9 41 b2 3d 9d d0 b6 bd 78 54 18 be
       -0.061141383 0.08703942 -0.089265086 -0.14875972
0001f0 6b 68 0e bd ff 37 52 bd 6b 43 54 3d d2 41 2d bc
       -0.03476755 -0.051322933 0.051822107 -0.010574775
000200 ce 45 d7 3c 58 e2 03 3e e7 ac 67 bd 88 77 7d 3e
       0.026278403 0.12879312 -0.056561377 0.24752629
000210 bb e1 10 3e 36 a3 41 bd 57 75 85 be 7b 83 97 3e
       0.1414861 -0.04727479 -0.26066086 0.295925
000220 d0 11 78 3e d3 00 0c 3d 5e ae 55 bd ee f5 c5 3d
       0.24225545 0.034180474 -0.052168243 0.09666048
000230 8b d7 f0 3c 90 68 f5 3d c7 6a 93 3e 08 2d b8 3b
       0.029399654 0.11982834 0.28792402 0.0056206025
000240 a2 c5 e3 3d f8 cd 22 be be 12 a7 3e 9a 30 1a bd
       0.1112168 -0.15898883 0.32631487 -0.037644006
000250 4f 09 9e 3d 83 8a 1d be c6 a8 6d 3d 6b 99 36 be
       0.07716619 -0.1538487 0.058022283 -0.17831962
000260 e8 89 ad bd c1 5b 25 bd 15 8c 83 3c 6f ae 09 be
       -0.08473569 -0.040370706 0.016058007 -0.13445447
000270 3f c6 7a 3e db f8 7a 3e 8d e5 39 3e 13 db b8 3e
       0.24489687 0.24508993 0.18153973 0.3610464
000280 74 20 a1 3d 12 bf 13 bd d5 cf 85 bd a0 d0 06 3d
       0.07867518 -0.03607089 -0.065337814 0.032913804
000290 a9 2f c2 3d 77 13 e6 bd 73 c7 04 3a df 24 4b be
       0.09481747 -0.112341814 0.00050651206 -0.19838284
0002a0 dc f6 77 3d 0d 5f f4 3d 64 c6 2a 3d 35 61 ba bd
       0.060538158 0.11932192 0.041693106 -0.09100572
0002b0 3f 77 4e bd bc c8 14 be 39 61 1a 3e 6c e6 a5 bd
       -0.05040669 -0.14529699 0.1507615 -0.0810059
0002c0 41 01 23 be f8 53 a3 3d 57 f9 de 3d 4e 57 d2 3d
       -0.15918447 0.07975 0.108874016 0.10270558
0002d0 c2 42 96 3d e0 72 f6 3b 6c 0c 08 3e 9d e7 91 3d
       0.07336952 0.0075210184 0.13285989 0.07124255
0002e0 35 6a 15 3e 8d b7 7e 3d 88 7e 54 bd d9 47 d7 3d
       0.14591296 0.062186766 -0.051878482 0.10511751
0002f0 89 45 f6 3d 7e 72 07 3e 03 04 d3 3d 62 fe 89 3c
       0.120249815 0.13227269 0.103034995 0.016844932
000300 b8 71 9f be 74 4f 15 3e a2 cd ab 3e 95 3c 46 3e
       -0.31141448 0.1458109 0.33555323 0.19359048
000310 c2 f7 35 be bf 7b 3b be 2c 76 86 bc ff 1a 1f 3e
       -0.17770293 -0.18308924 -0.01641377 0.15537642
000320 ac 9e b3 3e 5f 1e 7c bd 73 4e b3 be da bb 97 3d
       0.35081995 -0.0615524 -0.3502079 0.07408877
000330 b9 a2 8f bd d2 de 90 3d f2 8a aa 3d 80 60 66 3e
       -0.07013459 0.070737496 0.08327283 0.2249775
000340 01 d0 cf 3e 45 b5 8b be df 04 bf 3e 8f 10 dd 3e
       0.40588382 -0.27286735 0.37308404 0.43176696
000350 5b cb aa 3e ea fe c0 be 64 3a 9a 3d b8 79 23 be
       0.33358273 -0.37694484 0.075306684 -0.15964401
000360 82 a5 38 be f0 84 68 be 7f 6f 6d be 38 65 bd be
       -0.18031886 -0.22706962 -0.23187064 -0.36991286
000370 aa a6 ad 3e 07 6f 7b 3e b6 af 10 be 59 95 b4 3e
       0.33916217 0.24554072 -0.14129528 0.35270193
000380 9e 90 82 be de 00 1d 3e 82 77 0b 3e 26 aa 66 3e
       -0.2550096 0.15332362 0.13619807 0.22525844
000390 28 64 4c 3c 35 ed f0 bd 65 ea 6c bd ce 87 7e 3e
       0.012475051 -0.11763994 -0.057840724 0.24856493
0003a0 ba 8e 42 3e e7 e4 61 3d c9 0e 65 be 2b fb d2 3d
       0.18999758 0.05514994 -0.22368921 0.10301813
0003b0 40 30 30 be 96 0b 85 be e7 76 1e 3e 18 f3 91 3e
       -0.17205906 -0.25985402 0.15475045 0.28505778
0003c0 b6 7d de 3e c0 57 42 be 33 74 05 3e 31 88 34 3e
       0.43455285 -0.18978786 0.13032608 0.17630078
0003d0 2d e8 67 3e 66 c7 a6 bd 3b 06 53 3d 4e b6 98 bd
       0.22647162 -0.08143501 0.051519614 -0.07456647
0003e0 78 cf f7 3d 02 0e 08 be 9d 86 10 3e 71 7b d0 be
       0.121001184 -0.13286594 0.14113851 -0.40719178
0003f0 bf 5e 2d 3d 31 25 01 3e 48 e7 b5 be 8e 14 b6 3e
       0.042326685 0.12611844 -0.35528016 0.35562557

bias_ih_l1 f4 [128]
000000 06 ff 0b 3e 77 a3 a8 3e e3 16 5f 3e 76 ab 31 3e
       0.13671502 0.32937214 0.21786074 0.17350563
000010 15 c2 55 3e e6 66 56 3e 25 20 e7 3e d2 b8 ce 3e
       0.20874818 0.2093769 0.45141712 0.40375382
000020 5f b3 7c 3e 39 86 a6 3e b1 34 93 3e 67 54 04 3e
       0.246778 0.3252428 0.28751138 0.12922822
000030 15 c3 d3 3e aa 80 69 bd 30 c3 72 bc 10 b5 48 3e
       0.41359773 -0.05700747 -0.014817044 0.1960032
000040 66 13 d0 3e 47 d6 2d 3e 3f 03 39 3e fa 55 d9 3d
       0.406398 0.16976272 0.18067645 0.10612102
000050 eb 81 6c 3e c6 38 b1 bd 3a 27 01 3e 03 1e fa 3d
       0.23096435 -0.08653407 0.1261262 0.122127555
000060 54 d0 a2 3e ab 4b 6c 3e 96 38 51 3e 36 d4 c4 bc
       0.31799567 0.2307574 0.20431742 -0.024026971
000070 84 63 36 3d 6d ad bc 3e 63 ca 87 3e 09 46 93 3e
       0.0445285 0.36851063 0.26521596 0.2876437
000080 6a bb c9 3c af 35 6f 3d f9 18 15 be 62 1b 22 3d
       0.024625499 0.058400806 -0.14560308 0.039576896
000090 1c e7 28 be af 67 e4 bd 2f 2f 6a 3e b9 35 a4 bd
       -0.16494411 -0.111525886 0.22869562 -0.08018059
0000a0 29 72 4e 3e f7 4f c3 3e 37 b7 59 3e 09 65 2e 3d
       0.20160736 0.38146946 0.21261297 0.042576823
0000b0 a8 7f 1d bd 50 fd 93 bd 1f a4 fd bd a4 f3 b4 3d
       -0.03845182 -0.0722605 -0.12384819 0.08835533
0000c0 35 54 6d bb e3 e6 b8 bc 5e 15 7a 3e 6b bf 40 3e
       -0.0036213521 -0.022571033 0.24422213 0.1882302
0000d0 b9 61 ce 3d 3e a5 72 3e fc 2b ea 3d b9 a7 24 3d
       0.10077233 0.23695847 0.114341706 0.040199015
0000e0 3a 29 eb 3d 2d 4a b0 bd 03 1f 0e be ae 68 79 3e
       0.11482473 -0.08607898 -0.13879018 0.24356338
0000f0 b3 bc 9d bd 3c 51 22 be 0a 97 de bd 45 db 18 3e
       -0.07702007 -0.15851301 -0.10868652 0.14927395
000100 47 e0 07 bd 88 24 b7 3d 49 04 70 bd 2b ca c9 bc
       -0.033172872 0.08942515 -0.058597837 -0.024632534
000110 7f 26 89 3c ef 85 bf bd 7c da 11 be 18 fd 0a 3e
       0.01674199 -0.09351718 -0.14243501 0.1357311
000120 d7 ed fb 3d b6 f0 8f bd 5c bc 3f be 33 c1 63 bd
       0.12301224 -0.07028334 -0.18724197 -0.05560417
000130 41 53 c4 bb c1 8b 28 bc bc 32 c3 3d c2 b5 64 3e
       -0.00599137 -0.010287226 0.09531161 0.2233496
000140 8f 0b 0f 3e 4a 3c ab bd 84 9f 51 3d e5 25 6b bd
       0.13969253 -0.083611086 0.051177517 -0.057409186
000150 58 54 49 3e 42 ff a4 bc b3 03 b3 3d d7 35 31 3e
       0.19661081 -0.020141248 0.0874094 0.17305695
000160 01 1f 95 3d 67 01 31 3d 38 b2 d9 bd 2e 67 35 3e
       0.07281304 0.043214228 -0.10629696 0.17715141
000170 e5 8d 00 3e 46 3c 93 3d 81 74 8d 3d 22 42 69 3e
       0.12554128 0.071892306 0.06906987 0.22779134
000180 7b ff 6d 3e 55 81 db 3e 50 6b 81 3d f8 dc 44 bc
       0.2324199 0.4287211 0.06319296 -0.012015574
000190 f8 cc 17 3f 34 33 8c 3d 88 27 f3 3d b2 61 36 3f
       0.5929713 0.06845704 0.11872774 0.7124282
0001a0 e2 02 49 bd 31 24 53 3e bb 0a 21 3d 6d 07 7f bc
       -0.049075015 0.20619275 0.039316874 -0.015565735
0001b0 34 42 19 3f 93 76 83 3e 77 95 84 3e 60 be 57 3e
       0.5986664 0.25676402 0.25895283 0.21068716
0001c0 d7 ab b7 3e 62 9c c5 3e 42 29 73 3d b4 f3 a8 3e
       0.3587329 0.38595873 0.05936552 0.3299843
0001d0 72 66 73 bb 7a e3 23 bd d5 63 27 3d ce 77 6a bc
       -0.003713992 -0.04001186 0.04086669 -0.01431079
0001e0 4d de be 3e 51 37 e7 bd b7 31 d2 3e c3 5d 71 3e
       0.37278977 -0.11289848 0.41053554 0.23570924
0001f0 e8 f7 81 3d 13 27 91 3e f3 f5 0d 3f ea 15 75 3e
       0.063461125 0.28350124 0.55453414 0.23934141

bias_hh_l1 f4 [128]
000000 15 2a b2 3e f1 45 e3 3e 9e 9a 5e 3d 0f 93 5c 3e
       0.3479773 0.443893 0.054346673 0.21540473
000010 91 84 0a 3f d0 84 f4 3d a2 61 d6 3e 76 67 17 3f
       0.5410853 0.119393945 0.41871363 0.59142244
000020 6b e6 79 3e 3d 5e d7 3d 33 74 71 3e 46 77 a2 bd
       0.24404304 0.105160214 0.23579483 -0.07932906
000030 75 36 f8 3e 87 2a 80 3e d5 36 01 3e 12 cd 63 3d
       0.48479047 0.25032446 0.12618573 0.055615492
000040 e4 c1 99 3e db d9 af 3e a9 fa 88 3e 76 06 85 3e
       0.3003074 0.34345898 0.2675374 0.25981492
000050 f3 9b 42 bd 73 71 e5 3d 5e fd 8b 3e ca f6 02 3e
       -0.047512006 0.11203279 0.2734174 0.12789455
000060 92 a5 96 3e e5 08 41 3e 9a b7 2a 3e 6b 81 8f 3c
       0.29423195 0.18851049 0.16671601 0.017517766
000070 53 43 42 bb ec da 12 3f 5e b8 94 3e 10 be cf 3e
       -0.002964218 0.573653 0.2904691 0.40574694
000080 81 5b 16 3e ef b6 9f 3c 0b a0 a3 bd c1 02 7f 3d
       0.14683343 0.01949641 -0.0798951 0.062258486
000090 51 fe 1b 3d 87 d0 52 bd 4b 3e fd 3d 2d 1f 51 bd
       0.038084332 -0.0514684 0.12365397 -0.051055122
0000a0 f8 f7 07 be 32 96 10 3e 66 34 85 3e 74 5e 02 bc
       -0.13278186 0.14119795 0.2601654 -0.00795709
0000b0 c1 ce bb 3d 1c b7 1e bd 15 92 28 bd 31 b9 49 3e
       0.091702946 -0.038748845 -0.04115494 0.19699551
0000c0 66 85 d9 bc a7 ac 0b 3e 3f 3b 40 3e b4 13 77 3e
       -0.026552867 0.1364008 0.187726 0.2412861
0000d0 6a 74 f4 bc 9e c3 a7 3e 6a 02 ab 3c 6b 8e ca bd
       -0.029840667 0.32766432 0.020875175 -0.09890445
0000e0 1a 32 da bd a6 c6 7b bd 7a 93 57 bd ad 41 6c 3e
       -0.10654087 -0.061468743 -0.05263088 0.23071928
0000f0 d4 c8 73 3b 81 8c 30 be 4e d7 72 bd 03 74 f7 bb
       0.003719856 -0.17241098 -0.05928736 -0.0075516715
000100 44 3e 04 be 45 50 2f 3b 71 f8 27 3d 51 1c 79 3e
       -0.12914377 0.0026750725 0.041008417 0.24327208
000110 4e 23 e6 3c 25 94 e4 bd 16 20 f9 bd d3 c3 69 3e
       0.028093006 -0.11161069 -0.12164323 0.22828607
000120 d2 f5 57 3e c2 5c 91 3d 5e 29 fc 3d 59 3d e1 3c
       0.21089867 0.0709777 0.12312578 0.027495073
000130 1d 98 cc bc 53 e5 02 3e 27 79 63 3e 90 9a 83 3d
       -0.024974877 0.12782793 0.22214185 0.06425965
000140 0d 49 d3 3d ab 16 38 be 0e 69 1e 3e 25 83 23 be
       0.10316668 -0.17977397 0.15469763 -0.15967996
000150 f4 d4 37 3e e9 42 3a bd 88 3b b3 3d 9f 23 87 bd
       0.17952329 -0.045473967 0.08751589 -0.06598591
000160 7c 16 d1 bd 72 bf 3d 3d 10 7c 43 3b 58 23 79 bd
       -0.10209367 0.046325155 0.0029828586 -0.060824722
000170 99 21 d6 3d 83 78 63 39 98 ff f1 3d a9 53 a2 bd
       0.10455627 0.00021693301 0.11816329 -0.07926113
000180 fb b3 32 3e e4 3e da 3e aa df 96 bc a4 0e 9f bd
       0.1745147 0.42626107 -0.018417198 -0.07766464
000190 81 f3 0f 3f 88 fe 6f 3c 44 77 62 3e b4 51 f1 3e
       0.5623093 0.014648087 0.22115809 0.47132647
0001a0 15 3e 19 3e 67 5f 12 3e fc 2c 42 3e 38 cb 55 3e
       0.14965089 0.14294206 0.18962473 0.20878303
0001b0 31 b1 07 3f 8e 35 99 3e 58 68 ae bc c6 c7 23 3e
       0.5300475 0.2992367 -0.02128999 0.15994176
0001c0 db 9c ed 3e f2 07 98 3e ad bf 31 3d 6f 83 41 3e
       0.46408734 0.29693562 0.043395687 0.18897794
0001d0 7e 9f 57 3e c7 07 2c bc af bb 5e 3e be 23 1a 3e
       0.21056935 -0.010499901 0.21751283 0.15052697
0001e0 88 0f d6 3e cf ff ca bd bb 8a bf 3e 09 9f 38 3e
       0.41808724 -0.09912073 0.3741053 0.18029417
0001f0 c2 e1 71 3e 86 06 f2 3e 77 c3 00 3f ba 6b 9f 3e
       0.23621276 0.47270602 0.50298256 0.31136876

weight f4 [2, 33]
000000 d0 5e 5f be 07 46 6e be 3f 24 8b 3e 84 87 20 3e
       -0.21813512 -0.23268901 0.2717609 0.15676695
000010 df f5 a6 be 9b 0e e7 3d 6b e3 15 3e 41 86 8b be
       -0.3260946 0.11282083 0.14637534 -0.27250865
000020 8c 01 04 be 9b c3 30 3e d4 8c 40 bd 6e 10 74 be
       -0.12891215 0.17262118 -0.047009304 -0.23834392
000030 41 c8 99 be 9d 46 8b be 02 2e 3e be e8 03 11 3e
       -0.30035594 -0.2720231 -0.18572238 0.14161646
000040 c1 17 a0 3e 78 c8 6c 3e 77 51 36 3e 46 20 38 3d
       0.31268123 0.23123348 0.17804514 0.044952653
000050 6f 9b fd 3d a0 70 02 3d 68 1f 02 be c6 ed 36 3e
       0.12383162 0.03184569 -0.12707293 0.17864141
000060 82 41 59 3e e0 b3 cc bd 53 dd 97 3e 88 e8 9d bd
       0.21216395 -0.09995246 0.29661044 -0.077103674
000070 c7 6a 22 3e c3 e3 5a 3e c4 23 65 be 02 bc 85 3e
       0.15861045 0.21375947 -0.22376925 0.2612
000080 d0 59 10 3e 53 63 41 3e b6 5e 8d be 6c ad e7 bd
       0.14096761 0.18885545 -0.2761132 -0.113123745
000090 37 3e 80 bd ac 07 37 3e 6e cd a1 bd 7b dd 5e 3e
       -0.062618665 0.1787402 -0.07900511 0.21764176
0000a0 21 21 c8 bb cd 38 c7 bd b9 6e 9a 3e c6 35 49 3e
       -0.006107465 -0.09727631 0.301626 0.19649419
0000b0 9c b3 72 be cd 8f 57 3d a2 6a 6c 3d d9 54 f4 bd
       -0.23701328 0.052627373 0.05771888 -0.11930246
0000c0 aa 89 12 be e4 25 98 bc a1 1e 40 3e 5c a5 7e be
       -0.14310327 -0.018572755 0.18761684 -0.24867767
0000d0 8e b6 95 be 21 c3 b3 bd 99 8e a8 3e 95 92 75 be
       -0.2924084 -0.08777452 0.32921293 -0.23981698
0000e0 b6 9e 8c 3e 8c cd 20 3e a4 27 40 3e f7 34 5e 3c
       0.27464837 0.1570341 0.18765122 0.0135624325
0000f0 0e de 9c 3e e4 1b 09 be 6b c8 c3 3b db 22 b6 3d
       0.30638164 -0.13389546 0.0059748194 0.08893367
000100 07 96 14 be 5d a3 c6 bc
       -0.14510356 -0.02424782

bias f4 [2]
000000 63 5b e2 3d 37 50 da 3d
       0.11052587 0.10659831
