models/stochseq_model=GRU_layers=1_hidden=2.pt (torch, 3871 bytes, 6 tensors)

weight_ih_l0 f4 [6, 2]
00000000: 0afa 9d3e b81a 203f 92e8 143f e7c8 353f
00000010: a1c8 b13d 8d48 5bbf f7b1 c13e 00bc 50bf
00000020: ddec 10bf 4a11 3f3f a01f c53e 6c13 8a3e
0.30854827 0.6254077 0.58167374 0.7100968 0.08680845 -0.8565758 0.3783109 -0.81536865
-0.56611425 0.74635756 0.3850069 0.26967943

weight_hh_l0 f4 [6, 2]
00000000: c537 223e c3aa 55bf d3d3 553f 5d1d 6c3f
00000010: a9a0 313f 6120 c5bc f3ae 33be b8a7 43be
00000020: f31f 03be 3b0c 9e3e 1e9d 693f 3e3b e93e
0.15841587 -0.83463687 0.83526343 0.92232305 0.6938577 -0.024063291 -0.17547207 -0.19106948
-0.12805156 0.30868706 0.91255367 0.4555301

bias_ih_l0 f4 [6]
00000000: 051b 63bd d02e 173e ad5d 2bbf 2500 1dbe
00000010: efc3 13bf 98ca 4f3e
-0.05544569 0.14763951 -0.6693981 -0.15332086 -0.57720846 0.20292127

bias_hh_l0 f4 [6]
00000000: 4d25 d0be 30ea 31be c562 0dbf 06a3 ca3c
00000010: fb50 463e fa93 843f
-0.40653458 -0.17374492 -0.55228835 0.024735939 0.19366829 1.0357659

weight f4 [2, 3]
00000000: e729 b53e d4d5 363f c9cb 963e 64ad 2a3f
00000010: e03a d7be 51e0 983e
0.3538353 0.71420026 0.2945235 0.66670823 -0.42037106 0.2985864

bias f4 [2]
00000000: 2ff3 9abe 524e f9be
-0.3026366 -0.48692566
