models/stochseq_model=LSTM_layers=1_hidden=2.pt (torch, 3942 bytes, 6 tensors)

weight_ih_l0 f4 [8, 2]
0	0xbef95306	-0.48696154
1	0x3dc7ceeb	0.09756263
2	0x3f74c711	0.9561625
3	0xbf36a7f5	-0.7135003
4	0x3dd232b8	0.1026358
5	0xbea41587	-0.32047674
6	0xbd391919	-0.04518995
7	0x3ee7320a	0.45155364
8	0x3e5aebfe	0.21379086
9	0xbf256758	-0.64610815
10	0xbe763e2d	-0.24047156
11	0x3f714580	0.94246674
12	0x3e178e84	0.14800459
13	0xbedf48ad	-0.43610135
14	0xbf27382d	-0.6532009
15	0x3fe6a308	1.8018503

weight_hh_l0 f4 [8, 2]
0	0x3f66c696	0.9014677
1	0x3f8dc166	1.1074646
2	0x3f68dfc2	0.9096643
3	0x3f94e389	1.1631938
4	0xbf3b81e6	-0.73245084
5	0x3e06cb6c	0.13163537
6	0x3e5fd264	0.21857601
7	0x3f4ff3de	0.81231487
8	0xbf2bcc31	-0.67108446
9	0x3f096b08	0.5367894
10	0x3c5abd90	0.013350859
11	0x3e053c10	0.13011193
12	0x3f17343e	0.5906409
13	0x3fb95c04	1.4481206
14	0x3eb8c27e	0.36085886
15	0x3edcbec2	0.43114287

bias_ih_l0 f4 [8]
0	0x3f16701c	0.58764815
1	0x3ea09655	0.31364694
2	0x3e1e6d69	0.15471424
3	0x3dbe7cf4	0.09301177
4	0x3ec56e60	0.38560772
5	0x3f8d0d41	1.101967
6	0x3f919678	1.1374044
7	0x3ec13b99	0.37740782

bias_hh_l0 f4 [8]
0	0x3f1ec400	0.6201782
1	0x3e6e716b	0.23285453
2	0x3ee79fee	0.45239204
3	0x3f848359	1.0352584
4	0xbde80c37	-0.11330455
5	0x3f827d43	1.0194477
6	0x3f05a4d2	0.5220462
7	0x3f6f1f0f	0.93406767

weight f4 [2, 3]
0	0xbfcfdf4a	-1.6240017
1	0x3fbe250e	1.4855058
2	0x3ec5bfac	0.38622797
3	0xbf60e616	-0.87851083
4	0xbf96632d	-1.1749016
5	0xbc99350b	-0.01870205

bias f4 [2]
0	0xbeaee93e	-0.34162325
1	0xbf778c14	-0.9669812
