models/stochseq_model=GRU_layers=1_hidden=1.pt (torch, 3807 bytes, 6 tensors)

weight_ih_l0 f4 [3, 2]
-0.8417358 -0.6302802 -0.856274 0.39012182 0.2503651 0.354839
00000000: ff7b 57bf 0b5a 21bf c634 5bbf 0cbe c73e
00000010: db2f 803e 75ad b53e

weight_hh_l0 f4 [3, 1]
0.912458 -0.09404717 0.55562836
00000000: d996 693f cd9b c0bd a93d 0e3f

bias_ih_l0 f4 [3]
-0.80456513 0.2782647 1.1258317
00000000: fbf7 4dbf b678 8e3e 411b 903f

bias_hh_l0 f4 [3]
-0.059752118 0.66353863 0.28335902
00000000: a3be 74bd abdd 293f 6f14 913e

weight f4 [2, 2]
-0.2551961 0.33331543 0.07475928 0.14455229
00000000: 10a9 82be 52a8 aa3e 651b 993d 8405 143e

bias f4 [2]
0.23934723 -0.0776
00000000: 7117 753e c0ec 9ebd
