models/stochseq_model=GRU_layers=2_hidden=32.pt (torch, 43622 bytes, 10 tensors)

weight_ih_l0 f4 [96, 2]
000000 60 55 43 bd e7 13 1e bd 76 64 5b bd 1f 02 86 be
       -0.04768884 -0.0385932 -0.053562604 -0.26173493
000010 0f 04 6b 3e 52 f0 7d bd 94 e3 55 3d be ee 7b 3e
       0.22950767 -0.061996765 0.05221899 0.24602792
000020 b6 f6 f2 3d 18 fb c0 bd 72 6c 70 bc f9 80 3c be
       0.118634626 -0.09422892 -0.014674293 -0.18408574
000030 c2 1e 81 3e 09 96 95 be f7 80 86 3d 99 32 13 3e
       0.2521878 -0.2921603 0.06567567 0.1437477
000040 7f 6f bd bd 6f 57 7b be f3 90 f4 3c 7d 09 2a bc
       -0.09249782 -0.24545072 0.029854273 -0.010378239
000050 3a 8f f4 3d c6 e7 05 be 6f e4 66 3d 2e ee 03 3e
       0.11941381 -0.13076696 0.056370195 0.12883827
000060 58 e3 f6 bd 49 8a 94 be ae 43 b0 bd 23 8d 98 3e
       -0.12055081 -0.29011753 -0.08606659 0.2979518
000070 88 9d 02 bd 1d d1 00 be 36 60 30 3d ea 63 92 3e
       -0.031888515 -0.1257977 0.043060504 0.28591853
000080 7e b8 b4 bd 21 c2 52 3e 32 06 fb bc cb d8 37 be
       -0.088242516 0.20581867 -0.030642603 -0.17953794
000090 b4 4c 05 3e 85 e3 dd 3d ae fe e4 3c 0e 61 05 bd
       0.13017541 0.108344115 0.027953472 -0.03256326
0000a0 6b 06 83 bc ac c2 26 be 3f 1d 48 be fd 49 9c 3e
       -0.015994271 -0.16285199 -0.19542406 0.305252
0000b0 fb 6f bf 3d bf 0b 81 3e b0 ab b0 bd a4 07 f2 bd
       0.093475305 0.25204274 -0.08626497 -0.118178636
0000c0 25 ac 88 bd bf 9f 61 3e cb bf 21 bd c4 01 42 bd
       -0.06673459 0.22033595 -0.03948955 -0.047364965
0000d0 73 53 1b 3e 5d 10 1b 3e 17 ca 35 be c3 92 4a be
       0.15168552 0.15142961 -0.17752872 -0.19782548
0000e0 b9 b4 9c be dd 2a 49 3d e1 ce 95 bc f7 27 5d be
       -0.3060663 0.049113143 -0.018287124 -0.21597277
0000f0 3f f4 12 3b ab 94 e9 3d 4c 3f 02 3e a7 df 2f be
       0.0022423414 0.11405309 0.12719458 -0.1717516
000100 9e 54 c8 3e 06 37 33 bd e5 2f 25 3e 58 0f 06 3d
       0.39127058 -0.043753646 0.16131552 0.032729477
000110 b5 81 88 be cc 98 98 be 52 bd a5 3d 2e 10 ab 3e
       -0.2666146 -0.29804075 0.080927506 0.33410782
000120 98 89 23 3e 8d 52 95 3d 9b 63 24 3f 8f 5c 79 bc
       0.15970457 0.07291136 0.64214486 -0.015219822
000130 4d 57 9c 3e 4c 2f 28 bd c1 d1 2f 3e eb 41 6c be
       0.30535355 -0.04106073 0.17169859 -0.2307202
000140 8f 3d a0 be 3a 0c 4c bd 63 af 13 be b7 2d 1f 3d
       -0.31296965 -0.049816348 -0.14422373 0.038861956
000150 95 38 4b be 6e 82 9b be ad 25 1c 3e ff e0 c3 bc
       -0.19845803 -0.30372947 0.15248747 -0.023910997
000160 98 e6 0f 3e 49 2e 7a bd 57 35 f7 3c 92 bb 73 be
       0.14052808 -0.061079297 0.030176802 -0.23802021
000170 3b 4d b1 be c4 df 02 3e 05 b7 96 3e 31 4e 0d ba
       -0.34629235 0.12780672 0.29436508 -0.00053903746
000180 fa 81 5c bf a0 a1 15 3e c9 b2 73 be c2 fc c3 3d
       -0.8613583 0.14612436 -0.2379867 0.09569694
000190 b8 32 61 be dc c4 5d 3e 5b 47 13 be 2b 17 04 bd
       -0.21992004 0.21657127 -0.14382689 -0.032248657
0001a0 a9 5f 17 3f da 4f 3a 3d b0 25 65 be c6 da 5e 3e
       0.5913034 0.04548631 -0.22377658 0.21763143
0001b0 41 90 b0 3e c9 2b 1b 3e c6 d8 fe 3d f1 d0 cc 3d
       0.34485057 0.15153421 0.1244369 0.1000079
0001c0 d1 eb 32 bf 9b 40 4b 3e 77 c1 2e 3d 97 6e e6 3c
       -0.6989108 0.19848864 0.04266497 0.028128905
0001d0 e0 84 03 bf 40 df 26 bd 20 8a 8e 3e 6b 62 05 bf
       -0.51374626 -0.04074025 0.27839756 -0.521033
0001e0 d8 36 19 bf a4 54 96 bd 00 0c 4e 3f 90 5c 04 3e
       -0.5984931 -0.07340363 0.8048706 0.12925935
0001f0 cf 89 8d 3c 5e 5f 87 3d a4 f8 ce 3e 92 72 ae be
       0.017277626 0.06609987 0.40424073 -0.34071785
000200 26 b3 0b 3e 84 3c 4f 3d ec 77 97 bd 6f ee bb bd
       0.13642558 0.05059482 -0.0739592 -0.09176337
000210 ac ef 3b 3e 26 20 b9 3d c3 b4 88 3d 21 d3 21 be
       0.18353146 0.09039335 0.066751026 -0.15803196
000220 a3 ff 1a be c3 f4 48 be d6 b6 90 3b 70 a0 e7 bd
       -0.1513658 -0.19624619 0.004416327 -0.11309898
000230 be 37 df 3c b1 82 68 be 0c c5 cb bd d1 38 ac 3d
       0.02724826 -0.22706105 -0.09949693 0.08409274
000240 08 1a ed bd 6f 79 57 be e5 06 d4 3d af b2 53 be
       -0.11577231 -0.21042417 0.103528775 -0.20673631
000250 e7 a4 f4 3d 80 bd 04 3e 8b 20 38 be a5 eb 9d 3c
       0.11945515 0.12962914 -0.17981164 0.019277403
000260 79 bc 13 be 2c 7a ac bd d2 dc c3 be b6 03 19 bd
       -0.14427365 -0.0842174 -0.3825441 -0.037357055
000270 66 a8 b6 bb c3 d0 54 3e b8 8e d7 3d 88 db 60 3e
       -0.005574274 0.20782761 0.10525268 0.21958745
000280 3e 68 ad bc 8f 47 62 3e a3 2f 93 3d a3 08 6b be
       -0.02116787 0.2209761 0.0718682 -0.22952513
000290 91 09 1c be 9d c1 15 3e 0a 41 d3 3d a7 64 67 be
       -0.15238024 0.14624639 0.103151396 -0.2259699
0002a0 21 56 03 be 23 60 1d 3e 71 d6 1e be 58 e6 50 be
       -0.12825824 0.15368704 -0.1551149 -0.20400369
0002b0 8f b4 43 be 5c 81 86 bd 4e 51 1f 3e d3 78 a3 bd
       -0.19111846 -0.06567642 0.15558359 -0.0798203
0002c0 03 1f c0 bc cb ba 4f be 4b 4f 52 bc 39 9a 6f be
       -0.023452288 -0.202861 -0.012836288 -0.23398675
0002d0 a9 38 a8 3e 57 b4 47 3d 02 77 12 bd 86 1b 1f 3d
       0.32855728 0.04875597 -0.035758026 0.038844608
0002e0 98 65 e3 bd 42 4b 6d 3e 39 2c d2 bb 49 4f 57 bd
       -0.11103362 0.2317324 -0.006413963 -0.052565847
0002f0 e5 57 f2 bd a3 12 4b be 59 b9 84 3d 4b 78 c1 3d
       -0.11833171 -0.19831328 0.06480665 0.09446772

weight_hh_l0 f4 [96, 32]
000000 b4 1f e8 bd 4b 25 80 bc ee 61 24 3d 9f dd be bd
       -0.11334172 -0.015642783 0.040132456 -0.093196146
000010 9e b4 c5 bc 4a f0 fa bd f3 4b f1 bb c9 64 0e be
       -0.024133977 -0.12252863 -0.00736379 -0.13905634
000020 ba af ea bd aa e5 88 3d a1 3d 0b be 08 6a eb 3c
       -0.114592984 0.0668443 -0.13597728 0.028737083
000030 bc d4 01 be 5a 5f 0f 3d 9d 70 17 be f2 17 02 3d
       -0.12678808 0.035003044 -0.14789052 0.031761117
000040 9e 76 16 be f2 01 56 3e 65 1b b3 3d 0a 3c 05 3e
       -0.14693686 0.2089918 0.087454595 0.13011184
000050 e8 87 b7 3d cb 87 13 3e 8d c5 40 3e e4 7b f3 ba
       0.08961469 0.1440727 0.1882536 -0.0018576351
000060 51 c2 f2 3d ee 25 cb bd f2 4c 0e be 8e 71 1b bc
       0.11853469 -0.09919344 -0.1389654 -0.009487523
000070 8a 76 c1 3d b4 48 19 3e da cd ed bd f1 f6 21 be
       0.09446438 0.1496914 -0.11611529 -0.15816857
000080 76 35 39 be 0a 66 31 bc 5b 11 26 be 14 1d fd bc
       -0.180868 -0.010827551 -0.16217558 -0.030897655
000090 b3 51 09 be ca 3f 90 bd 1f c0 22 3d e5 38 06 3e
       -0.13410072 -0.07043417 0.039734002 0.13107641
0000a0 5f 44 78 bd 2d 78 87 3d 21 ba 21 3e 4f b4 6d be
       -0.06061208 0.066147186 0.15793659 -0.23213314
0000b0 47 aa b4 bd ad cc 9c bd 04 d2 1d 3e e2 3e 0e 3e
       -0.0882154 -0.07656226 0.15412146 0.13891175
0000c0 b2 a5 ca bd b8 5c 6e 3e 66 a5 12 3d 3d 49 b5 3d
       -0.09894885 0.23277557 0.035802267 0.0885186
0000d0 6d 8a 97 bd 0b ed 88 3d a0 1c d9 3d c3 5b a3 bb
       -0.073994495 0.06685837 0.10601163 -0.004985304
0000e0 a6 31 33 3d f7 ef 55 3e f8 83 31 bd 30 a6 c4 3d
       0.04374852 0.2089232 -0.043338746 0.0960201
0000f0 0f af 25 3d 1b 3f ff 39 ff 37 88 bd 69 47 2e 3c
       0.040450152 0.00048684407 -0.066513054 0.010637143
000100 f9 51 28 3d fb e4 53 3e 50 bc 33 be 4b ad 22 3e
       0.0410938 0.20692818 -0.17552304 0.15886419
000110 77 00 70 3d ab 32 e4 bc 9c 06 63 bd f2 e9 c0 bd
       0.058594193 -0.027856192 -0.055426225 -0.094196215
000120 ea 65 0f be 03 73 04 3e 19 18 10 be 77 ab fe 3b
       -0.14003721 0.12934498 -0.14071693 0.007771905
000130 91 bb 4e bd db dd 68 be fd 5b f1 3c f2 f1 b8 bd
       -0.050471846 -0.22740881 0.029462809 -0.090305224
000140 fc 60 2a 3e b4 c7 06 be 28 8f 46 3a 0f 10 be 3d
       0.16638559 -0.13162118 0.00075744325 0.09280407
000150 bf ee af 3d 96 32 b5 bd 29 58 dd 3d 4c e8 cf 3d
       0.08590459 -0.08847539 0.10807831 0.10151729
000160 2c c8 7a bd e3 c0 00 be a8 a5 96 bd a9 77 70 3d
       -0.061226055 -0.1257358 -0.07355815 0.058707867
000170 db 14 ab 3d f9 54 86 bd 20 77 16 be 1a c2 d4 bd
       0.08353587 -0.06559176 -0.1469388 -0.103885844
000180 23 83 8f bd e3 0c 33 3e 85 82 1f be 23 87 17 be
       -0.07007434 0.17485385 -0.15577133 -0.14797644
000190 c3 42 fe 3d af 33 9b 3d f4 db 9c 3d 9e 67 4d 3d
       0.124150775 0.07578217 0.0765914 0.050147645
0001a0 07 49 db bd 15 61 0c be 47 56 6a bc cd 22 07 be
       -0.10707288 -0.13708909 -0.014302797 -0.13196869
0001b0 35 7a 7d bc b4 59 9d 3d 00 3d 21 bd 39 ec e3 bd
       -0.015471031 0.07683125 -0.039364815 -0.1112904
0001c0 59 7a e4 3d 2e ee 1d be b9 96 4a bd 9c 97 61 3e
       0.111561485 -0.1542289 -0.049460147 0.2203049
0001d0 57 33 f5 bb a7 bf 36 be dc 13 13 bd 68 b6 4f be
       -0.007482927 -0.17846547 -0.03590761 -0.20284426
0001e0 9a ce 1f be 21 77 19 be d5 24 a6 3d f9 66 04 be
       -0.15606156 -0.1498685 0.08112494 -0.12929906
0001f0 bf ab 43 3d 9b d0 45 3e 0b 7d d9 3d 08 02 5f be
       0.04777121 0.19317858 0.10619553 -0.21778119
000200 ed 13 9e 3d 94 3b 12 be 74 a7 b9 3a 0c bd f3 3d
       0.07718644 -0.1428054 0.0014164285 0.11901292
000210 98 06 57 3e 61 6d 22 3e c7 e2 53 3c fa c7 d6 3d
       0.20998609 0.15862037 0.012932486 0.10487361
000220 41 9f 46 be 45 97 05 3e 8d 90 22 be d6 cc 8a 3d
       -0.19396688 0.13045986 -0.15875454 0.067773506
000230 19 22 2f 3e 6b 84 4e 3d 2e ad d6 3d 7e a2 95 3c
       0.17102851 0.050419252 0.1048225 0.018265959
000240 ff eb 0c bd 7b 23 08 3e 8e 14 36 bd 17 45 14 3e
       -0.03440475 0.13294785 -0.044453196 0.1447948
000250 60 5c 35 3c 4a 09 a9 3d c5 85 94 bd da 58 0d 3e
       0.011069387 0.08253725 -0.07252077 0.13803425
000260 ac 3a 73 bd b0 e5 db 3d dc dc aa 3d fe ca 1b 3e
       -0.059382126 0.10737169 0.08342907 0.15214154
000270 89 41 00 3e a5 b8 47 3d c7 c3 41 3d 00 f8 29 3d
       0.12525 0.048760075 0.04730585 0.041496277
000280 51 f7 04 be 5a 18 fd 3d 85 d9 ce bd c6 04 a8 3d
       -0.12984969 0.1235816 -0.10100082 0.082040355
000290 31 42 d9 bd c7 cc d3 bd 92 9b 16 be c3 0b 5e 3d
       -0.10608328 -0.103417926 -0.14707783 0.054210436
0002a0 83 71 0e 3e a4 ff 89 bd 37 d0 28 3d eb cf ae bd
       0.13910489 -0.06738213 0.041214194 -0.08535751
0002b0 b9 c9 61 3d 15 32 62 bc b2 f5 ab 3d 1c c2 ef 3b
       0.05512402 -0.013805886 0.08396472 0.007316841
0002c0 2f 7f 18 3e 04 5c b9 b8 ab 43 b0 bd 05 f9 14 be
       0.14892267 -8.838627e-05 -0.08606657 -0.14548118
0002d0 b7 e7 23 3d 67 a2 1d 3e ba 84 0c 3d c8 5a 89 3d
       0.040015902 0.15393983 0.034306265 0.06706768
0002e0 14 53 e2 bd 84 19 fc bb 20 f7 9a 3d 9c 97 e6 bc
       -0.11051002 -0.0076934714 0.075666666 -0.028148465
0002f0 ba 4e b4 bc 94 f4 a8 3c 06 ee 2d bd dc 3c 34 be
       -0.022010196 0.020624436 -0.042463325 -0.17601341
000300 84 5b ce 3d 54 ec cc bc 55 9b 6a 3d 24 41 b8 bd
       0.10076049 -0.025015034 0.057277042 -0.089967996
000310 77 16 3c 3d f0 97 e3 3c c8 9b 84 bc 46 89 d3 bd
       0.04591986 0.02778241 -0.016187564 -0.10328917
000320 78 9f bf 3d 7b 82 a6 3c 20 5d 8c bd 42 cf 0c be
       0.09356588 0.02032589 -0.068537 -0.13750938
000330 a7 2c e1 bc 59 19 ee 3c 12 4e c7 bb d6 4f 7b 3d
       -0.027487112 0.029064821 -0.0060823048 0.061355434
000340 f7 ec 36 3e 9a 25 3d be 32 65 3a 3d 48 58 00 bd
       0.17863832 -0.18471375 0.045506664 -0.03133419
000350 aa 2c 79 3d 56 70 c8 bd 33 73 c0 3d e6 ef 63 bd
       0.06083361 -0.097870514 0.093969725 -0.055648707
000360 4d b0 5f bd d4 16 a2 bb 14 5b 84 bd 18 64 d0 3d
       -0.054611493 -0.004946569 -0.06462684 0.10175341
000370 7c 3b 9b 3b bc 58 b2 bd e3 73 4a 3d eb dd 1b 3d
       0.0047373157 -0.08708331 0.049426924 0.038053434
000380 c0 9f 2b be 36 b3 90 bc 43 60 e8 3d 41 ee c8 3d
       -0.16760159 -0.01766358 0.113464855 0.09811068
000390 7e c9 60 bd 1a 98 8c ba aa 7e be 3d 4f ec 49 bd
       -0.054879658 -0.0010726482 0.09301503 -0.049297627
0003a0 ab 1d 8a be db 32 15 bd 8e 6c e8 3d c9 2c 7c be
       -0.2697576 -0.036425453 0.1134883 -0.24626459
0003b0 51 06 8d 3d 46 e5 63 be d2 bb 81 bd b1 a2 64 bd
       0.068859704 -0.2225543 -0.06334652 -0.055819217
0003c0 04 74 b1 3b 56 42 3d be ae 2f d5 3c 6f 0b b6 bd
       0.0054154415 -0.18482336 0.026023712 -0.088888995
0003d0 a2 84 8f bd 5a e7 94 bc b2 91 04 be db e2 d1 bd
       -0.070077196 -0.018176723 -0.12946203 -0.10248347
0003e0 4b a6 ca 3d 56 b6 12 3e 20 2d 70 3e be 2f 65 3d
       0.09894999 0.14327368 0.23454714 0.055953734
0003f0 0b a3 a4 3d a3 6b a4 3d 5b 71 cd bd fb 48 28 be
       0.080389105 0.080283426 -0.100313865 -0.1643409

bias_ih_l0 f4 [96]
000000 2e 23 03 3e 0f 15 58 3c 41 a6 9d 3c d8 f5 38 3e
       0.12806389 0.0131886145 0.019244315 0.18062532
000010 8e f1 91 bc da ba 25 bc 83 40 49 3e e8 c6 b0 3d
       -0.017815378 -0.01011535 0.19653516 0.08631688
000020 f0 37 01 bc 39 10 fe 3c 49 ca 48 bd 07 c3 2a 3e
       -0.007886872 0.031013595 -0.04902104 0.1667596
000030 a6 bd 8e 3d 55 72 a0 3e 60 99 0e 3d 15 79 69 bd
       0.06969766 0.31337228 0.03481424 -0.05700024
000040 44 7d 16 bd e2 47 2c be 67 c7 c4 3b 7c 86 05 3d
       -0.036740556 -0.16824296 0.006005216 0.032598957
000050 e1 5b 0e 3d e8 be f6 bd 94 e5 96 bd 08 06 4a 3e
       0.03475559 -0.12048131 -0.07368007 0.19728863
000060 55 0c dc bc dd a3 f6 3d 56 5c 27 3e b7 46 1e 3d
       -0.02686135 0.12042973 0.16343817 0.038641658
000070 f0 65 c0 3d 3f 49 9e 3e 82 27 a4 bd af 48 f1 3c
       0.09394443 0.30915257 -0.08015348 0.029453604
000080 56 8a ce be 37 46 21 bf 7c 01 1d be 68 03 39 3d
       -0.40339917 -0.62997764 -0.15332597 0.045169264
000090 89 b4 94 be fa c6 4c be b5 62 94 bd 36 ee 22 bf
       -0.29043987 -0.19997779 -0.07245389 -0.6364473
0000a0 3e d9 26 bd 44 5a 21 be 92 42 f9 3c 6d 91 aa bc
       -0.040734522 -0.1575709 0.030427251 -0.020821298
0000b0 91 49 88 be 23 7f 47 bf 95 89 76 be 09 c7 9d bd
       -0.26618627 -0.7792837 -0.24075921 -0.077039786
0000c0 96 bf bc be b1 78 10 be 05 46 4e be 41 98 23 3c
       -0.36864918 -0.1410854 -0.20143898 0.009985031
0000d0 46 98 af be 25 73 88 be 0b 1e 7d bd 92 33 86 be
       -0.34295863 -0.26650348 -0.06179623 -0.2621122
0000e0 e4 ee 4d be 5b 9d 97 bd 10 17 26 bf fb 28 c6 be
       -0.20110661 -0.0740306 -0.6487894 -0.3870314
0000f0 2d 03 cc be e4 91 1d bf 89 3e 19 be 6f d4 63 be
       -0.39846173 -0.61550736 -0.14965262 -0.22249006
000100 64 dc 8a be 28 7e 37 3e 8d d0 2c 3d b0 ec ca bc
       -0.2712127 0.17919219 0.042191077 -0.024771065
000110 8c 8e 03 be e1 72 72 3e 20 c8 50 3e 41 d4 9b 3e
       -0.12847346 0.23676635 0.20388842 0.30435374
000120 30 80 40 be c3 8f de 3d 86 6c d2 bc 38 37 76 3d
       -0.187989 0.10867264 -0.025686514 0.060111254
000130 69 95 10 3e ee f0 0f be 5b ee e7 3d 07 1f 65 3c
       0.14119495 -0.14056751 0.113247596 0.013984448
000140 5b 02 68 3e 96 fe 98 3c 98 d4 f9 3d 51 cd fa 3d
       0.22657149 0.018676084 0.12198752 0.12246192
000150 f5 92 65 be b3 7a 9b bd ac 25 93 3c 40 3f 8c be
       -0.22419341 -0.075917624 0.0179623 -0.27392006
000160 a1 35 6e be b4 d9 9d bb ba 88 9b 3e 92 0c 55 3e
       -0.23262645 -0.004817212 0.30377752 0.20805576
000170 e9 8f 9b 3e 87 6d 7e 3e db c0 29 be ee 9e 46 be
       0.30383232 0.24846469 -0.16577475 -0.19396564

bias_hh_l0 f4 [96]
000000 1f b6 ce bd a1 39 6a 3d 9e 3b 65 3c d2 77 90 3c
       -0.100933306 0.057183865 0.013991265 0.01763526
000010 be 69 ab 3d d0 e6 0e 3e e8 7d c1 bd 42 e4 9f 3d
       0.08369778 0.13955235 -0.09447843 0.078072086
000020 e2 9d 40 3e 00 be 4f be c9 7e 77 3d 6d 7d 0c 3e
       0.18810228 -0.20287323 0.060423646 0.13719721
000030 52 4b 05 3d 0e 8f 57 3e eb 29 1e be 6d 28 b4 3d
       0.032542534 0.21050665 -0.15445678 0.08796773
000040 8f 09 d4 3d ac f9 78 3d 11 20 21 3e 4f 41 ec 3d
       0.10353386 0.06078498 0.15734889 0.11535894
000050 0f 7a d1 3d 61 d9 86 bd 3e 11 62 3c a5 5f 77 3e
       0.10228359 -0.065844305 0.013798056 0.24157579
000060 e8 f6 04 be 4b a6 c7 3c 2c e4 a9 3e cb 47 39 3c
       -0.12984812 0.024371287 0.33181894 0.011308621
000070 ce d6 7c 3e 5c bd 44 bc 23 09 0f bc c1 cf d9 3d
       0.24691316 -0.012008037 -0.008730206 0.10635329
000080 77 a3 a7 be e3 00 ac be 88 3b e6 be 2a 51 d9 bc
       -0.327419 -0.33594427 -0.44967294 -0.02652796
000090 dd d4 2a be 92 a1 ee be 76 e5 64 be cb 84 3f bf
       -0.16682763 -0.46607643 -0.22353157 -0.74812
0000a0 b0 fd 6e be e3 4f 0e 3e 3c 98 d3 bd e3 49 35 3e
       -0.23338962 0.13897662 -0.10331771 0.17703967
0000b0 44 88 6d be 73 29 0f bf d7 d3 a1 be e0 4f b8 bd
       -0.23196512 -0.5592262 -0.31606933 -0.0899961
0000c0 4b ac da be ae 07 47 be 49 59 6e bd 36 f2 a9 3d
       -0.42709574 -0.19436523 -0.058190618 0.08298151
0000d0 d8 2b 74 bd 83 ba a5 be 1a f2 5d be 1d a4 c6 be
       -0.059612125 -0.3236886 -0.21674386 -0.38797083
0000e0 c9 82 e5 be 76 c3 7b be 81 d7 c9 be 85 7f 69 be
       -0.44826344 -0.24586281 -0.3942223 -0.22802551
0000f0 a3 cf 9c be 20 7e 03 bf 3b 3b 8a be 75 5a b0 be
       -0.30627164 -0.51364326 -0.26998314 -0.34444013
000100 c8 74 3a be 7b 7a df 3d 9d 47 17 be c5 1b 42 be
       -0.18208611 0.10912033 -0.14773412 -0.18955906
000110 f0 6e b9 3d 51 e4 94 3e 97 dd 13 3e 03 de 82 3e
       0.09054363 0.29080442 0.14439999 0.25560006
000120 d7 17 0b 3e 70 07 ca bd d1 b3 da 3c 97 dd fa bd
       0.13583313 -0.098647 0.026697071 -0.12249296
000130 a7 62 be 3c 2b af 8a be ef 10 50 bc eb 56 bf bb
       0.0232404 -0.27086768 -0.01269935 -0.005839219
000140 3d 8f 1e 3e 8d 4f fb bc 30 8a d0 bc b8 62 88 bd
       0.15484329 -0.030677581 -0.025456518 -0.06659454
000150 a3 c2 53 be 97 e1 81 be d9 e4 24 bd 12 09 52 be
       -0.20679717 -0.25367424 -0.04025731 -0.20511273
000160 f1 50 e8 bd 7c 90 0a 3e e1 e6 aa 3e 3a 02 14 3e
       -0.11343563 0.13531679 0.33379272 0.14453974
000170 0e ff a2 3e d6 2b 85 3e 60 f4 7a be 9e 28 ee 3c
       0.31835216 0.26010007 -0.24507284 0.029072102

weight_ih_l1 f4 [96, 32]
000000 1f dd ab 3d 55 38 fd bc c5 38 7a 3c 92 f1 c9 bd
       0.08391785 -0.03091065 0.015272324 -0.09860529
000010 d1 39 72 be dc 6f ba 3c 99 2f 66 bd ca bf 2e bd
       -0.23654868 0.022758417 -0.056197736 -0.042663373
000020 bd 02 ac bd 6b 9b 4c 3d 6d 5c 88 3e f0 10 a4 3d
       -0.0839896 0.049952906 0.26633015 0.08011043
000030 6b e4 e5 3d 71 d1 9a 3d 4f d3 a0 3d e8 ec a9 3d
       0.11225208 0.07559479 0.07852804 0.082971394
000040 2a 77 12 3e c0 67 e5 bd ee ce 9a bc 59 4f 00 be
       0.1430327 -0.11201429 -0.0188975 -0.12530269
000050 31 1f e7 bd 0c d1 cd 3c 6d 10 d6 bd 19 a9 bc bc
       -0.11285246 0.025124095 -0.10452352 -0.02302985
000060 a6 c8 87 bd f3 ee 5e be 69 f2 e6 bd 77 e7 5d 3e
       -0.066300675 -0.2177084 -0.11276705 0.21670328
000070 5e 76 bb bd 44 81 53 bd 9e b9 9d 3d d7 48 8a ba
       -0.09153436 -0.05163695 0.07701419 -0.0010550272
000080 c7 4e c4 3d 83 90 5b bc fb a0 16 3e 73 a1 8c bd
       0.09585338 -0.0134011535 0.14709847 -0.068667315
000090 1d cb d2 bd 5c 52 38 bd 2b 8f 03 be cd af 22 bd
       -0.10292647 -0.04500042 -0.12847583 -0.039718438
0000a0 f3 05 e3 bd c2 71 d2 3c 71 02 77 3e 97 df f8 bd
       -0.11085119 0.02568901 0.24122025 -0.121520214
0000b0 7c a0 cc bd 86 1f cc bd f0 d1 3b 3d 10 0d c6 3d
       -0.099915475 -0.0996695 0.04585451 0.0967046
0000c0 fe ad 56 3e f8 cd 86 3d ae bb f5 bd 74 cd bc bd
       0.2096481 0.06582254 -0.11998688 -0.092188746
0000d0 a7 97 09 3e d6 59 a3 3c 5e 7d 31 bc e9 86 13 be
       0.13436757 0.019940298 -0.0108331125 -0.14406933
0000e0 52 0c 5d bd 9b 0a ae bd 00 fa 60 bd 84 3f 66 3e
       -0.053966828 -0.084981166 -0.05492592 0.22485167
0000f0 2b d8 50 3c d5 c4 1b be bb 5a 08 be f3 65 18 be
       0.012746851 -0.15211804 -0.13315861 -0.1488264
000100 db af 51 bd c7 52 05 3e f7 b8 fe 3d 72 98 ff 3b
       -0.0511931 0.13019858 0.12437623 0.0078001553
000110 ca ca 3d be 5f 7d 64 bb 9a 5e 05 3d 06 fa 64 bc
       -0.18534389 -0.0034864766 0.032560922 -0.013975626
000120 2d 8c b0 bc ef 2c 87 be 85 d5 14 3e f9 02 c5 3d
       -0.021551216 -0.2640147 0.14534576 0.096197076
000130 48 5c 96 bd be cb 2d bc 1d 06 ba 3d fe 44 1f bd
       -0.0734182 -0.010607658 0.09083197 -0.038884155
000140 06 26 a2 3d 67 99 1b be bf c5 b3 3b 68 be 3c be
       0.07917409 -0.15195237 0.0054862197 -0.18432009
000150 de 25 c7 bb 6b 20 f5 bd e4 15 99 bd 1e 49 da 3d
       -0.006077512 -0.11969074 -0.074748784 0.10658477
000160 ed ed a8 3d 8e 2b 1e 3d 4a b0 0b be 1e ca bb 3b
       0.08248506 0.038615756 -0.13641468 0.0057308814
000170 6a 2c 0e be 4e 01 2a 3e 53 fb 6a be 9f 7f cb 3c
       -0.1388413 0.1660206 -0.22947435 0.024841128
000180 ed 0b f4 3d 15 01 af 3d 86 52 ad bc 30 a2 03 be
       0.11916337 0.08545128 -0.021157514 -0.12854838
000190 2b 01 38 3c 7a b5 fb 3d 9a 7b 86 3c 1c 02 97 3d
       0.011230747 0.12290473 0.01641636 0.07373449
0001a0 28 8b d3 3b a3 cd 97 be 4a e7 06 3e d3 ed 23 3d
       0.0064557977 -0.29649076 0.13174167 0.04002173
0001b0 ac 2c 65 bb e6 d3 5e 3d 12 5a 7a 3e 99 20 51 3d
       -0.0034969253 0.0544013 0.24448422 0.05105648
0001c0 6e 0a b5 3e 37 c2 5b be 19 d0 ff 3b 31 1d 83 be
       0.3535952 -0.21460806 0.0078067896 -0.2560821
0001d0 b9 10 86 3e ee df 7b be 63 f3 93 3c 88 98 c9 bd
       0.26184633 -0.24597141 0.018060392 -0.09843546
0001e0 69 56 2a bb 51 80 8a be 04 ca ff bc 92 42 ca 3c
       -0.0025991446 -0.27051023 -0.031224258 0.024689946
0001f0 5e 00 35 3e 71 55 de bd 5d 9a d5 bd eb 73 39 3e
       0.17675921 -0.108561404 -0.10429833 0.18110625
000200 54 88 9f be b6 fc 9e 3e 54 fa b8 be d6 96 0a bd
       -0.31158698 0.31052178 -0.36128485 -0.033835255
000210 9b 3b 80 3d bf 57 81 3e 53 a1 9f 3e ec d8 f3 bc
       0.06261369 0.25262257 0.31177768 -0.029766522
000220 ba f9 ef 3d 5f 5f 7f 3e 72 38 92 be 56 89 e0 bc
       0.117175534 0.24938725 -0.2855869 -0.027409237
000230 d6 ec 9a 3e 11 7b 85 be f2 38 c3 bd 39 84 7e be
       0.30258816 -0.26070455 -0.09532346 -0.24855126
000240 14 a2 08 3d fb c2 83 3e b2 6b 6f 3d 48 cd ec 3e
       0.033357695 0.25734696 0.058452316 0.46250367
000250 52 14 bf be 83 a7 07 3e 1b 1e 8c 3e 44 6d 8d be
       -0.3732019 0.13247494 0.2736672 -0.27622426
000260 be 63 01 be 01 f6 19 3e 9a 15 cc 3d 6c 3e bb 3e
       -0.12635705 0.1503525 0.09965058 0.36571062
000270 ed fc 4d 3e e3 a0 9c 3e 66 3e a7 bd d3 32 9e be
       0.20116015 0.30591497 -0.081661984 -0.3089815
000280 5c 83 f2 3d 68 38 9b bc ed cc 3c 3c 2f d7 22 3e
       0.11841461 -0.018947795 0.0115234675 0.15902399
000290 40 05 25 3e 9d 47 ac bd e5 50 f5 bc 17 d0 1c 3e
       0.16115284 -0.08412097 -0.0299458 0.15313755
0002a0 9c 6c 4e bd fc ed 09 3e 59 a9 ca 3d 79 fb 5d 3d
       -0.050396547 0.1346969 0.09895582 0.0541949
0002b0 b4 9c 0d 3d 91 b4 91 3d 62 d4 e1 3d 89 89 96 3d
       0.034573272 0.071145184 0.11026837 0.073504515
0002c0 81 6f 34 3d 2f 40 3b 3d c9 d6 da 3d c8 fb 50 3e
       0.04405165 0.045715507 0.10685498 0.20408547
0002d0 f0 fc d8 bc d5 b2 d6 3d 5a 1f c9 3d 75 5c 55 bc
       -0.026487797 0.10483328 0.09820433 -0.013022532
0002e0 21 93 37 bd da bc 7e bd 37 0d 01 3e 76 59 26 be
       -0.044818047 -0.06219182 0.12602697 -0.16245064
0002f0 df c6 20 be 2f b6 17 bd c3 07 db 3d 5b fd 12 be
       -0.15700863 -0.03703898 0.1069484 -0.1435446
000300 a9 07 85 bd b3 d7 25 be 00 0c d7 3d 38 52 c2 3d
       -0.06495602 -0.16195564 0.10500336 0.09488338
000310 72 4a c0 bb a5 ab 2b bd 49 ba 18 be 42 11 63 3d
       -0.0058682496 -0.04191174 -0.14914812 0.05543638
000320 9f 3b 0c 3e 8f 08 16 bc 65 a3 8f bd ff b6 32 3e
       0.13694619 -0.009157314 -0.07013587 0.1745262
000330 d8 c8 fc bd 4f 8e a3 bb f6 00 ce bc 1e 4d 31 be
       -0.123429954 -0.0049913297 -0.025146943 -0.17314574
000340 ee e7 3b be 19 81 54 3d 4f 50 e6 bd 1f 76 18 bd
       -0.18350193 0.05188093 -0.112457864 -0.037222024
000350 a2 f1 07 3e 09 69 29 3e cc c3 6d 3e eb fe c4 bc
       0.1327577 0.16543974 0.23219222 -0.024047336
000360 3b a1 a1 3d 68 c3 99 3d c6 39 37 bd e2 68 e9 3d
       0.078920804 0.07507974 -0.04473283 0.11396958
000370 8a 60 ee bd 1c 5e b0 bd 7f a1 7d 3e cd 0e b6 3d
       -0.11639507 -0.086117 0.24768637 0.08889542
000380 ab 18 a9 bd 4f 9d d2 3d 89 55 3c be a9 73 2c 3e
       -0.08256658 0.102839105 -0.18392004 0.16840996
000390 db 4f 97 3c 88 f5 79 3d 2f 5e 8d 3e 01 4c 0a 3e
       0.018470695 0.061025172 0.2761092 0.13505556
0003a0 00 fe 74 3c 05 78 b4 3e ac 06 97 3c f5 ad ab bd
       0.014953136 0.35247818 0.018435799 -0.08382789
0003b0 13 2f a2 3d 46 65 d5 bc 3c f3 94 3d 57 e4 e4 3d
       0.07919135 -0.026049268 0.07272956 0.11176365
0003c0 73 54 22 be ba 3b 62 3e 41 26 51 be cb ac 90 3e
       -0.15852527 0.22093096 -0.20424749 0.2825683
0003d0 1d 4b 7e be b5 20 0e 3d 92 08 00 be 34 09 36 3d
       -0.24833341 0.03469916 -0.1250327 0.04444237
0003e0 da 3d 85 3d 93 44 4d 3d de b0 85 bc 7f 4d 7b bd
       0.06505938 0.050114226 -0.016319688 -0.061353203
0003f0 9e fc bc bd 4e ff 35 3e b1 f1 18 3e e8 fa 60 bd
       -0.092278704 0.17773172 0.14935948 -0.054926783

weight_hh_l1 f4 [96, 32]
000000 d9 7e c6 bd 0e ae 90 bd 95 ce 4d be 14 f2 55 3e
       -0.09692163 -0.07064448 -0.20098336 0.20893127
000010 8c 42 dd 3d 96 20 2b be 6a 42 20 be c2 f0 a6 3d
       0.108037084 -0.1671165 -0.15650335 0.0815139
000020 16 cd ac bd 94 6a 87 3d f0 60 06 3e b9 1a 44 be
       -0.084375545 0.06612125 0.13122916 -0.19150819
000030 e6 b9 26 3e 0b 66 2f bd ae 9d b5 3d 46 d4 13 bd
       0.16281852 -0.042821925 0.08867966 -0.03609111
000040 53 2d c5 bd be 94 a1 bd 3e 72 07 be dc a9 43 bd
       -0.096277855 -0.078896984 -0.13227174 -0.047769412
000050 cf 88 32 3b 87 13 ef 3b c3 c8 fb bb dd cc 6d bc
       0.0027242189 0.007296029 -0.007683845 -0.014514175
000060 26 cd 01 be 74 57 5d 3d a4 f2 47 bd 14 e9 10 be
       -0.12675914 0.05403848 -0.048815385 -0.14151412
000070 db f1 55 3e bf f5 d5 3d 6b 7c 35 bd b1 c3 33 3d
       0.20893042 0.10447263 -0.044308107 0.043887798
000080 6a b9 cf 3d 3d 2a 14 be 48 19 c8 bc 05 b7 09 3c
       0.10142787 -0.14469238 -0.024426118 0.008405452
000090 bc 58 c5 bd 11 77 bd bd 58 a3 05 3d ec c8 f1 3d
       -0.09636065 -0.09251226 0.03262648 0.11805901
0000a0 7d 6e 15 3e 60 ee e4 bd 8c b5 a8 bd 4c 59 bb bd
       0.14592929 -0.11178279 -0.08237752 -0.091478914
0000b0 83 03 43 bd d0 4d 0c 3e d8 e8 c5 bc 61 9e 16 bd
       -0.04761077 0.13701558 -0.02415888 -0.036772136
0000c0 b8 e1 5d 3e ef cc f5 bc 79 d3 04 3c 17 60 13 be
       0.21668136 -0.030004947 0.00810706 -0.14392124
0000d0 2b a1 68 bd fb 04 1f 3e 0a 07 0b 3e 0a 7c 1e be
       -0.056794327 0.15529244 0.13576904 -0.15477005
0000e0 38 19 9b 3d 27 0a 94 bd 1d f8 fd bd d1 55 11 bc
       0.075731695 -0.07228499 -0.124008395 -0.008870558
0000f0 ac 8c 44 bc 5d d5 01 3e 04 5e bd bd a5 c7 2c be
       -0.011996429 0.12679048 -0.09246448 -0.16873033
000100 3a 76 e1 3c 77 97 eb 3b 97 49 70 be 8f df da 3c
       0.027522195 0.007189687 -0.23465572 0.02671793
000110 75 3e ef bd 90 db 35 3e 29 cb 0d bd 34 8b 0b 3e
       -0.116818346 0.17759538 -0.034617577 0.1362732
000120 3a e6 86 bd 9b 7d 42 3d 79 2b b0 bd 5d 3a 02 bd
       -0.06586881 0.047483068 -0.08602042 -0.03179394
000130 68 4b 8c bd 7a 9b 10 ba cd 27 05 3e 5f 91 57 bd
       -0.0685032 -0.0005516332 0.13003464 -0.05262887
000140 13 d9 fc bc 7b 34 3a be e7 3b 2b 3d 92 48 d6 3d
       -0.030865228 -0.18184082 0.041805174 0.104630604
000150 3b 69 e5 bd 73 6a 36 bd 93 e1 23 bd 90 05 3b 3e
       -0.11201712 -0.04453511 -0.040010046 0.1826384
000160 be af 88 bd 6f 81 ba bd 4f 7b cb 38 85 15 1a bc
       -0.06674145 -0.09106719 9.702762e-05 -0.009404545
000170 da 83 87 bd e4 58 aa bd d8 f2 37 3e 38 7a 86 bd
       -0.066169456 -0.08317736 0.17963731 -0.0656628
000180 53 90 05 be 0e b5 83 bd e6 ca d0 bd d9 d5 b6 3b
       -0.13043337 -0.06431018 -0.1019495 0.005579692
000190 ad e6 fd bd 5e 40 d9 bd 89 90 2e be f3 d7 f4 bc
       -0.123975135 -0.1060798 -0.17047323 -0.029888129
0001a0 15 cb 17 3d 42 b5 33 be ae 37 4c be 45 14 70 3d
       0.03705891 -0.17549613 -0.19943115 0.05861308
0001b0 bf c0 e8 3d 12 63 33 bc c8 76 f4 bd f3 bc b5 bd
       0.113648884 -0.010948913 -0.11936718 -0.0887393
0001c0 fd 9b 08 3e 26 0c c1 bb 52 77 41 3e 6f 85 b1 bd
       0.13340755 -0.005891341 0.18893173 -0.086680286
0001d0 d6 bd 29 3e 1d 05 38 be fb b0 01 be e1 88 07 3d
       0.16576323 -0.179707 -0.12665169 0.033089522
0001e0 0c 61 97 bd 7a 7e b3 3d de 99 b0 bc 44 77 d9 bd
       -0.07391557 0.08764358 -0.021557745 -0.10618451
0001f0 90 53 36 3e 66 a6 6c bd 2c 63 6e 3d ea be 5d 3d
       0.17805314 -0.057775877 0.058200046 0.054137148
000200 61 a5 b0 bd 3c fc 50 3c d6 a5 5c bd aa 79 a9 3e
       -0.086252935 0.01275545 -0.05386909 0.33100635
000210 2d 15 2b bd a4 04 2b be ce 66 59 be be 24 d9 3e
       -0.04176824 -0.16700989 -0.21230623 0.42410845
000220 dc ad 83 3e 38 9d 0c be 23 c8 c0 bd 24 da 9e 3c
       0.25718582 -0.13731849 -0.09413173 0.019391127
000230 ee dc 6d 3e 94 e6 75 be 7c 9c 85 bd b1 e2 5c 3d
       0.23228809 -0.2401374 -0.06523988 0.053927127
000240 b8 53 b4 bd b2 0e 58 be ec a2 ea ba 40 ba 49 3e
       -0.088050306 -0.21099356 -0.0017901338 0.19699955
000250 de e1 d1 3d fa 5b 66 3e 02 46 f4 bc 3c c6 08 be
       0.10248159 0.22496024 -0.029818539 -0.1335687
000260 7b 9b a6 3d 30 68 5f 3d 6f d6 18 be b2 85 e5 3d
       0.08135124 0.05454272 -0.1492555 0.11207141
000270 27 f6 50 3e f4 66 21 be 2b de 48 3c 88 45 bf bd
       0.204064 -0.1576193 0.01226 -0.09339434
000280 fc 6c 5e 3d 74 f2 c1 bd 8f 65 20 be 42 bd a2 bd
       0.054303154 -0.094700724 -0.15663742 -0.07946254
000290 5c c2 43 bd 6c 4a 3f 3e 23 cd 36 3e 7f 43 05 bd
       -0.047792777 0.18680733 0.17851691 -0.032535072
0002a0 bd fb 4c 3d 91 bd 58 3d 78 d4 a1 3d 6a 84 5a 3e
       0.050044764 0.05291516 0.07901853 0.21339574
0002b0 e9 b8 95 bc 15 cf 3b be 57 63 e8 3c d1 48 67 bd
       -0.018276649 -0.18340714 0.028367681 -0.056465928
0002c0 e5 63 1c 3e c0 3f eb 3d aa 21 8b 3d fd 6d d0 3d
       0.15272482 0.11486769 0.0679353 0.101772286
0002d0 2f 45 b8 3b ab 4d c2 bd 4d 7f 93 3d 81 81 ee 3d
       0.0056234817 -0.0948747 0.07202015 0.11645795
0002e0 88 b0 d0 bd 7d 7d 55 bd c5 2a 34 bc 95 3f 87 bd
       -0.10189921 -0.052121628 -0.010996525 -0.06603924
0002f0 b8 30 4a bd dd 12 f8 3c 4d 46 c5 bd 3b 5a fa 3d
       -0.049362868 0.030282432 -0.096325494 0.12224241
000300 a9 da d7 bd b8 4f 32 3e 8e 8d bf bd 66 0e 2b b9
       -0.10539753 0.17413223 -0.09353171 -0.00016313195
000310 b8 0f ef bc 9a 8e 35 3d ed 79 16 3e 42 1c fb bd
       -0.0291823 0.04432545 0.14694948 -0.12261249
000320 01 4a e3 bd c4 53 10 3e d8 d3 89 bd 39 2b 48 be
       -0.110980995 0.14094454 -0.06729859 -0.19547738
000330 0e e7 df bc 52 d4 ad 3d 58 f4 37 3e 4c 0c bb bd
       -0.027331855 0.084877625 0.17964303 -0.09133205
000340 64 3e ea 3c 02 0a 8d 3d c5 84 f6 3d bb e8 24 3e
       0.028594203 0.068866745 0.120370425 0.16104405
000350 5d c9 71 3d bc b6 da bd 01 4f 5f 3e ea 99 37 be
       0.059029926 -0.10679385 0.21807481 -0.17929807
000360 70 74 30 bd cb 7d 60 3d 1b 2f 34 3d 9a cd 38 3e
       -0.043079793 0.054807466 0.043990236 0.18047181
000370 64 fd 66 be f5 0e 85 bd 50 20 58 3d e6 80 bb bd
       -0.22557598 -0.064969935 0.05276519 -0.09155445
000380 86 ba 07 be 67 8c 86 bd 95 f4 2f be c9 71 3c be
       -0.13254747 -0.06569748 -0.17183144 -0.1840278
000390 fe 28 24 3e f6 d1 b9 bd 01 c2 2d be 56 e7 1e bc
       0.16031262 -0.0907325 -0.16968538 -0.0096987095
0003a0 be a9 46 3d 75 e5 06 3e cf 08 54 3e c4 8f 1e 3d
       0.048501723 0.13173468 0.20706485 0.038711324
0003b0 bd 73 28 be de 6e 55 3d aa 99 8b 3d e3 64 98 3d
       -0.164504 0.052107684 0.068164185 0.074411176
0003c0 2a 59 a6 bd 2d 2c b6 bd 00 b5 02 bb 26 28 a8 bc
       -0.081224754 -0.088951446 -0.001994431 -0.020526957
0003d0 3b 59 ca 3d 85 0e 48 be 11 a2 6b 3d 72 63 30 3d
       0.098803006 -0.19536789 0.057527605 0.04306359
0003e0 a7 b4 b2 bd be 71 61 3e 6b 86 2b be 37 cc d8 3d
       -0.08725863 0.22016045 -0.16750495 0.10585826
0003f0 20 ac 4a 3e d4 cc 47 be a7 bd 34 be 43 97 1a 3d
       0.19792223 -0.1951173 -0.17650472 0.03774191

bias_ih_l1 f4 [96]
000000 4c a9 15 3e 3f af 86 3c 22 ed 16 be b7 27 92 bd
       0.14615363 0.016440986 -0.14738896 -0.07136481
000010 6c fe 1f 3e fa 23 6d 3d 60 54 2e 3e ff bb 53 3e
       0.15624398 0.057895638 0.17024374 0.20677184
000020 7f 6e 36 3d b8 25 a0 3d 26 29 b9 3d d3 d7 f6 bc
       0.04453897 0.07819694 0.090410516 -0.03013221
000030 9d ea 08 3d dc 92 c9 3d 08 90 e2 3d a0 47 3b 3d
       0.03342687 0.09842464 0.11062628 0.045722604
000040 72 9d 52 bd 69 9d 67 bd ee 01 09 3d a7 87 d6 bd
       -0.051419683 -0.056546602 0.033449106 -0.104750924
000050 ff 0f 41 3e f2 d3 66 3d 2d 54 cf bd aa 23 d5 3e
       0.18853758 0.05635447 -0.10123477 0.41628772
000060 2e 85 85 3c 40 df 0c 3e 19 05 54 3e 8f d0 fe bd
       0.016298857 0.13757038 0.2070507 -0.12442123
000070 62 bf 94 bd 1c 38 3b 3e cc db 27 3d 3a 8c 47 bc
       -0.07263066 0.18283123 0.0409811 -0.012179429
000080 38 fb 54 be 9f ea f5 be 45 5c 02 bf 46 95 af be
       -0.20798957 -0.48030564 -0.5092204 -0.34293574
000090 fd 00 23 3d 6c 3f a2 bd 86 8a 42 bd 3a 0e 2d 3c
       0.039795864 -0.07922253 -0.047495387 0.010562474
0000a0 71 d6 a9 be ac 4e c3 bd 53 50 6f be 86 03 9a be
       -0.33171418 -0.0953649 -0.23370485 -0.30080813
0000b0 81 3b d0 be 68 d0 b8 be 77 00 04 bc 5d 13 5e 3d
       -0.40670398 -0.360965 -0.008056751 0.054217685
0000c0 ce 53 92 be 47 c9 44 bc e6 57 92 be 16 e0 a6 be
       -0.28579563 -0.012010879 -0.28582686 -0.3259284
0000d0 14 dc 72 be 3c b6 23 bd 14 7b 09 be 08 32 20 be
       -0.23716766 -0.039968714 -0.13425857 -0.15644085
0000e0 33 13 b9 be 22 c5 94 be fa 29 33 bf 62 21 5d bd
       -0.3614746 -0.2905665 -0.69985926 -0.053986914
0000f0 83 f8 9c be 3b c4 52 be 6a 40 9a be 88 16 42 be
       -0.3065835 -0.20582668 -0.3012727 -0.18953907
000100 3e b1 86 bd 2b d5 05 be 71 7b bc bd 4b 59 f8 3d
       -0.06576775 -0.13069598 -0.09203232 0.12126406
000110 13 1f a8 3d d2 b5 37 be 1c cf 43 be ea d4 1c 3e
       0.08209052 -0.17940453 -0.19121975 0.15315595
000120 15 4a 7f 3e 40 a1 32 bd 39 c6 54 3e 6f e8 1a be
       0.24930604 -0.04361081 0.20778741 -0.15127729
000130 49 b5 ec bd 10 f9 da 3d 6e ba 33 be 67 a1 2a 3c
       -0.11558015 0.10692036 -0.17551586 0.010414458
000140 3d 11 e9 bd 31 8d 3a bd 1e 48 26 bd 36 5b e3 3d
       -0.11380241 -0.045544807 -0.04059612 0.111013815
000150 7c cf 98 3d 6c a8 8b bd 8b eb 65 be 58 41 95 be
       0.074614495 -0.06819233 -0.22453134 -0.29151416
000160 90 a3 1f 3e 8d b3 84 3d b9 95 80 bd 11 70 b2 3d
       0.15589738 0.06479559 -0.06278557 0.08712781
000170 de 28 df bc 23 6f 4a bc ee 62 18 be 52 8b 60 3c
       -0.027241167 -0.012355599 -0.14881489 0.013705092

bias_hh_l1 f4 [96]
000000 e3 25 12 3e 3f 09 13 3d a7 fd 0b 3e be f9 30 3e
       0.14272265 0.03589749 0.1367098 0.17282769
000010 9a da 99 3e cc 87 8e bd 71 c0 ba 3d 7a 66 3d 3e
       0.30049592 -0.06959495 0.091187365 0.18496123
000020 dd 91 a9 bd 74 1b d1 bc 17 f5 91 3d 77 a3 47 bc
       -0.08279774 -0.025525786 0.07126825 -0.012184969
000030 5e d4 0d 3e ae 42 2d bd 09 9e 85 3e 35 97 8d 3d
       0.13850543 -0.04229992 0.26097134 0.06913606
000040 b6 78 97 bc 7f 14 12 3e 11 96 2e 3d a6 2e 84 3b
       -0.018490177 0.14265631 0.042623583 0.0040338812
000050 26 17 b0 3e fe ac 94 3d fb 47 89 3d 14 84 d4 3e
       0.3439266 0.07259558 0.06703182 0.41507018
000060 13 4e 08 be ae df 39 bd be d8 36 3e 74 da 16 be
       -0.13311033 -0.045379333 0.17856118 -0.14731771
000070 c6 23 e4 bd 06 f7 37 3e 42 9e 26 bb e2 af b5 3d
       -0.11139636 0.17965326 -0.002542392 0.088714376
000080 74 c4 f2 be a4 28 d3 be 53 17 0e bf 32 e9 b7 be
       -0.47415507 -0.41241944 -0.5550434 -0.359201
000090 59 54 dd 3d 6f fc 21 be e1 ec 55 bd 0b 87 87 3d
       0.10807104 -0.15818952 -0.05222786 0.06617554
0000a0 4b 89 d2 be 57 2d ff bd 3e b4 bb be 25 f3 9d be
       -0.4112037 -0.1245982 -0.3666095 -0.30849567
0000b0 21 75 06 bf a8 bf ab be df 35 0f 3e eb b2 2c 3e
       -0.52522475 -0.3354466 0.13985394 0.16865127
0000c0 bc 99 d3 be 93 99 33 bd 42 2b 40 bd f9 20 6a be
       -0.41328228 -0.04384763 -0.046916254 -0.2286414
0000d0 56 61 b3 be 1f 32 0c bd c8 12 50 be 22 66 d9 bd
       -0.350352 -0.034227487 -0.20319664 -0.106151834
0000e0 99 5a da bd a1 be f2 3c 2d 79 09 bf c9 e9 01 be
       -0.106618114 0.029631915 -0.53700525 -0.12686838
0000f0 e3 fc 86 be bb d5 c6 bd 39 ed 67 be 12 e1 25 be
       -0.26364812 -0.097087346 -0.22649087 -0.16199139
000100 67 68 84 be 66 fd d7 3d 0b f4 ba bd 0c 67 29 be
       -0.25860903 0.10546379 -0.09128579 -0.16543216
000110 30 8f 1b 3c 44 1a 38 bd 92 ca 61 be 6d aa 77 3e
       0.009494588 -0.044946924 -0.2204993 0.24186106
000120 fd 26 f9 bc 8d 55 a1 bd f4 ef 56 ba 0a 41 99 bc
       -0.030414099 -0.07877646 -0.0008199208 -0.01870777
000130 9e ef 37 3e af 5f 3b be e6 7c 51 be d7 a5 e4 bd
       0.179625 -0.18298219 -0.20457801 -0.11164444
000140 e8 b1 22 bd 97 f5 0e be 8f da 4f be d0 24 43 3e
       -0.039720446 -0.13960873 -0.20298217 0.19057012
000150 9f 4b d3 bd 5c fb a4 3d 21 4e 5f 3d 40 c9 82 be
       -0.10317158 0.080557555 0.05451787 -0.25544167
000160 3a 24 c1 3d d9 eb 84 3e 5c ce 99 bd 08 74 1c be
       0.09430738 0.25961187 -0.07510063 -0.15278637
000170 96 a4 10 be fd b6 8a 3e 69 e3 1f be b7 41 26 be
       -0.14125285 0.27092734 -0.15614094 -0.16236006

weight f4 [2, 33]
000000 ae 11 0f be 11 89 59 be 7c b6 8f 3e 84 05 7b be
       -0.13971588 -0.21243693 0.28068912 -0.24513823
000010 9f 79 84 bd 4e 64 92 be cf 55 64 3e 47 53 3d be
       -0.0646851 -0.2859215 0.22298358 -0.18488799
000020 e2 ed c2 bd 18 22 ae bd 56 73 30 3e cf 47 66 be
       -0.09518029 -0.085025966 0.17231497 -0.2248833
000030 15 44 1e be 43 02 67 3e ed 4c 0b be d8 44 1a bd
       -0.15455659 0.22559457 -0.13603564 -0.03766331
000040 f5 d0 7e be 4d be 3e 3e c1 fc a5 3c 56 3f 53 be
       -0.24884398 0.18627281 0.020262124 -0.2062963
000050 37 19 7d 3b 7a b9 32 be 95 c7 ea bd 14 c7 51 3d
       0.0038619766 -0.17453566 -0.114638485 0.051215246
000060 8c 81 6d 3e 15 9a d1 3d 56 5c 14 3e ce 82 63 be
       0.2319395 0.10234467 0.14488348 -0.22217867
000070 96 9c 4d be 18 52 8b 3c 55 c3 70 be a5 33 71 3e
       -0.20079264 0.017006919 -0.23512013 0.23554857
000080 89 81 44 bb 17 0b 1e 3d 44 89 09 3e dc 2f 3b bd
       -0.0029984436 0.038584795 0.13431269 -0.04569994
000090 ef d2 89 bd b9 97 75 be 7d a8 42 3e bb f4 2d 3d
       -0.067296855 -0.23983659 0.19009586 0.04246972
0000a0 ea b0 3e be 2a 25 9e bc a0 ef 31 3e dc d4 25 be
       -0.18622175 -0.01930483 0.17376566 -0.1619448
0000b0 db 9e b0 bc 0a 96 19 3d 29 7b 3e 3e 78 55 5e 3e
       -0.021560123 0.037496604 0.1860167 0.21712291
0000c0 43 dc 83 be 46 58 f9 bc 8b f4 34 3e 8a 8d e2 3d
       -0.25753984 -0.0304376 0.1767141 0.11062153
0000d0 5a 12 f4 bd 59 22 81 be b0 6e ec bc 81 6c bc 3d
       -0.11917563 -0.25221518 -0.028861374 0.09200383
0000e0 20 96 a4 be 79 52 f3 3d 8c 66 24 be da ff 77 be
       -0.32145786 0.11880965 -0.16054744 -0.24218693
0000f0 c1 ba 34 3d c5 b5 21 be e1 fb 88 3e 3a ba 30 bd
       0.044123415 -0.15791996 0.26754668 -0.04314635
000100 7b bc 49 3e 73 70 44 bc
       0.19700806 -0.011989701

bias f4 [2]
000000 80 3c 9a 3d 7e 62 e0 3d
       0.07531071 0.10956286
