models/stochseq_model=GRU_layers=1_hidden=32.pt (torch, 17830 bytes, 6 tensors)

weight_ih_l0 f4 [96, 2]
000000 8c 88 89 bd e9 2a 30 3e cf 5e cb bd 5a 70 75 be
       -0.067154974 0.17203869 -0.09930193 -0.2396864
000010 74 be 73 3d 79 f5 c6 3e df e5 0b be 4e bf 32 3e
       0.059507802 0.38859156 -0.13661908 0.1745579
000020 22 c4 19 3d 7e c7 d1 3c ef a7 37 be f7 f9 4c 3c
       0.037540562 0.02560782 -0.17935155 0.012510768
000030 d2 47 bb 3c 25 a8 5d 3e 25 a0 2f be ef 41 42 3e
       0.022861395 0.21646173 -0.17150934 0.18970464
000040 1a 90 0e 3e ac af e9 3c 4a a8 64 3e 6c fc b3 bd
       0.13922158 0.02852615 0.22329822 -0.0878838
000050 4c 0a 04 3e 26 66 37 be 8d 77 d6 3d a7 67 05 3e
       0.12894553 -0.1791006 0.10472021 0.13027821
000060 71 ed 36 3e bc 51 4e be e2 ad ec bd a4 3e 71 3d
       0.17864014 -0.20148367 -0.11556603 0.05889763
000070 36 ae 6e bd fc c4 7b 3d 7a a3 39 bd 70 9d 34 3e
       -0.05827161 0.061467156 -0.04532192 0.17638183
000080 57 0c 3a 3e 15 40 28 be d3 75 f1 bd 9d da 97 3e
       0.1816877 -0.16430695 -0.11790051 0.29658976
000090 5a 58 33 be bb 27 4a 3d 6c c0 52 be 9b a7 a1 3d
       -0.17514172 0.049354296 -0.20581216 0.07893296
0000a0 94 8c 65 3c 67 dc 90 be c4 46 26 3c 6c 23 45 be
       0.014010567 -0.28293154 0.010148708 -0.19251794
0000b0 d2 be 97 bd 76 a3 b0 be 7a fe 35 3e b2 d9 b6 be
       -0.07409443 -0.3449971 0.17772856 -0.35712963
0000c0 b3 42 0d be 6d d4 8e be c4 d0 e2 3d 02 06 1c be
       -0.13794975 -0.27896443 0.11074975 -0.15236667
0000d0 1e 6f f9 bd cf 34 5c be 28 0b a0 bc c9 eb b8 3e
       -0.12179397 -0.2150452 -0.01953657 0.3611739
0000e0 b4 3d 92 3d cc 03 85 be 0b a4 91 3d 40 a2 46 3e
       0.07140675 -0.2597946 0.07111367 0.19397831
0000f0 b1 31 90 3e be f1 11 3e 3a d3 b5 3d e8 21 97 bd
       0.28162912 0.14252374 0.08878179 -0.07379514
000100 5e 1a 95 3e a3 3f 5e bd 9a f5 43 3f 16 14 b1 bd
       0.2912168 -0.054259907 0.76546633 -0.08646409
000110 85 9b 47 bf 3c 7a cf be 0b 76 73 bf f1 bd 59 be
       -0.7797168 -0.40522945 -0.95101994 -0.21263863
000120 5c 36 9f be 06 3b 06 be 23 8f 27 3e bf 6d d6 3c
       -0.3109616 -0.13108453 0.16363196 0.026175378
000130 e1 c3 93 bd 71 7e b1 3d 27 a3 b2 be 5b a9 76 bd
       -0.07215095 0.08666695 -0.348901 -0.060220104
000140 c9 1d 50 bf 9b cd 60 be b5 38 ee 3e 16 ae 69 be
       -0.8129545 -0.21953432 0.4652764 -0.22820315
000150 fa 51 8e 3d 15 5e 94 bd 95 98 13 3f cd 3e b2 3e
       0.069492295 -0.07244507 0.57654697 0.34813538
000160 cc f2 78 3f 48 26 5a 3e 6e 1a 5e 3b ba 7c 1b 3d
       0.9724548 0.21303666 0.0033890265 0.037960745
000170 f6 86 15 bf e3 2a e8 3d 35 3d a3 bd 96 49 cd 3c
       -0.5840906 0.11336305 -0.07970659 0.025059503
000180 2b 10 f7 3d 59 9b 41 3e 32 3b 85 bf 55 77 8d bd
       0.12063631 0.18906917 -1.040869 -0.069075264
000190 9f ee 77 bf 24 a4 a7 be 3c e0 55 bf d0 50 09 3c
       -0.9684848 -0.32742417 -0.8354528 0.008381084
0001a0 00 90 c3 3e e8 bd 6c bd 55 8a dc be fc 6c fc 3d
       0.381958 -0.057798296 -0.4307429 0.123254746
0001b0 45 a7 c3 3d ef a7 9a 3d 3a 59 02 bf d0 c8 84 3c
       0.095533885 0.07551562 -0.509174 0.016209036
0001c0 27 d3 cc 3e f1 4b 2d 3e d9 fa 45 3f 20 6e 1a 3d
       0.40004846 0.169235 0.7733589 0.03770268
0001d0 6d d7 59 3e 71 1d a3 be f6 76 2f 3c 15 ed a5 3d
       0.21273585 -0.318584 0.010709515 0.081018604
0001e0 47 62 83 3f 15 48 d7 3e 0e 67 75 bf df 75 fe bd
       1.0264367 0.42047182 -0.95860374 -0.12424826
0001f0 6c 77 45 be 9e ac 91 be 5c 0a 3e 3f 23 d6 86 3e
       -0.19283837 -0.2845201 0.7423456 0.26335248
000200 fa 71 42 3d f2 bb 56 be 0c 1d a2 bd 84 0a 80 3e
       0.047471978 -0.20970133 -0.079156965 0.25008023
000210 48 bf f9 bd b0 bd ef bd 0d ad f3 3d 28 9e 2b be
       -0.12194687 -0.11706102 0.11898241 -0.1675955
000220 66 a0 38 3d 3e 45 7f 3e d5 2f 0a 3e 38 2f 8a 3c
       0.045074843 0.24928758 0.13494809 0.016868219
000230 14 0c 72 bd 9e 47 76 3a c3 f3 ac bd de f5 4d 3e
       -0.05909355 0.0009394827 -0.08444931 0.20113322
000240 56 f3 c8 bd af f4 9b be 09 ed 8d bd 44 77 31 be
       -0.09812038 -0.30460116 -0.069299765 -0.17330652
000250 d4 fe 01 be bc f8 8a be 53 7f 77 3e 16 d5 9e 3d
       -0.12694865 -0.27142894 0.24169664 0.07755487
000260 ea d7 25 bd ac dd 1c 3e d7 9d 0f 3e d5 7a 67 3e
       -0.040489115 0.15318936 0.14025055 0.2260545
000270 be 09 15 3e 10 61 f7 3d b6 b5 bf 3d c2 c5 8d 3e
       0.14554498 0.1207906 0.093608305 0.2768994
000280 d2 e1 db 3c 3f c7 81 be 11 ca b2 bd 79 f1 84 be
       0.026841078 -0.25347325 -0.08729947 -0.2596548
000290 61 e7 97 3d 46 8f 74 be bf 56 c4 3c a5 74 73 3e
       0.07417179 -0.2388278 0.023967145 0.23774965
0002a0 b5 fd 94 bd 51 51 81 bd d1 0b f4 bd 80 d6 4d be
       -0.07274953 -0.06314338 -0.11916316 -0.20101357
0002b0 6d c9 16 be 85 a6 0b be e8 e6 68 3c 49 8a 63 be
       -0.14725275 -0.13637741 0.014215209 -0.2222072
0002c0 b1 0e 05 bf 09 37 4a 3c d7 b6 bd 3d 35 4b 36 3e
       -0.5197554 0.012342223 0.092633896 0.17802127
0002d0 db f1 24 3e 04 07 cf 3d 3f 1b 15 be 1a 50 88 3e
       0.16107886 0.1010876 -0.14561175 0.26623613
0002e0 cb 4b bc ba 12 82 d8 3d 6e c0 36 3d a1 7e 07 3e
       -0.001436585 0.10571684 0.04461711 0.13231899
0002f0 7f fb 47 3e 52 42 d7 3b c8 42 2a 3e c4 d8 1e 3e
       0.19529532 0.0065691853 0.16627038 0.15512377

weight_hh_l0 f4 [96, 32]
000000 0f ec 3d 3d 3f 72 57 3e 19 cf eb bc 6e 72 1d 3e
       0.0463677 0.21039675 -0.028785275 0.15375683
000010 f2 9e d2 3d 00 5f d3 3d ce 1a 98 bd 6d c9 0b 3d
       0.10284223 0.10320854 -0.074269876 0.03412764
000020 44 a7 59 3e a8 d9 05 be 9e 1c 85 3c 53 a6 14 3e
       0.21255213 -0.1307131 0.016248997 0.14516573
000030 b0 c4 d9 bb ae d9 18 3e 23 e9 a7 3d e0 21 08 3d
       -0.0066457614 0.14926788 0.08198764 0.03323543
000040 7d 36 c0 3d 2d 4f 51 3e 00 b5 eb bc 8c 96 1d be
       0.09385393 0.2044036 -0.028772831 -0.1538946
000050 ce 0a e9 bb 03 dc 5f bb bd fd 7e bd 0c 3d 86 bd
       -0.0071118837 -0.0034158237 -0.062253702 -0.065546125
000060 cd 5d 5f be 1d 4f a8 bd 59 d5 47 3e d5 2a 27 3e
       -0.21813126 -0.08218215 0.1951498 0.16324933
000070 37 86 0d be b8 b1 6f be 12 5a 24 bd 22 6a ce 3c
       -0.1382073 -0.23407638 -0.04012496 0.025197092
000080 46 0e 08 be d6 91 85 bd b0 c7 93 bd 8c 88 f6 3d
       -0.13286695 -0.065219566 -0.07215822 0.12037763
000090 b1 67 c9 bc 13 b4 33 3e 2d 45 2d 3e 58 d9 04 be
       -0.024585577 0.17549162 0.1692092 -0.12973535
0000a0 0e 0e da bd 30 d2 88 be f1 9f 09 bc 85 d8 73 be
       -0.10647212 -0.2672286 -0.008399949 -0.23813064
0000b0 93 cc b9 bd 36 50 a9 3a 12 4f d8 3d b1 b6 89 3d
       -0.090722226 0.0012917581 0.105619565 0.06724299
0000c0 e6 7f 91 bd bb 6a 53 3e 83 f2 13 be e1 ff 9e bd
       -0.07104473 0.20646183 -0.1444798 -0.07763649
0000d0 d1 e3 34 be a4 49 3d bb 15 b9 ba 3c 4f 5a 77 be
       -0.1766503 -0.0028883005 0.022793332 -0.24155544
0000e0 ef ea 5f bd 71 a4 eb bd ec a0 54 bd 01 b7 a8 3d
       -0.05466741 -0.11505974 -0.05191128 0.0823803
0000f0 cd 38 95 bd 5e d6 0c bd 9d 2c 19 3e fb 30 6a 3d
       -0.072862245 -0.034384124 0.14958425 0.057175618
000100 05 94 03 3e 08 ef 8c be 2b 41 b9 bd c4 20 ce bd
       0.12849434 -0.27526116 -0.09045633 -0.10064843
000110 0e 3b 49 3e af 58 1d bc 50 1e 8e be 53 e4 3d 3d
       0.19651434 -0.009603663 -0.27757502 0.046360325
000120 47 aa 8c be fe be fe 3d dc a4 bc 3d e4 c1 a4 3e
       -0.2747366 0.124387726 0.09211132 0.32179177
000130 bb a6 52 be a4 18 f3 bc dc 98 72 3d 30 dc 97 bd
       -0.20571415 -0.029674836 0.05922781 -0.07415044
000140 cc 71 bd bd f9 5e ca be 92 79 04 be 5a 5e 18 3e
       -0.09250221 -0.39525583 -0.12937 0.14879742
000150 5c 48 5a 3e 32 6c 29 be 78 7e 5c 3e cf d2 a1 bd
       0.21316665 -0.1654518 0.21532619 -0.07901537
000160 f3 7d a4 3e ce fd 8b be af 4e 96 ba 15 b5 48 3e
       0.32127342 -0.27342075 -0.0011467541 0.19600327
000170 3a 2a 53 be ad a5 c3 3e 18 31 7a 3e 39 84 e1 bd
       -0.20621577 0.38212338 0.2443279 -0.110115476
000180 f0 09 c1 3d 67 4e 46 bd 91 ea 1b bc 53 1e ed bd
       0.094257236 -0.048414614 -0.009516374 -0.115780495
000190 87 18 8c bc 02 4a 17 3e 25 10 ec 3c a9 fb fa bd
       -0.01710154 0.14774325 0.028816292 -0.122550316
0001a0 09 fd b4 bd 8a f4 1b bd 0d cc 1d be a5 84 6c 3d
       -0.08837325 -0.038075007 -0.1540987 0.057743687
0001b0 ab 3c d3 bc 74 e1 2f 3d ff 63 8d be ef 06 af bb
       -0.025785765 0.04293962 -0.27615353 -0.0053414027
0001c0 b2 22 22 3d 5b 8c 96 bc 49 c0 27 3d ee 19 51 3c
       0.03958387 -0.018377474 0.04095486 0.01276253
0001d0 b0 2e 44 bd 47 a4 b8 bd bb 02 d9 bd fb d1 cb bc
       -0.047896087 -0.090157084 -0.10596224 -0.0248804
0001e0 c8 68 f5 bd b5 af 4a bd fb b9 39 3e 68 a6 5d be
       -0.11982876 -0.049483974 0.18137352 -0.2164551
0001f0 c2 5d fc 3d 55 1a 85 bd 8e b4 9a 3c c9 35 45 bd
       0.123225704 -0.06499163 0.018884923 -0.048146997
000200 26 e1 04 bd 2b 79 84 bd d8 2b cc bc 90 24 1e 3d
       -0.03244128 -0.064684235 -0.02492325 0.038609087
000210 8c 44 27 be d2 5e 68 bd 9f 44 86 3d 66 2f 52 be
       -0.16334742 -0.056731053 0.06556057 -0.20525894
000220 0f 44 c3 bd c0 6a 19 ba 8d b6 18 be 2d 37 1c 3e
       -0.095344655 -0.0005852394 -0.14913388 0.15255423
000230 d3 ca a7 bd 59 0e e1 3d f9 d3 53 3d 8a 3a 0d be
       -0.081929825 0.10989065 0.051715825 -0.13791862
000240 b5 72 1c be 86 ef 6b 3c a3 43 3c 3e 8c fb 47 be
       -0.15278132 0.014400369 0.18385176 -0.19529551
000250 57 b3 20 3e aa 59 ef bd e3 df 36 bd 05 58 0a 3d
       0.15693413 -0.11687024 -0.04464711 0.03377535
000260 64 c2 e9 bd 3b 45 f6 bd 9c 91 cb bd e1 ec cc bc
       -0.1141403 -0.120249234 -0.09939882 -0.025015296
000270 17 73 44 bd 17 8c ff bd 53 53 6c be c0 cc ec 3d
       -0.04796132 -0.12477892 -0.2307866 0.115624905
000280 62 6c 07 3f d6 a6 d1 be 2c 65 2b bf 06 38 16 bf
       0.52899754 -0.40947598 -0.6695125 -0.58679235
000290 f9 b0 30 3e d9 70 66 be d3 a2 35 bf 6c ec 10 3e
       0.1725501 -0.22503985 -0.70951575 0.14152688
0002a0 16 f1 e9 be 63 dc 0e 3f 73 29 a1 3e 41 f7 1c 3f
       -0.45691746 0.55805033 0.31476936 0.6131478
0002b0 7a 3e 1b bf 3b d5 77 3c ba f7 2d 3f 6b f9 c2 3c
       -0.60642207 0.015126522 0.67956126 0.023800572
0002c0 a7 dd 1c 3e 9d b1 24 bf f7 a1 1e bf de b5 38 3f
       0.15318929 -0.64333516 -0.6196589 0.7215251
0002d0 93 c5 a3 3e 93 56 0c bf c4 bd 02 3f 70 fd 1c be
       0.31986675 -0.548196 0.5107081 -0.15331054
0002e0 18 4e 8b 3e 7e d8 ec be 2c f5 a5 be a7 8f ec 3d
       0.27208018 -0.4625892 -0.32413614 0.11550837
0002f0 91 61 0d bf 4c 3e ca 3e f0 9e 02 3f 5d 32 02 bf
       -0.55227 0.39500654 0.5102377 -0.508581
000300 01 06 0e 3e 94 79 94 be c9 5b 80 be 78 00 a3 be
       0.13869478 -0.28999007 -0.25070027 -0.31836295
000310 bc cf 78 3e 60 f6 f4 3c c7 56 39 bd 6c c9 19 3e
       0.24297994 0.029902637 -0.045248773 0.15018243
000320 15 53 e7 bd a5 e0 0e 3e 55 6a c6 bc c4 00 95 3d
       -0.112951435 0.13952883 -0.024220625 0.07275537
000330 f3 29 48 3d 5d 92 0d 3e 8e 3f 47 3e 1e 39 3a 3e
       0.04886813 0.13825364 0.19457838 0.18185851
000340 f3 5d a6 3d d6 b4 79 bd 48 43 17 be 05 6b 41 3e
       0.08123388 -0.060963474 -0.1477176 0.18888481
000350 45 92 97 3e fb 44 a1 bd 91 cc 19 3e a7 9f f4 3d
       0.29603782 -0.07874485 0.15019442 0.11944514
000360 55 c3 42 3d c0 84 6e be a8 44 b8 bc 43 21 47 3e
       0.047549564 -0.23292828 -0.022493675 0.19446282
000370 52 01 81 bc e7 60 9f 3e 5c e2 84 3e 06 40 c4 bd
       -0.0157477 0.31128618 0.25953948 -0.09582524
000380 98 e1 93 3c 05 a4 6e be 63 c0 2d 3e af ba 55 3e
       0.018051907 -0.23304756 0.16967921 0.20871995
000390 34 8a 1a bc ec 29 e7 bd 8d fc d3 bc bb 46 18 3d
       -0.009432364 -0.11287293 -0.025877262 0.03717683
0003a0 e3 eb dc 3d b3 2c 88 3b b4 52 b2 bd a4 60 07 bd
       0.10787179 0.004155719 -0.087071806 -0.033051148
0003b0 0b d1 d9 bd 1c 5b 7b be 7c 7e ef bd 5b f4 8c 3d
       -0.10635575 -0.24546474 -0.11694047 0.068825446
0003c0 2d bc 09 3e 81 a0 02 be 23 e2 93 bd aa bc d1 3c
       0.1345069 -0.1275654 -0.072208665 0.025602657
0003d0 46 9d fd 3d 1f 34 95 3d f6 55 b2 3d cc 55 cb 3d
       0.12383513 0.07285332 0.08707802 0.09928474
0003e0 59 49 e6 3d 27 27 77 3a dd d8 39 3d d6 cf a4 3d
       0.11244459 0.00094281364 0.045372833 0.08047454
0003f0 66 da 09 3d 1f 5c 5a bd 88 c0 de 3b 88 c9 b9 bd
       0.033655547 -0.05331051 0.006797854 -0.09071642

bias_ih_l0 f4 [96]
000000 2d 23 34 be cf c0 0e bb 0b f5 10 3e a0 ca 8e 3d
       -0.17591543 -0.0021782403 0.14155976 0.069722414
000010 fc 54 9c 3d 01 09 59 3e 5a 55 0e 3e ac 35 02 3e
       0.07633397 0.21194841 0.13899747 0.12715787
000020 c6 f2 07 3d 21 d5 71 bd 01 1d 77 3e 20 0c 94 3e
       0.03319051 -0.059041146 0.24132158 0.289155
000030 4e b8 9e 3d 9f 4c 05 3e f9 30 d0 bc 0c 49 10 be
       0.07749997 0.1301751 -0.025413977 -0.14090365
000040 d3 3e 42 3b e9 1b 35 be d3 06 d6 3e 63 d9 13 be
       0.0029639497 -0.17686428 0.4180208 -0.14438395
000050 50 71 cf 3d 97 9a a9 3c cb 5b 5e 3e 9e 52 e3 bd
       0.101290345 0.020703597 0.21714704 -0.11099742
000060 d8 24 9b 3e 41 bc 1a bd e4 04 c6 bd 92 4b e4 3d
       0.30301547 -0.03777719 -0.096689016 0.111472264
000070 27 40 37 3e c3 e9 9e 3d f9 b2 c8 3d 38 36 ab 3e
       0.17895566 0.0775943 0.09799761 0.33439803
000080 99 ee 24 be 91 ef e2 be 1c 81 a0 be f2 29 3a bd
       -0.16106643 -0.443234 -0.31348503 -0.04545016
000090 fb bc 7e be 96 8b d5 be 87 ff e4 be d9 ca 2c bd
       -0.24876778 -0.41708058 -0.44726202 -0.042185638
0000a0 a9 f9 c3 be 73 bd 18 bf c1 27 91 be 77 34 a4 be
       -0.38276413 -0.59664077 -0.28350642 -0.32071277
0000b0 c7 4f 03 bf 1c af 40 bf 93 39 98 be 2e d4 ea be
       -0.51293606 -0.75267196 -0.29731426 -0.45865005
0000c0 ca ee 88 bd 95 cd 15 bf 06 b2 05 3e 9b 12 6e be
       -0.066861704 -0.5851682 0.13056192 -0.23249285
0000d0 e7 ab 03 be de e6 3b be 8e 67 1b be aa 7b b9 bd
       -0.12858544 -0.18349788 -0.15176222 -0.0905679
0000e0 df f0 ff be 34 9b ef be 67 ef b0 be fd 47 0d be
       -0.49988458 -0.46798098 -0.3455765 -0.13796993
0000f0 1f c6 6e bd e8 e8 a1 be db 9b c5 be 77 a7 fc be
       -0.05829441 -0.31623006 -0.3859547 -0.49346516
000100 bc 0e 56 3e 1c f6 6a be c7 5b c6 be aa ce 86 be
       0.20904058 -0.22945446 -0.38741896 -0.26329547
000110 d7 bf 5a 3d c3 67 3a 3e c7 32 9b be 48 45 cb 3d
       0.05340561 0.18203644 -0.30312178 0.09925324
000120 a0 17 2e be 2d 93 6b 3e ce e0 39 3e 0d f0 b6 3e
       -0.170012 0.23005362 0.18152162 0.3573002
000130 e7 13 c7 be 7b bb b1 bc bd 82 27 3e 01 02 a0 bc
       -0.38882372 -0.021695843 0.16358466 -0.019532206
000140 ab 97 02 3d 71 64 a7 be 95 62 9a be 5d 2c 3c 3e
       0.031882923 -0.32693818 -0.30153337 0.18376298
000150 ad fe b8 3e f9 04 71 be 5b 81 5d 3d 61 a5 1f be
       0.36131802 -0.23537053 0.05407844 -0.15590431
000160 5b 3d a5 3e 5f 85 a5 bd e0 fe 75 be 35 28 a8 3c
       0.32273373 -0.08082079 -0.24023008 0.020526985
000170 5c 77 ba be 73 b1 39 3e 45 ab 85 bd a3 a2 d3 be
       -0.3641919 0.18134098 -0.06526808 -0.4133502

bias_hh_l0 f4 [96]
000000 80 de 48 bc a1 8b a5 bc 37 ba fa 3e 52 ca 2e be
       -0.012260079 -0.020208182 0.48970196 -0.17069367
000010 61 b7 0d be f0 08 da 3d 95 ed b3 3e 09 df b1 3d
       -0.13839485 0.10646236 0.35142198 0.08685119
000020 c7 22 38 3e 7a 60 95 3d 98 bc 49 3e 7b 0c a3 3e
       0.17982017 0.07293792 0.19700849 0.3184546
000030 41 60 c4 bd 1e d2 98 bd f4 f1 92 3e 41 b7 65 3d
       -0.095886715 -0.07461952 0.2870022 0.056082968
000040 d8 8e ed 3d 17 d9 d9 bd 2a 8b 39 3e f4 b8 b0 3d
       0.11599511 -0.1063711 0.18119493 0.08629027
000050 df 17 ac 3d 1f 11 71 3d 61 cc dc 3d 66 fe 16 3e
       0.084029905 0.05885422 0.1078117 0.14745483
000060 95 ec ca 3e 65 8c 0e 3e 91 90 e7 3d a3 02 32 be
       0.39633623 0.13920744 0.11306871 -0.17383818
000070 2d 45 4a 3d fa ee 67 bd 7f 7c c5 3e 55 de 89 3e
       0.049382377 -0.05662439 0.38571545 0.26927438
000080 ae c9 c7 bd 4e a1 0f bf f0 1c dd be dd 63 31 bd
       -0.09755264 -0.56105506 -0.4318614 -0.043308128
000090 04 dd c8 be 20 a2 cc be 44 ba ab be 93 b1 0c be
       -0.39231122 -0.39967442 -0.33540547 -0.13739614
0000a0 c5 3d af be f9 6d b9 be c1 b7 e0 be ab 8d 8c bd
       -0.34226814 -0.36216715 -0.43890193 -0.068629585
0000b0 80 1e 58 be 1d d9 1c bf ee 6d 01 bf 7e 3f 37 bf
       -0.21105385 -0.6126879 -0.50558364 -0.71581256
0000c0 3b 6a f9 bd f4 2f 2f bf 50 4a c5 bd 56 c5 08 bf
       -0.12178465 -0.68432546 -0.096333146 -0.5342611
0000d0 22 56 bb be 5a 5a c0 be a2 39 c4 be fa 5e d3 bd
       -0.36589152 -0.37568933 -0.3832522 -0.1032085
0000e0 92 b1 28 bf 1b e9 04 bf 81 ed 69 be ce fa b8 3d
       -0.6589595 -0.5191819 -0.22844507 0.09032212
0000f0 26 f0 54 be 01 cc 9f be b2 2a f3 be 92 de 88 be
       -0.20794734 -0.3121033 -0.4749351 -0.26732308
000100 3d 47 93 bc 7a f2 4c be 3c 7e 69 be 17 16 76 bd
       -0.017978305 -0.20014372 -0.22802061 -0.06007966
000110 5e 81 b3 3d f1 7f 0e bc bc 69 82 be d7 35 6b 3d
       0.08764909 -0.008697496 -0.25471294 0.057424393
000120 b3 3b 33 be a1 4c 60 3d a2 5f 80 3d d8 24 6e 3e
       -0.17503242 0.05476058 0.062682405 0.23256242
000130 7f e9 68 be c6 6e 19 3c 8c 06 64 3e fa 64 f0 3d
       -0.22745322 0.009364789 0.22268122 0.1173801
000140 a1 e0 ac 3d 38 30 05 be b1 a6 78 be b5 b7 a3 bb
       0.08441282 -0.13006675 -0.24282338 -0.004996265
000150 0c bf ae 3e 95 aa 05 3e 8d 32 8d 3e ca 65 66 3e
       0.34130132 0.13053353 0.2757763 0.22499767
000160 ff a9 9c 3e 51 d9 a7 be 9f 30 f7 bd 94 34 9e 3d
       0.30598447 -0.32782987 -0.120698206 0.07724872
000170 ee c9 5f be e7 5d 68 3e 28 45 7f 3e 13 9c 24 be
       -0.21854374 0.22692071 0.24928725 -0.16075163

weight f4 [2, 33]
000000 95 ba 94 be 2f e2 8a 3e 76 4c cc bd 33 0c 86 be
       -0.290486 0.2712569 -0.09975521 -0.26181182
000010 ab ff 83 3e 35 d0 77 3d 89 6d 84 bd 5b 35 4e 3e
       0.25780997 0.060501296 -0.06466205 0.20137541
000020 2e 58 77 be 68 58 1b be 07 cd fb bd bf ee 3f 3d
       -0.24154732 -0.15170443 -0.12294965 0.046858545
000030 fc 6c 18 3e c7 2d 81 3e b5 e8 34 3e 36 f5 a7 3e
       0.14885324 0.25230238 0.17666896 0.3280427
000040 65 01 85 be 3a d9 3f be 0d 04 43 be 63 d6 96 3e
       -0.25977626 -0.18735209 -0.19044514 0.2946044
000050 0d 9e d3 bd 46 54 26 be 08 f3 4e be c0 49 9c be
       -0.1033288 -0.16243085 -0.20209897 -0.30525017
000060 95 f1 0a bd 4a 2d 2f 3e 45 c1 e5 3d 03 7b 1d 3e
       -0.033921797 0.1710712 0.11218504 0.15378956
000070 39 33 16 3e d3 e3 84 3e cf cd 9d 3c b2 b0 48 3e
       0.14667977 0.25955066 0.019263176 0.19598654
000080 85 73 20 3c f7 56 f8 bc 11 be 94 3b d9 9a 28 3e
       0.009793167 -0.030314906 0.0045392592 0.1646532
000090 18 2a 67 3e ce 70 2b be 22 2b c4 3e cd 51 87 3d
       0.22574651 -0.1674225 0.38314158 0.06607399
0000a0 61 bc 06 3d 82 f2 12 3e 44 11 f5 3d 30 32 97 bd
       0.032894496 0.14350322 0.11966184 -0.073826194
0000b0 40 85 83 be a4 7d 12 3e f0 d5 82 3d da 80 63 bd
       -0.256876 0.1430574 0.063884616 -0.055542804
0000c0 69 fb b2 3d 90 f8 8b be 0e ef d1 3d b9 2d 6f 3e
       0.08739359 -0.27338076 0.10250674 0.23357286
0000d0 a1 13 df bd 60 65 4b be 80 77 1d bd ed 45 e7 bd
       -0.10892416 -0.1986289 -0.038444042 -0.11292634
0000e0 1d b2 6a 3d 71 8f 38 be 59 0e 14 3e 53 70 63 bd
       0.05729877 -0.18023469 0.14458598 -0.055527043
0000f0 4b 86 01 3e d3 ff 57 3e 6a 5a 2d be 6c 22 8a be
       0.12648885 0.21093683 -0.16929021 -0.26979387
000100 42 50 8a 3e bc e3 9b 39
       0.27014357 0.0002973358

bias f4 [2]
000000 5f 87 44 3d ac d3 06 3d
       0.047980662 0.03291671
