models/stochseq_model=RNN_layers=2_hidden=32.pt (torch, 17574 bytes, 10 tensors)

weight_ih_l0 f4 [32, 2]
000000 a8 02 98 bd b3 e6 2e be f8 c9 18 be c7 9e d1 3d
       -0.07422382 -0.17080192 -0.14920795 0.102353625
000010 fc 6d a3 3d 95 ae 06 be 16 78 54 3d 69 7b 56 3e
       0.07979962 -0.13152535 0.051872335 0.20945515
000020 08 f7 50 3c 1c ec c1 3c 62 20 a5 bd 0c 2b 97 3c
       0.012754209 0.023672156 -0.08062817 0.018453144
000030 aa 54 ee bd 04 fb 3c be 1f f2 6d bd 16 02 0a be
       -0.11637242 -0.1845513 -0.058092233 -0.13477358
000040 c8 8c 06 3e e1 b6 d5 bd b1 69 7c bd 6e e7 22 bd
       0.13139641 -0.10435272 -0.061624233 -0.03977149
000050 e6 ce 17 3d 12 c2 a6 bc 9e f6 fc bc 6f 26 0f be
       0.037062548 -0.020356212 -0.030879315 -0.13979505
000060 60 a4 f1 3c ce 73 b7 3d ee 8d bb 3d 53 4b f5 3d
       0.029497325 0.08957635 0.0915793 0.119772576
000070 a8 d5 de bc da cf 2a be 3f fd 07 be 85 ed 08 3e
       -0.027201489 -0.16680852 -0.132802 0.13371857
000080 12 b6 1d bd 40 8a e9 bd ee d7 3b 3d 61 f1 07 3e
       -0.038503714 -0.11403322 0.045860223 0.13275672
000090 2e c3 2a 3d 61 f4 fc bd 91 17 e9 bd 97 a1 7b be
       0.041690044 -0.12351299 -0.11381448 -0.2457336
0000a0 53 26 7a 3d af 94 7b 3e 8e 85 88 bc c2 5b dc bc
       0.061071705 0.24568437 -0.016665246 -0.026899222
0000b0 0d f1 ce bc 22 ef 0e be d1 d2 85 bd 62 e8 0a 3e
       -0.025261426 -0.1395841 -0.06534351 0.1356521
0000c0 fa e9 ec bd 72 e5 20 be 2b b4 31 3e 3a 89 29 be
       -0.11568065 -0.15712526 0.17353885 -0.16556254
0000d0 8b 4e b2 3c 59 00 22 be dd 1d fb 3c fc 90 5e be
       0.021765968 -0.15820445 0.030653888 -0.21734995
0000e0 a7 f8 1a bd 40 89 39 be 7c 0a 0d be 49 89 72 bd
       -0.03783479 -0.18118763 -0.1377353 -0.059212957
0000f0 58 31 c8 3c 71 1a 45 bc a7 3e dd 3d 8c 37 ef bd
       0.024437591 -0.01203023 0.108029656 -0.116805166

weight_hh_l0 f4 [32, 32]
000000 be c3 40 3d 43 a9 e4 bd 7d b6 2e 3c 71 06 09 be
       0.047061674 -0.111650966 0.010663626 -0.13381363
000010 24 f3 ad bd 17 ee 89 3c 97 74 01 3e 42 c3 af bd
       -0.08493641 0.016837163 0.12642132 -0.08582164
000020 15 ca 9e bd e7 42 90 3d 18 17 b6 3d 33 0a 45 be
       -0.07753388 0.070440106 0.088911235 -0.19242172
000030 00 2e e3 bd 7e e3 21 3d 32 94 07 be 9a ba a2 3c
       -0.11092758 0.039523594 -0.13240126 0.01986437
000040 60 aa e1 3d ce 1d c8 bd 34 76 7d bd 4f 8e 31 be
       0.110188246 -0.0977131 -0.061880305 -0.17339443
000050 38 0b 0f bd 49 b7 97 bd 64 3c 39 bc 4f af 49 3d
       -0.03492281 -0.07408006 -0.011305902 0.049239453
000060 13 7c 2c bd 49 81 c6 3d a3 5b 83 3d 25 ad 3c bb
       -0.042110514 0.09692628 0.06413963 -0.0028789726
000070 4b e0 bf bd f4 8e ad bc dc 91 16 3e a3 e6 53 3d
       -0.09368952 -0.02118633 0.14704078 0.051733624
000080 c0 d5 0f 3e c0 94 b5 3d 88 7a a6 3d bb 2b 19 be
       0.14046383 0.088662624 0.0812884 -0.14958088
000090 33 36 11 be 70 40 28 3e 9f c3 e5 bb 6e ab dd bd
       -0.14180832 0.16430831 -0.0070118452 -0.10823713
0000a0 91 81 ee 3d f0 0a 1b 3d e4 09 89 3d fb 1f ed 3d
       0.116458066 0.037852228 0.066913396 0.115783654
0000b0 2f 90 4a 3d 2e 6c d2 3d 9c fb 11 be b7 ee 2d 3d
       0.04945391 0.1027454 -0.14256138 0.042463984
0000c0 dc 89 53 bd ff 7a aa 3d 30 ca c0 bd c2 2a 13 3e
       -0.051645145 0.08324241 -0.09413564 0.1437178
0000d0 bc 75 99 3b 97 dc c6 bc 60 60 d6 bd f5 77 7d bd
       0.0046832245 -0.024275107 -0.10467601 -0.061881978
0000e0 3f 0b 89 bd 21 1e b0 bd cf 8a 1d be 74 a2 bd bd
       -0.06691598 -0.08599497 -0.15384983 -0.09259501
0000f0 4c 2e 4f bd c5 b3 66 bd 0c 6f 04 3e 07 3f 18 bd
       -0.05058126 -0.056323785 0.12932986 -0.037169483
000100 49 be 22 bc c1 ff c6 3c 92 24 d2 bd 62 01 06 3e
       -0.009933063 0.024291875 -0.102608815 0.13086465
000110 73 df 67 3c 81 8b 03 3e b8 f8 51 3d 37 f1 b5 3d
       0.014152396 0.12846185 0.051262587 0.08883899
000120 e8 ac ab 3c 9c 8c 25 3e 60 9f 89 bd 4a 0c 9f 3d
       0.020956472 0.1616692 -0.067198515 0.07766016
000130 3f 9b d6 3c 1f 2e 28 3d 1e c4 98 3c c2 c7 63 3b
       0.026197074 0.04105961 0.018648203 0.0034756516
000140 fe 64 fa 3d a6 b1 85 3b 98 66 1d bc 57 91 09 bd
       0.12226294 0.0040800152 -0.00960698 -0.033585873
000150 c2 c1 e4 3d 36 46 8c bd 1f 06 3f be 0c 98 27 3b
       0.11169769 -0.06849329 -0.18654679 0.0025572805
000160 df 02 d3 bd f9 b7 04 3e 7a 47 00 bc a3 9a a5 3d
       -0.10303282 0.12960805 -0.007829541 0.08086135
000170 21 d7 3d bd db c1 5d 3d ca 80 81 bd 7f c4 23 3e
       -0.04634774 0.054139953 -0.06323393 0.15992926
000180 c8 30 e5 3d 6b a9 d0 3d 88 a2 eb 3d 52 76 a4 bd
       0.11190945 0.10188564 0.1150561 -0.0803038
000190 1e 6b 74 3d e7 57 16 be fe 98 ed bd ea b6 ca bd
       0.059672467 -0.1468197 -0.116014466 -0.09898169
0001a0 87 23 f4 bd de 9c ee 3c e6 ee 19 bd d7 02 0e be
       -0.11920839 0.029127534 -0.037581347 -0.13868271
0001b0 d6 11 18 be 23 eb 7e bd 19 55 2a bd b8 c3 69 bd
       -0.14850554 -0.062235963 -0.04158506 -0.057071418
0001c0 60 45 1d 3e be e7 dc bb 64 64 eb bd 68 af 65 3d
       0.15358496 -0.006741493 -0.11493757 0.056075484
0001d0 26 66 28 be fb af 2d 3d 2e fa 1e 3e aa 36 05 3e
       -0.16445217 0.042404156 0.15525123 0.13009134
0001e0 19 e2 e0 3d 2c 2b 17 3e 81 fd 5d 3d 1f ba dd 3d
       0.10980625 0.14762563 0.05419684 0.108265154
0001f0 a6 19 66 bd 12 3f af bd 24 f1 46 bd e3 d2 04 3e
       -0.056176804 -0.085569516 -0.048569813 0.12971072
000200 fd b4 97 bc 95 81 fc 3d 75 08 3f be e4 53 15 bd
       -0.01851892 0.12329403 -0.1865557 -0.036456957
000210 7f 4f 0b 3e 85 09 41 be 9c b2 05 be 27 bf 10 be
       0.13604544 -0.18851288 -0.13056415 -0.14135419
000220 3f 3c 18 bd b6 b1 05 3d fd a1 0d bd 03 a9 49 3d
       -0.03716683 0.03264018 -0.034578312 0.049233448
000230 74 11 08 3e 26 64 fc 3d 39 9d de bd 1a ee 0a 3e
       0.13287908 0.12323789 -0.108698316 0.13567391
000240 7a 02 b3 bd 15 ac 6c 3c 1f 4e a1 3d ef ab c7 3d
       -0.08740707 0.014445324 0.078762285 0.097495906
000250 5a a9 e7 3d 0d cf c4 3c 19 70 0b bd a4 82 0b be
       0.11311598 0.02402451 -0.03404245 -0.13624054
000260 37 7d 64 3d da 0f ae 3d 41 d7 ba 3d 1e ac 46 3b
       0.055783477 0.08499117 0.09123088 0.0030314992
000270 d4 1f 04 be 8a 29 ad 3d 89 da 4b 3d 2e 7b 9a 3b
       -0.12902766 0.084551886 0.04976896 0.004714391
000280 c1 c0 f5 bd 57 d1 04 3e 41 b1 6c bd 45 89 df 3d
       -0.119996555 0.12970482 -0.05778623 0.10914854
000290 f8 9d 82 bd 13 ec e2 bd 39 48 0c be 64 5e 3a be
       -0.063777864 -0.11080184 -0.13699426 -0.1820007
0002a0 cd f7 3b bd 2f aa 40 be a6 8b 03 be 0e 67 d7 bd
       -0.045890618 -0.1881492 -0.1284624 -0.10517703
0002b0 dc bb bf 3d 08 79 db bd b3 b7 ac bd 65 21 38 3d
       0.09362003 -0.10716444 -0.08433475 0.044953723
0002c0 5d 32 ba 3c f8 c0 d3 3d 94 7c 1f bc de 66 05 be
       0.022729093 0.1033954 -0.009734292 -0.13027522
0002d0 65 c0 a5 3a 77 75 c5 bd 42 29 48 be 2b 8e 6b bd
       0.0012645839 -0.09641545 -0.19546989 -0.05750863
0002e0 45 fa 87 bc 92 6b 2b 3e a7 1a 29 3e e6 0a fb 3b
       -0.01659883 0.16740254 0.16514073 0.0076612113
0002f0 60 ea 92 bd 42 60 24 be d0 32 c6 3c 0d 9c fe bd
       -0.0717361 -0.16052344 0.024194151 -0.12432108
000300 49 87 57 bd 31 63 a7 bd db 5b 9b 3d 3b 74 43 bd
       -0.052619252 -0.08173216 0.075858794 -0.047718268
000310 99 25 98 bd 7c fa 8b 3d ab 45 86 3b 86 9f bf bd
       -0.07429046 0.068348855 0.0040976605 -0.093565986
000320 73 4c a7 3d ce 83 e8 3b 78 11 ae bd 4f 98 1f bc
       0.081688784 0.0070957905 -0.08499426 -0.009740903
000330 6d 44 b3 bd cb c3 1b be 2b 3e e4 3d a3 8b 00 3e
       -0.087532856 -0.15211408 0.1114467 0.12553267
000340 1c 04 52 bd 4b 36 33 3e 4f a0 17 be 07 e3 45 be
       -0.05127345 0.1750118 -0.14807247 -0.19324885
000350 d4 18 1a bb a2 07 0e bd 24 b2 d6 bd 32 0e 12 3c
       -0.0023513334 -0.034675248 -0.104831964 0.008914517
000360 f0 43 11 bd 34 43 ab bc c5 e7 e6 bd a0 97 0e bb
       -0.03546518 -0.020906068 -0.11274675 -0.0021757856
000370 a8 2d 7c 3d 99 b3 08 3e 6d e2 01 be fb 3e 7f bd
       0.06156698 0.13349761 -0.12684031 -0.062315922
000380 3c 26 f2 bd c2 c2 32 3c a3 b2 33 3e ff 5c 5c be
       -0.11823699 0.010910692 0.17548613 -0.2151985
000390 91 2d 42 3d 07 b6 b6 3d ef d4 82 3d 70 30 09 be
       0.047406737 0.08921438 0.0638827 -0.13397384
0003a0 57 a3 00 3e e8 c7 09 bd db e1 d3 bd fb d6 f8 3d
       0.12562309 -0.03363791 -0.10345813 0.12150379
0003b0 b0 59 03 be aa c9 49 be 18 4a 3b 3e a2 e4 09 3e
       -0.12827182 -0.19705835 0.18289983 0.13466123
0003c0 3e f3 08 bd 9f 15 5f 3e 0b 0e 02 3e 46 3c ad 3d
       -0.0334351 0.21785592 0.1270067 0.08458762
0003d0 49 e9 58 3d 79 6d 79 3b 80 b1 9a bd 7f 64 05 3e
       0.052956853 0.0038059636 -0.07553387 0.13026617
0003e0 0d 23 49 3d d5 70 0a be 97 c6 a3 3d 0e 77 07 be
       0.049105693 -0.13519605 0.079968624 -0.1322901
0003f0 27 35 17 3d 0e c3 7a bd 30 bf b6 bd 18 0e ef bd
       0.036915924 -0.061221175 -0.08923185 -0.1167261

bias_ih_l0 f4 [32]
000000 78 c9 33 bc 8d 7a 22 3b e1 13 a9 bd 2e b6 c0 3c
       -0.010973327 0.0024792284 -0.08255745 0.02352437
000010 c7 26 61 3e 12 41 5d be 80 a3 27 3e f7 65 82 bd
       0.21987449 -0.21606854 0.16370964 -0.063671045
000020 2b 47 e0 3c 14 7b 87 bd 34 c4 f6 bd 9f b4 a8 3d
       0.027377686 -0.06615272 -0.120491415 0.08237576
000030 84 c1 b4 bd ee b7 a8 3d 57 9f 43 3d 40 f7 a4 3c
       -0.08825973 0.08238207 0.04775938 0.02013743
000040 b6 96 da bd 7a b2 10 be b8 c7 06 be 91 72 8c 3d
       -0.10673277 -0.14130583 -0.13162124 0.06857789
000050 0a f9 8e 3d ea 89 13 bd f3 a2 73 bd 22 ec 00 3d
       0.06981094 -0.036020197 -0.059481572 0.031475194
000060 a7 4c 8f bc 35 d5 36 bd e9 19 e4 3d c7 8c 4c bd
       -0.017492605 -0.044636924 0.111377545 -0.049938943
000070 dc 2f 37 3e 3c 9e 69 bd 39 2f b2 bd 69 e5 e0 3d
       0.1788935 -0.05703567 -0.08700413 0.109812565

bias_hh_l0 f4 [32]
000000 9c c0 67 be 5d e2 2a 3e 19 93 38 be 9e 0a 11 3e
       -0.22632068 0.16687913 -0.18024863 0.14164206
000010 d0 93 23 3e 40 b9 70 be 7c 98 4a bd 6d 89 19 bc
       0.15974355 -0.23508167 -0.049461827 -0.009371144
000020 cf 3f 87 bc 78 87 a6 3d 16 4e b2 3c ce f3 05 3e
       -0.016509918 0.08131307 0.02176575 0.13081285
000030 2d 7e 17 3e 25 40 3c 3e 87 18 56 bd 05 db 08 be
       0.14794226 0.18383844 -0.052269485 -0.133648
000040 93 07 e0 3d 4d a3 d7 bd e9 dc e0 3c c7 6b 2d be
       0.10938945 -0.10529194 0.027449088 -0.16935645
000050 07 82 27 3d 9e cf d3 bd dc 72 cb 3d a1 ec bc bd
       0.040895488 -0.10342334 0.09934017 -0.09224821
000060 1c 02 26 3e e9 ae f0 3c 73 26 df 3c e0 05 f0 3d
       0.16211742 0.029380279 0.027240014 0.117198706
000070 8b ab 55 3e a5 ef 33 be 58 60 51 be e3 fc bc b9
       0.2086622 -0.17571886 -0.20446908 -0.0003604657

weight_ih_l1 f4 [32, 32]
000000 e4 1c 01 3d 4b 11 40 bd f6 aa ea 3d fc 80 0b be
       0.031521693 -0.04689149 0.114583895 -0.13623422
000010 12 12 8e bd 27 fe 0b be 1b 24 47 3e ee e6 3d 3e
       -0.069370404 -0.1367117 0.19447367 0.18545124
000020 55 e3 2b be 8a 8e 25 3e cc 95 9b bd 4e f5 f9 bd
       -0.16785939 0.16167656 -0.07596931 -0.12204991
000030 2a 77 8b bd 9c 54 50 bd 8d 16 46 3e c7 ed 93 3d
       -0.06809838 -0.05086194 0.1934454 0.07223087
000040 05 c5 03 3e d4 d7 3b 3e d0 80 e2 3d bf fe 45 3e
       0.12868126 0.1834405 0.11059725 0.19335459
000050 e9 4e ca bd 12 b5 d7 3d 99 2d 12 be f6 14 d2 bd
       -0.09878332 0.10532583 -0.14275207 -0.10257904
000060 04 9f 8c 3d b2 8c ac 3d f2 35 0a bd 82 c1 4f 3e
       0.06866267 0.08425273 -0.033742853 0.20288661
000070 0f d4 86 bd 1a dd 88 3c f2 0c f5 bd 51 a2 1c 3d
       -0.06583416 0.016706992 -0.1196536 0.038240734
000080 aa 0c 5c be e0 a7 a2 bd 1c 4b da bd 89 df 3d 3e
       -0.21489206 -0.07942176 -0.10658857 0.18542303
000090 4f b4 a7 3c 0d bf 25 be 61 3f 93 3c dd 17 94 be
       0.02047172 -0.16186161 0.017974557 -0.28924456
0000a0 55 29 5e be a6 87 64 3d 3c ab e9 bd 14 4a a1 3d
       -0.21695454 0.055793427 -0.114096135 0.078754574
0000b0 04 54 6c bd 45 c1 35 3e 9f bc e9 bd 83 0a 12 3d
       -0.05769731 0.17749508 -0.1141293 0.035654556
0000c0 8d 5b 6b bc 63 b8 ef 3d 89 83 4a be fe 62 72 be
       -0.014365089 0.11705091 -0.19776739 -0.23670575
0000d0 ea 49 76 3d 15 54 2e be 62 5a cf 3d f6 8f a2 bd
       0.060129084 -0.17024262 0.10124661 -0.079376146
0000e0 ff 55 ed bc 02 b8 6a be 83 17 cc 3d 1b db a7 bc
       -0.02897167 -0.22921756 0.09965422 -0.02049022
0000f0 b5 3f fa bd b7 f9 84 bd b5 e6 58 bd 60 3c 6e 3d
       -0.122191824 -0.06492942 -0.052954394 0.058163047
000100 c7 2d 70 bd 97 aa 04 be 6d 69 9e bd c0 73 33 be
       -0.058637407 -0.129557 -0.07734952 -0.17524624
000110 19 4f 50 be 88 c7 04 bb bf fb 9e 3d 01 71 3e 3d
       -0.20342673 -0.0020260531 0.077628605 0.046494488
000120 59 80 d4 3d ed 75 64 3e 23 cd 89 3d 07 99 ec 3d
       0.10376043 0.2231061 0.0672858 0.11552625
000130 f3 e4 ca 3b 86 1f 5b be ec b2 03 3d da 7c bf 3d
       0.0061918437 -0.21398744 0.032153055 0.093499854
000140 fe 15 2a 3c 10 3c de 3c 5a 91 2d 3e 68 cb c9 3d
       0.01038122 0.02712825 0.16949978 0.0985325
000150 3d fc 9f 3a c3 e2 a2 3d 4e 9b 4f be 17 93 86 3d
       0.001220591 0.079534076 -0.20274088 0.06571024
000160 17 73 99 bd 0c b1 ab 3d 4b f6 1d be f7 40 c0 bd
       -0.07492655 0.083833784 -0.15425985 -0.09387391
000170 0e cf 4e 3d 28 44 e4 3d 74 66 0f 3e 67 57 c8 3d
       0.05049043 0.11145812 0.14003927 0.09782296
000180 1c d0 10 bc 78 94 a3 bc 81 a2 7f 3c 0e a0 3c 3e
       -0.00883868 -0.019968256 0.015602709 0.18420431
000190 ef bb 0e 3e 7a 63 50 3e 54 bb a8 3d c6 c3 be 3d
       0.13938878 0.20350447 0.08238855 0.093146846
0001a0 f9 0e 68 be 95 76 20 be 07 8e 45 bd 8a 1e 6d bd
       -0.22661962 -0.15670235 -0.04823115 -0.057890452
0001b0 0d 77 60 3e 73 6b 64 3e 60 73 4c bd 37 05 d5 3d
       0.21920414 0.22306614 -0.049914718 0.10401385
0001c0 25 b6 c0 bc 97 2c 88 3d 74 57 0b be b8 64 c9 3d
       -0.023524353 0.0664913 -0.1360758 0.09833664
0001d0 49 57 33 3e 86 8f c8 3d 54 8e 34 bd 71 e2 be 3d
       0.17513765 0.09793 -0.044081047 0.09320534
0001e0 8a 46 18 be 8b d6 54 3c 0f 79 97 bd 2a a4 13 3d
       -0.14870659 0.012990604 -0.07396137 0.03604523
0001f0 0e fe f3 bd d3 1d fa bd 32 c9 f2 3d 78 eb cf bd
       -0.119136915 -0.1221272 0.11854781 -0.10152334
000200 83 88 6e be e0 7d 61 3e d8 a7 b1 3d 64 8c 11 3e
       -0.23294263 0.22020674 0.08674592 0.14213711
000210 ea 6b 05 be be 8b 4f bd 86 98 5f 3d a7 b1 a9 bd
       -0.13029447 -0.050670378 0.054588817 -0.082858376
000220 5e a7 12 3d 5a a6 b8 3c b4 03 00 be b7 13 42 3c
       0.035804145 0.02254026 -0.12501413 0.011845521
000230 3c 30 7f 3e 0b 24 22 bd 15 e9 06 be 71 87 b1 bd
       0.24920744 -0.039585155 -0.13174851 -0.086684115
000240 bd bd 4d bd 86 59 4b 3e a9 f4 97 bd 41 7d 9d 3d
       -0.050229777 0.19858369 -0.07419712 0.07689906
000250 2b ea a0 3d cb c4 ec bd b1 55 90 3c 94 eb 46 3e
       0.07857164 -0.11560973 0.017618986 0.19425803
000260 7e 8f 16 bd dd c8 75 be a0 e9 f4 bd a6 9e 63 3d
       -0.03675794 -0.24002405 -0.11958623 0.05557122
000270 c8 53 15 bd 2b a3 91 bd 74 d5 34 bc ca 1d ea 3b
       -0.036456853 -0.071112 -0.011037219 0.0071446644
000280 31 9e 11 3e a1 82 38 3d a2 b4 06 3e 70 dd 14 bd
       0.14220501 0.045046452 0.13154843 -0.03634399
000290 9c 4b fb 3d 6c ab 0e be 26 b0 c6 bd d8 7a 4f 3e
       0.12270281 -0.1393258 -0.097015664 0.20261705
0002a0 47 bb c8 bd 27 65 2f b9 d4 5c 8b bc d2 6a ba bb
       -0.09801345 -0.00016726983 -0.017012037 -0.0056890035
0002b0 5e 35 df bc 0d e9 5a bd 24 3e 83 3e f5 26 80 be
       -0.027247127 -0.05344491 0.25633347 -0.25029722
0002c0 f5 c1 51 3e 2b ca 4a 3d 1b 3e d0 3d a5 5b ba bd
       0.20484145 0.04950921 0.10168096 -0.09099511
0002d0 dd 81 bb ba a3 a5 41 be fe 25 00 3e 43 4b 7a bd
       -0.001430567 -0.18910842 0.12514493 -0.06110693
0002e0 c2 c7 14 3c 22 d0 48 3d 6a af ac 3d 43 df 77 3e
       0.009080829 0.049026616 0.08431895 0.24206261
0002f0 3d 5e c0 bc 4a cb 87 3d 16 81 b8 3d e0 09 a6 bd
       -0.023482436 0.06630571 0.09008996 -0.08107352
000300 71 1d 7e bd 14 00 27 bc d5 70 0f 3e be b0 95 bc
       -0.062039796 -0.01019289 0.14007886 -0.018272754
000310 a4 2a 2d 3d be 2a e6 bb 74 59 43 bc b2 f9 cc 3d
       0.042276993 -0.0070241382 -0.011923183 0.10008563
000320 cc fd 09 bd bd e9 62 bc b5 18 0a 3e 81 42 0f be
       -0.033689305 -0.013849673 0.13485987 -0.13990213
000330 89 61 94 bd 01 33 10 3d 7b 78 10 3e 47 7b 03 be
       -0.07245166 0.03520489 0.1410846 -0.12839995
000340 91 dc ce 3d 4c fb 0c be b1 d8 14 3d 57 dd cb bd
       0.101006635 -0.13767737 0.036339466 -0.099543266
000350 59 23 c6 bc 9b 4b ca 3d 66 11 06 bd 41 09 bd bd
       -0.024186777 0.09877702 -0.032731436 -0.09230281
000360 dd 19 3e 3e 3a bf 2c 3e b1 23 c3 bc 45 e7 5f 3e
       0.18564554 0.16869822 -0.02382073 0.21865566
000370 ee 01 fb 3d 05 6e 01 be 20 d0 c3 bd 4b 06 cc bc
       0.122562274 -0.12639625 -0.09561181 -0.024905344
000380 39 8f 3e bd 4b ac 3a be 06 81 9a bc 99 38 af 3d
       -0.046523307 -0.18229787 -0.018860351 0.08555717
000390 d7 d7 a7 3d 52 4e e6 bd ae a5 36 be e7 f8 7b bd
       0.08195465 -0.11245407 -0.1783664 -0.06151667
0003a0 db c9 5a 3d 9c 19 65 bb 7c d8 13 3e d5 45 a1 3d
       0.05341516 -0.0034957891 0.14438051 0.078746475
0003b0 08 6a 8b bc 26 52 dd bc 28 23 8c bd 7e 0a dc 3d
       -0.017018333 -0.02701671 -0.06842643 0.10744189
0003c0 55 af 84 be 69 f5 30 be ef 06 54 be 4a 8f ad bc
       -0.25915018 -0.17281117 -0.2070577 -0.02118649
0003d0 89 ca 07 be 19 fa 9f bd 9e 37 77 bd ea 6c 83 bb
       -0.13260855 -0.07811374 -0.060355775 -0.0040107863
0003e0 62 b4 49 3e d0 be 28 bd 81 78 25 3e a1 99 f0 b9
       0.19697717 -0.041197598 0.1615925 -0.0004589083
0003f0 07 88 a4 bd d4 2b b6 3c 29 24 f5 bc e4 79 18 3e
       -0.08033758 0.022237696 -0.029924469 0.14890248

weight_hh_l1 f4 [32, 32]
000000 f9 2d 02 bd 00 3f 55 3d 29 5e f3 3d db d9 ed bc
       -0.031782124 0.052062035 0.11883194 -0.029034546
000010 8c 25 f3 3d f4 49 8b 3c 22 e0 09 3e da ba 84 3d
       0.11872396 0.017003037 0.13464406 0.064809516
000020 e0 55 56 be 0f e8 7c 3d a9 3f 23 3e c1 5d a7 bb
       -0.20931196 0.061744746 0.15942253 -0.005107612
000030 2a 73 73 bd 0e 7f ab 3d fd 37 25 be 79 c6 b5 3d
       -0.059436 0.08373843 -0.16134639 0.08875746
000040 99 26 7e bd 3d cf 14 bc 3e af 0c bc 92 83 44 3d
       -0.06204853 -0.009082613 -0.008586703 0.047977038
000050 df 72 31 3e e9 2d 12 be e9 19 36 bd 4f 80 05 be
       0.17328976 -0.14275326 -0.044458304 -0.13037227
000060 2e 02 6f bc 8c e2 e6 ba ad 6d c4 3d 1d ee 0f 3e
       -0.014587922 -0.0017615124 0.095912315 0.14055677
000070 aa ee 99 3c ae a6 f6 3d b1 df ca bc 93 e6 9f bd
       0.018790562 0.120435104 -0.024764867 -0.078076504
000080 74 fb 02 be eb 66 d6 bd 76 de 0d be 19 ff aa 3d
       -0.12791234 -0.10468849 -0.13854393 0.08349437
000090 9a f1 f8 3d e4 09 ce 3d 3e b5 8d 3d c0 ac 02 3e
       0.12155457 0.1006048 0.06919335 0.12761211
0000a0 5d 13 5a bd c5 2b 93 3d 2e d7 5f be e4 d3 b3 bd
       -0.053241123 0.07186083 -0.21859428 -0.08780649
0000b0 a7 f7 81 be e8 14 fc bd 33 42 de bc 2f 1e 4b 3e
       -0.25384256 -0.12308675 -0.027131176 0.19835733
0000c0 f6 7b dc bc c6 75 fb bc 88 8d f2 3c d3 77 38 bd
       -0.026914578 -0.030695807 0.029608503 -0.04503615
0000d0 bb 3f f8 bc 38 b7 9d 3d ec 1c 50 be 45 bb f8 3d
       -0.030303827 0.07700962 -0.20323533 0.12145094
0000e0 12 55 c5 bc 60 ed 33 3e 53 0f 1f be eb f5 da bd
       -0.024088416 0.1757102 -0.1553319 -0.106914364
0000f0 59 68 d9 bd 2a dd 89 3b bb 44 ca 3c d9 56 c9 3d
       -0.10615606 0.004207273 0.024690976 0.09831018
000100 28 f5 9f bc d1 20 83 bd 21 08 5d 3e 9a b4 d1 3c
       -0.01952608 -0.064027436 0.21585132 0.025598813
000110 c3 99 29 3e d9 8a 18 3e 4e 01 f8 bc c5 b0 a1 3d
       0.16562562 0.14896716 -0.03027406 0.07895044
000120 8f cf b7 3c f8 5f b4 3d 86 d6 9a 3c 03 e1 c8 bc
       0.022437839 0.08807367 0.01890112 -0.024521356
000130 79 83 b9 3d 19 45 1a 3d 62 da 0b 3e b5 15 66 be
       0.090582795 0.037663553 0.13657525 -0.22469218
000140 22 f2 7a 3d 6a bd f3 3d ae ef db bd 0f 3b c1 bb
       0.061266072 0.11901362 -0.10739075 -0.005896933
000150 1e f2 fc bd e2 9b 98 3d b0 92 28 3e 49 03 50 bd
       -0.12350868 0.07451607 0.16462207 -0.050784383
000160 49 df 81 3d d4 5b 7b bd 72 49 f8 bd 97 4b ed bd
       0.063414164 -0.06136687 -0.121233836 -0.11586683
000170 dd 12 4e 3e af 7d bd 3d 53 a1 ca 3d e5 1a c3 3d
       0.20124383 0.09252488 0.098940514 0.09526614
000180 68 77 df 3d 79 36 89 bd 69 68 30 be 41 e5 3d be
       0.10911447 -0.06699843 -0.1722733 -0.18544485
000190 1d 91 83 bd dc 28 4d 3e e4 77 23 be 45 6e 14 3e
       -0.064241625 0.20035118 -0.15963703 0.1449519
0001a0 bd 65 6c 3d 73 43 60 bb d4 7e 32 3e c9 84 93 bc
       0.057714213 -0.003421989 0.17431194 -0.018007653
0001b0 b7 ff c1 bd ee 7d 1c 3e ca 03 49 bd 0f c8 6b 3d
       -0.09472602 0.15282413 -0.04907588 0.057563838
0001c0 35 b9 a3 3d b6 9c ab bd 71 2e 84 bb 2e f6 35 be
       0.0799431 -0.083794996 -0.0040338566 -0.17769691
0001d0 bc cf d5 bd d3 32 0c 3e 22 a7 ba bc d3 56 be 3d
       -0.10440013 0.13691263 -0.022784773 0.09293904
0001e0 30 f1 c3 bd ec 27 e8 bc fe 40 01 be e8 aa 25 3e
       -0.09567487 -0.028339349 -0.12622449 0.16178477
0001f0 23 6a ca 3c b5 8a 12 be 51 52 2e be 3b 6b 89 3d
       0.024708813 -0.14310725 -0.17023589 0.06709906
000200 c3 de 6c bc e9 b8 b0 3d 31 9c 30 3e e0 16 ba 3d
       -0.014457407 0.08629019 0.17247082 0.09086394
000210 5f e7 9f bd d5 f8 9c 3d 2d a7 00 3d a8 91 d3 3d
       -0.078078024 0.076646484 0.03140943 0.10330516
000220 10 b5 ac bd 52 db 82 3c 2b 6b 70 3e 20 1d 1c be
       -0.084329724 0.01597372 0.23478381 -0.15245485
000230 15 2c 16 3e fb 86 2c 3e 27 cf 80 bd 93 b6 ab 3d
       0.14665253 0.16848366 -0.06289511 0.08384433
000240 d3 cf da 3d a9 96 cf 3d e3 fe 4c bd 53 52 5e bd
       0.106841706 0.10136158 -0.050047766 -0.05427773
000250 5e 2d bc b9 c5 92 2e 3e c6 87 06 3e 46 ae 21 be
       -0.00035891955 0.17048176 0.13137731 -0.15789136
000260 5f 23 d8 3c 8a f0 9f 3d d6 6e a6 bd 90 10 18 3e
       0.026384054 0.07809551 -0.08126609 0.14850068
000270 e6 58 b3 bd 05 de ab 3d 1e 7f 00 be 33 38 09 3e
       -0.087571904 0.08391956 -0.12548491 0.13400345
000280 33 c9 0e 3e cf 76 07 bd 15 0c 94 3d 21 ba b9 3d
       0.13943939 -0.03307229 0.07228867 0.090687044
000290 8c a4 cc bd b9 cb c6 bc d2 1f c4 bd 99 62 f8 3d
       -0.09992322 -0.024267064 -0.09576382 0.12128181
0002a0 c0 6b 3f be 4b 41 1c 3d 00 50 0b 3e 34 78 da 3d
       -0.18693447 0.038148206 0.13604736 0.10667458
0002b0 62 b1 ea 3b 76 5e 02 be 21 a4 1f 3d 56 1e b4 bd
       0.007162259 -0.12731346 0.038974885 -0.087948486
0002c0 53 4e e5 3c 6f f0 0a be d5 61 6e 3d 53 24 b8 bd
       0.02799145 -0.1356828 0.05819877 -0.08991303
0002d0 7b 0b 7a 3d 97 a1 24 bd ee 1d 08 3e 8d f7 3a 3d
       0.061046105 -0.040193167 0.13292667 0.04564624
0002e0 e9 80 68 3d 3c 9b 50 be c9 e4 ca bd f0 19 5e 3e
       0.056763563 -0.20371717 -0.099069186 0.21689582
0002f0 c6 e6 17 be 88 b3 f1 3c 98 2d 44 bd 31 4e 3a be
       -0.14834127 0.029504552 -0.047895044 -0.1819389
000300 3c f1 ae bd 22 10 e3 bc 12 88 21 3e ab 51 aa bd
       -0.085421056 -0.027717654 0.15774563 -0.08316358
000310 7a 3a df bb dd df 24 3d c3 19 32 3d e9 72 d4 bb
       -0.006812391 0.040252555 0.0434816 -0.006483425
000320 11 6f a7 bd f0 0d a1 bd 51 12 d7 3c 1d f3 be 3d
       -0.08175481 -0.078639865 0.026253851 0.09323714
000330 a6 0c 30 3e cf 55 f7 ba f1 e1 7a 3d 19 30 c5 3d
       0.17192325 -0.0018870177 0.06125063 0.096283145
000340 01 5c 0d be 65 b2 1d be f0 a3 ca 3d db 84 a5 3c
       -0.13804628 -0.15400083 0.0989455 0.020204952
000350 2f 5c 68 bd 16 0e f0 3d cd 6f 2e 3e 4e 57 2a be
       -0.056728538 0.11721437 0.17034836 -0.16634867
000360 de 22 cc bd d5 80 50 3c 36 a9 82 3d 33 3a 92 bd
       -0.09967588 0.012726028 0.06379931 -0.07140007
000370 52 97 97 bd 6d 73 1d be b8 f2 f4 3d b1 cb 0c 3c
       -0.07401909 -0.15376063 0.119603574 0.008593486
000380 c6 e4 86 be aa ba 40 3e e8 40 9e 3d f9 1f ed 3d
       -0.26346415 0.18821207 0.07727224 0.11578364
000390 ac 25 98 bd 7b 33 a2 3d ec ec f5 3d 73 7d fa 3d
       -0.0742906 0.07919975 0.1200808 0.12230959
0003a0 16 25 9c 3d 2d d6 72 bc 34 ed 35 bd fc 30 5e 3e
       0.07624261 -0.014821571 -0.044415668 0.21698374
0003b0 b5 88 12 be 67 92 49 3d e0 e3 c2 bd cb 0e 6c 3d
       -0.14309962 0.049211886 -0.0951612 0.057631295
0003c0 5a 9c ae 3b a4 de af 3d 9b b9 b4 3c 43 ed 1e 3e
       0.005328697 0.08587387 0.02206116 0.15520196
0003d0 c4 83 0c 3d 7b 39 3f be 4c 37 88 be 9b b4 3c 3c
       0.03430535 -0.18674271 -0.26604688 0.011517669
0003e0 4d ee 65 bd 3d 56 05 3e 66 48 90 3c 40 ac 40 bd
       -0.056135464 0.13021179 0.017612647 -0.04703927
0003f0 c5 3c 16 be fc 65 45 be 6c 6a ce 3d 9e 9b 3a be
       -0.14671619 -0.19277185 0.10078892 -0.18223426

bias_ih_l1 f4 [32]
000000 b3 d8 ef bd 7d 9b 45 bc c9 6c e0 3d 82 b1 95 bb
       -0.11711254 -0.012060997 0.10958249 -0.0045682797
000010 79 e5 00 3e 96 04 80 bd 91 42 4a 3d c4 ae 0a 3e
       0.12587537 -0.06250875 0.04937989 0.1354323
000020 51 87 35 3d c6 ef 64 3d 2f 87 d5 bd 5e a8 19 3d
       0.0443185 0.05589273 -0.10426175 0.037514083
000030 96 14 aa bd e8 23 24 be e5 95 f7 bd 7f 4a 2a 3e
       -0.08304708 -0.16029322 -0.12089137 0.1662998
000040 3d 43 8e bd 9c e8 dd 3b e8 6b 04 bd 5f 3f 7f 3d
       -0.069464184 0.006772114 -0.03232947 0.062316295
000050 87 9d 25 be e4 f8 91 3d 08 24 6f 3b 92 8f 14 be
       -0.16173373 0.0712755 0.0036489982 -0.14507893
000060 ad c6 2e be 7b c4 ed 3c 29 3a e3 3d 1e 0d 88 be
       -0.17067976 0.029024353 0.110950775 -0.26572508
000070 97 b1 b6 3d d9 b5 02 be 49 99 6a 3c b8 aa 29 be
       0.08920591 -0.12764682 0.014318773 -0.1656903

bias_hh_l1 f4 [32]
000000 55 ef ff bd df e5 0c bd 62 d6 8b bd 3e 79 a2 3c
       -0.12496821 -0.03439891 -0.06828 0.019833203
000010 c1 e2 f0 3d 27 b1 59 bd b4 97 0c 3d 23 52 13 3e
       0.11762 -0.05314746 0.034324363 0.14386801
000020 3a a9 8d bd b6 59 02 3e da 00 b6 be ee a0 13 be
       -0.06917043 0.12729535 -0.35547525 -0.14416859
000030 a4 db cf bd c8 30 b7 3c 1a 48 f8 3d b1 7e 94 3d
       -0.10149315 0.022362128 0.12123127 0.07250727
000040 df cf 29 be 21 87 0a 3d 82 9f 02 bd 9c 26 4a 3e
       -0.16583203 0.033820275 -0.0318904 0.19741291
000050 83 b4 97 bd 03 7b 90 bd b4 c1 17 be 13 d8 a8 bd
       -0.07407477 -0.070547126 -0.14819986 -0.08244338
000060 ca 10 7d 3c 8e 92 bf bd 6a ce 1a 3e 24 fb 8d be
       0.015445897 -0.09354125 0.15117803 -0.27730668
000070 00 a1 a0 bd ec 69 56 bd 98 00 c1 bd 66 ae fe bd
       -0.07843208 -0.05234711 -0.094239414 -0.124356076

weight f4 [2, 33]
000000 b8 cc 4f bd 4c 57 6c 3e e6 7c 40 bd 2b 4b 80 3e
       -0.050732344 0.23080176 -0.046994112 0.2505735
000010 52 e8 cf 3d 1c db a7 be 91 6d 85 be 32 43 06 3d
       0.101517335 -0.32784355 -0.26060155 0.032778926
000020 f5 89 65 be bd 8b 95 3e 6e 10 29 bd e6 a4 1c bc
       -0.22415908 0.29208174 -0.041275434 -0.009560799
000030 64 35 84 be 43 94 5e be 42 18 fa bd 94 47 99 3d
       -0.25821984 -0.21736245 -0.12211658 0.074843556
000040 28 42 39 be c7 4b 1e 3e 92 56 56 bd cc 8b 9e be
       -0.18091643 0.15458594 -0.052328654 -0.30966032
000050 15 f0 4e be 31 4c 82 3e aa 5b 8c be 60 9f 9a 3d
       -0.20208772 0.25448754 -0.27413684 0.075499296
000060 b1 bf 62 be 90 b3 29 3e ab 0e 1a be 15 70 2f 3d
       -0.22143437 0.16572404 -0.15044658 0.0428315
000070 e3 40 45 bd a6 fb 70 3e 4b c1 97 bd 53 fa 81 3d
       -0.048157584 0.23533496 -0.074099146 0.06346574
000080 94 03 0a 3e 3b a5 3b 3e 2c d6 0c be 37 53 09 3e
       0.13477927 0.18324749 -0.13753575 0.1341065
000090 fa 12 a6 3d b3 ba 1b 3e e2 11 5f 3e 9c fd 6e bd
       0.08109088 0.15207939 0.21784166 -0.05834733
0000a0 bf 3f 50 be af ee 67 be 87 ba de bd f0 42 3b bc
       -0.20336817 -0.22649644 -0.10875421 -0.011429533
0000b0 4e 9b 89 be 2d a5 92 bd f7 b2 dd 3d 04 eb 34 3e
       -0.268763 -0.07160411 0.108251505 0.17667776
0000c0 ec 28 81 be 69 cc 68 3d e6 c9 0d 3e 7c 86 84 3e
       -0.25226533 0.056835566 0.1384655 0.25883853
0000d0 5e 58 3a be c9 d7 e6 bd fc 6d 8e 3e 70 2b 71 bd
       -0.18197772 -0.112716265 0.27818286 -0.058879316
0000e0 ec 42 83 be 15 39 92 bd 95 4c 23 3d 1f b5 60 3e
       -0.25636995 -0.07139794 0.039867956 0.21944092
0000f0 37 05 21 3e 9e f0 74 3e 7b 16 75 be 38 83 8d be
       0.15724646 0.23919913 -0.23934357 -0.27639174
000100 cf c3 84 3d 3c 90 9e 3c
       0.0648266 0.019355886

bias f4 [2]
000000 b0 1e b6 bd 38 06 17 be
       -0.08892572 -0.14748466
