models/stochseq_model=LSTM_layers=1_hidden=4.pt (torch, 4326 bytes, 6 tensors)

weight_ih_l0 f4 [16, 2]
000000 eb ba 05 3f e4 b7 9d be 5e 1a c8 be ce 27 f0 3d
       0.5223834 -0.3080436 -0.39082617 0.11726342
000010 49 02 c5 3c 83 17 d0 3e ea 56 56 be ae d0 92 be
       0.024048941 0.40642938 -0.20931593 -0.28674835
000020 f7 91 2b be cb 05 53 bf 56 1d 10 3d 13 83 9e bd
       -0.167549 -0.82430714 0.035184227 -0.07739844
000030 45 28 d0 3d dd d2 17 be 89 fd 81 3e e1 87 8d 3e
       0.10163931 -0.14826532 0.25388744 0.2764273
000040 79 17 8f 3d 53 8b 1b 3f e2 17 67 bd 70 cf d8 be
       0.06986899 0.60759467 -0.05641926 -0.42345762
000050 bd 69 f6 3d 47 3d 89 3e b8 41 ff bd 94 3b 23 bf
       0.12031887 0.26804563 -0.12463707 -0.63762784
000060 e5 b1 1b 3e 20 51 c8 be 14 ae b9 3e 22 34 86 bf
       0.1520458 -0.39124393 0.36265624 -1.048466
000070 df 62 3c bd b6 fe ce 3e 47 00 ae 3e 41 73 a7 3e
       -0.04599273 0.40428704 0.33984587 0.3270512

weight_hh_l0 f4 [16, 4]
000000 79 b4 b3 3e dd b6 0d 3f 79 55 e7 3e d5 55 17 bf
       0.35098627 0.5535715 0.45182398 -0.59115344
000010 0c 12 84 be 00 64 44 3f e0 a3 85 3e 1d 63 2f be
       -0.2579502 0.7671509 0.2610159 -0.17127652
000020 36 ca 5e bf 03 1c 57 3f 8f 41 df 3d 18 49 4e be
       -0.870273 0.8402712 0.10901176 -0.2014507
000030 45 de 87 be 0f 21 13 3f 23 5a 13 3f ab 97 26 bf
       -0.26536766 0.5747232 0.5755941 -0.65075177
000040 f2 db 08 3f 3d 38 09 bf 9c 42 87 3d db 7e 30 be
       0.5346061 -0.5360144 0.066045016 -0.17235892
000050 e3 84 91 be 45 7b 1b 3f 8b be f8 3e c8 0e 98 be
       -0.28421697 0.6073497 0.48582873 -0.29698777
000060 cd 7f 54 3e e4 ca 4f 3e 6c ad 36 3e 8e 8c 5e be
       0.20751877 0.2029224 0.17839593 -0.21733305
000070 9e 82 a0 3e 0d 49 b4 be c1 4e 1f bf cb 32 c1 3d
       0.31349653 -0.35211983 -0.62229544 0.09433516
000080 cb 1e 4c 3e 8f 1d a4 3e bb b4 20 bd 07 a7 b9 3e
       0.19933622 0.320538 -0.039234858 0.36260244
000090 e2 88 07 bf 61 2d 15 3f 77 0e 4f 3e 34 e0 2b be
       -0.5294324 0.5827237 0.20220362 -0.16784745
0000a0 1d 83 20 bf af fd 36 3e 58 32 49 3e f4 62 38 bf
       -0.62700063 0.1787021 0.19648111 -0.7202599
0000b0 ab 52 7d 3e e9 c9 08 3f 96 d8 4b 3d db b2 0d bf
       0.24738567 0.5343309 0.0497671 -0.55351037
0000c0 6a 06 40 bf 57 2d 1f 3f fc 46 4c 3e 58 63 45 be
       -0.7500979 0.6217856 0.19948953 -0.19276178
0000d0 c1 3f da be f5 5c cc 3d 77 9a 65 3e 47 24 d2 bd
       -0.42626765 0.09978668 0.22422205 -0.102608256
0000e0 e1 2f a1 be 09 6b 72 3f 40 58 ad 3d ed 5b fd be
       -0.3148184 0.9469457 0.08464098 -0.49484196
0000f0 a4 a5 6e bf 3d 1d 70 3f 72 d4 ea 3e bc e7 46 be
       -0.932215 0.93794614 0.45865208 -0.19424337

bias_ih_l0 f4 [16]
000000 9c f9 3e 3f 49 80 0e 3f 31 9d 8c 3d c0 06 db 3e
       0.74599624 0.556645 0.068659194 0.42778587
000010 3a 6a 26 3e dc f9 21 3f ef 80 d8 bc 1a ca b1 3e
       0.1625146 0.6327188 -0.026428668 0.34724504
000020 07 0a 24 be c8 62 1b 3f 35 bd 5a 3d 17 0e bf be
       -0.1601945 0.60697603 0.053403098 -0.37315437
000030 30 80 18 3f 08 fc e2 3e ea 8e 4c 3e 4d 39 98 3e
       0.595706 0.4433291 0.19976392 0.29731217

bias_hh_l0 f4 [16]
000000 66 35 0c 3f 74 23 81 bd 97 c1 b5 3e 32 8e 9d 3e
       0.5476898 -0.0630559 0.3549926 0.3077255
000010 b7 29 0a be cc 5a 88 3e 8e 61 18 3f a1 e0 d5 3e
       -0.13492475 0.26631773 0.59523857 0.4177294
000020 c5 57 18 bf 72 35 46 3e e0 22 4f 3e a3 5b fb be
       -0.59508926 0.19356325 0.20228148 -0.4909335
000030 a8 1a c8 3e 5d a7 ed 3e a1 e5 49 bd ca 57 c9 3e
       0.39082837 0.4641675 -0.049291257 0.3932479

weight f4 [2, 5]
000000 f1 57 7d 3f 2c 55 33 bf c0 20 3a 3f 4c b8 89 bf
       0.9896231 -0.70051837 0.7270622 -1.0759368
000010 bb 26 d2 3c 7e 46 32 3f a6 2c 52 bf 2a bb 3d bf
       0.025653234 0.6963881 -0.8209938 -0.74113715
000020 d6 18 2c 3f a5 e0 fc 3d
       0.67225397 0.12347535

bias f4 [2]
000000 eb ed 32 3e 34 b1 e2 be
       0.17473571 -0.4427582
