models/stochseq_model=LSTM_layers=1_hidden=32.pt (torch, 22445 bytes, 6 tensors)

weight_ih_l0 f4 [128, 2]
0.19148594 0.034611244 -0.037192516 -0.0021848537 0.04888684 0.16130748 -0.022748878 -0.16235588
0.22591314 0.017281642 0.108461566 -0.2148259 0.26029316 -0.032844163 0.23987134 0.09565859
0.21356669 0.32389036 0.017819468 0.09286454 -0.05797699 -0.05514909 -0.052202743 0.027697267
-0.12332994 -0.010921372 -0.075420775 -0.17476466 0.12420864 0.20962843 0.13668859 0.21392573
0.14214061 -0.23710653 -0.2647001 -0.30992526 -0.058709133 -0.17414802 0.0006750397 0.021731304
0.018401653 -0.24425675 0.021155806 -0.03905394 0.054651227 0.053122863 0.05725062 -0.2481354
0.037004415 -0.15653068 -0.17693962 0.103708416 -0.30387905 -0.10611091 -0.050779637 0.35528812
0.15565638 -0.23335877 0.07856164 0.12228155 0.08366361 0.30874345 -0.1646233 -0.07720471
0.14007796 0.18193175 0.03489613 -0.22408183 0.114628084 0.30707753 0.03386265 -0.16979225
-0.19186908 -0.051086962 -0.08315924 -0.2674314 0.14578117 0.15763359 -0.017554112 0.13022776
0.11791408 0.19711377 0.047843177 0.023755912 -0.16172443 -0.09339085 0.10413221 0.23937728
-0.26404625 0.09478757 -0.17084908 0.06803018 0.039141957 0.35206923 0.122339845 -0.024919765
0.06422719 -0.19261162 -0.11335121 -0.14164667 0.04356195 -0.06351206 0.05993469 -0.027885957
-0.14634268 -0.28545815 -0.17560162 -0.113027565 0.080673374 0.13411562 0.118491545 -0.023190292
-0.17981565 0.10677579 0.03401787 0.28011155 -0.048125066 0.076910466 0.15917762 0.08556915
-0.10817422 -0.25033304 -0.0038364455 0.09061926 -0.13638507 0.24730116 -0.076171495 -0.18409038
-0.017690847 -0.33480272 0.0047228807 0.25561067 -0.023076696 -0.22001135 0.088703886 -0.2707406
0.09856861 0.31806874 -0.1104071 -0.14434093 0.14778267 0.011188771 0.022365188 0.33743855
0.09344349 0.077667765 -0.14807174 -0.20580588 0.098284036 0.089420974 0.008319768 0.37074894
-0.093934424 0.2309221 0.08813657 0.026950805 -0.08633754 0.26064968 0.0045142476 -0.29378122
0.020588662 -0.17707069 -0.032422703 0.082791686 0.16354409 0.021214422 -0.04510823 -0.17010327
0.066406846 -0.1983347 -0.10120162 -0.09935753 -0.0780466 -0.23392671 0.017333517 0.18783179
0.0952937 0.2210735 -0.12177781 -0.2715718 -0.19510809 -0.068352915 -0.065623574 -0.0048446907
0.17916086 0.18489553 -0.014080921 -0.14451036 0.02284962 0.13075113 -0.16399391 -0.09070657
0.22367075 0.23805597 -0.0804556 -0.19043648 0.04642976 0.1555891 -0.02767347 -0.20582227
-0.07594702 0.12034463 -0.021923117 -0.10885272 -0.059421785 0.062257342 0.020465693 0.21174641
0.10475518 0.15090442 0.14228748 0.096813165 -0.07983834 -0.2467994 -0.034377743 0.20186438
0.035697315 -0.011453368 -0.23054723 -0.014506629 0.28258273 0.044907857 0.010815099 0.12669234
-0.119608104 -0.26193306 0.024461476 -0.25879848 -0.29632512 -0.30779374 0.059105687 -0.040945545
0.18728429 -0.2302286 0.063638955 -0.15957399 0.18864736 0.10916548 -0.08941359 -0.22706017
-0.18672869 -0.17932332 -0.19434457 0.042146374 0.053872343 -0.24199691 0.09160067 0.055675384
0.13932353 -0.36414778 0.051747814 0.022381175 -0.01930863 0.3476438 -0.04032593 -0.34824798
00000000: e414 443e 85c4 0d3d 2e57 18bd c32f 0fbb
00000010: 913d 483d ca2d 253e db5b babc 9f40 26be
00000020: c655 673e 3b92 8d3c 1921 de3d 52fb 5bbe
00000030: 2545 853e 9a87 06bd d5a0 753e a7e8 c33d
00000040: 3ab1 5a3e f5d4 a53e 22fa 913c c42f be3d
00000050: 4879 6dbd 03e4 61bd 8bd2 55bd 61e5 e23c
00000060: 6894 fcbd 8eef 32bc 3576 9abd 82f5 32be
00000070: 1961 fe3d d6a8 563e 18f8 0b3e 590f 5b3e
00000080: 4f8d 113e 0ecc 72be c686 87be 86ae 9ebe
00000090: fd78 70bd dc53 32be 26f5 303a d905 b23c
000000a0: 10bf 963c 711e 7abe f14e ad3c 06f7 1fbd
000000b0: f7d9 5f3d 5c97 593d a07f 6a3d 3517 7ebe
000000c0: f191 173d 9449 20be a92f 35be 1465 d43d
000000d0: 0996 9bbe ad50 d9bd 4ffe 4fbd 53e8 b53e
000000e0: 6364 1f3e 9af5 6ebe ede4 a03d c06e fa3d
000000f0: d457 ab3d 9f13 9e3e 0393 28be 811d 9ebd
00000100: 9970 0f3e 514c 3a3e 3fef 0e3d b575 65be
00000110: 21c2 ea3d 4439 9d3e 90b3 0a3d 05de 2dbe
00000120: 5479 44be 9040 51bd 644f aabd c5ec 88be
00000130: a947 153e b36a 213e a4cd 8fbc 6d5a 053e
00000140: f07c f13d 31d8 493e 35f7 433d c29b c23c
00000150: 179b 25be b443 bfbd 4543 d53d 511f 753e
00000160: 1231 87be fc1f c23d 10f3 2ebe 6853 8b3d
00000170: 5153 203d 6b42 b43e 508d fa3d 8924 ccbc
00000180: 8c89 833d fb3b 45be ae24 e8bd d30b 11be
00000190: 046e 323d 9c12 82bd 147e 753d 1771 e4bc
000001a0: dbda 15be 9227 92be e9d0 33be ff7a e7bd
000001b0: 1538 a53d 9b55 093e b2ab f23d 91f9 bdbc
000001c0: 9821 38be 44ad da3d 5256 0b3d c86a 8f3e
000001d0: ca1e 45bd 3c83 9d3d 75ff 223e e13e af3d
000001e0: 728a ddbd a72b 80be e06c 7bbb 9796 b93d
000001f0: 87a8 0bbe 843c 7d3e cdff 9bbd 3082 3cbe
00000200: 65ec 90bc 436b abbe 65c2 9a3b 67df 823e
00000210: 570b bdbc a84a 61be 62aa b53d 839e 8abe
00000220: 57de c93d e8d9 a23e 1e1d e2bd 1cce 13be
00000230: 5754 173e 1b51 373c 3337 b73c bfc4 ac3e
00000240: 4d5f bf3d 4710 9f3d 1ea0 17be c7be 52be
00000250: 2449 c93d 5822 b73d a34f 083c ced2 bd3e
00000260: b160 c0bd d876 6c3e f280 b43d efc7 dc3c
00000270: bcd1 b0bd e073 853e 41ec 933b 7e6a 96be
00000280: 8ea9 a83c 0552 35be abcd 04bd b08e a93d
00000290: 1a78 273e dec9 ad3c 68c3 38bd 8d2f 2ebe
000002a0: 5000 883d 4018 4bbe cc42 cfbd f67b cbbd
000002b0: e5d6 9fbd 7c8a 6fbe 05ff 8d3c fa56 403e
000002c0: 5829 c33d 1761 623e a566 f9bd 750b 8bbe
000002d0: 6aca 47be 9dfc 8bbd a765 86bd 36c0 9ebb
000002e0: f275 373e 4155 3d3e aab3 66bc 86fa 13be
000002f0: 202f bb3c a0e3 053e 05ee 27be 5ec4 b9bd
00000300: f209 653e f2c4 733e e8c5 a4bd c801 43be
00000310: 222d 3e3d c052 1f3e 79b3 e2bc 13c3 52be
00000320: 1c8a 9bbd 3f77 f63d 1c98 b3bc 2dee debd
00000330: 4264 73bd 8e01 7f3d aba7 a73c 0dd4 583e
00000340: e289 d63d b086 1a3e cfb3 113e fb45 c63d
00000350: 4982 a3bd fbb8 7cbe adcf 0cbd 89b5 4e3e
00000360: 5937 123d e8a6 3bbc 9314 6cbe 36ad 6dbc
00000370: afae 903e 4df1 373d d031 313c a3bb 013e
00000380: 18f5 f4bd 171c 86be 6f63 c83c 3c81 84be
00000390: edb7 97be 2497 9dbe ce18 723d 84b6 27bd
000003a0: 74c7 3f3e 0cc1 6bbe 2455 823d 5d67 23be
000003b0: c62c 413e 2792 df3d 791e b7bd 7682 68be
000003c0: ce35 3fbe 88a0 37be 4302 47be ada1 2c3d
000003d0: 3fa9 5c3d 0ace 77be 2299 bb3d df0b 643d
000003e0: d4aa 0e3e 9471 babe 84f5 533d ba58 b73c
000003f0: 222d 9ebc 5efe b13e cd2c 25bd 8f4d b2be

weight_hh_l0 f4 [128, 32]
-0.2865041 -0.07161751 -0.29221344 0.21144918 0.25155243 0.2207666 0.04262727 0.26322377
0.12842828 -0.090408735 -0.29342815 -0.035092972 0.15043846 -0.21037795 0.21893889 -0.1434294
0.3568237 0.1797205 -0.22082515 0.3143702 0.24216972 0.16813305 -0.2010504 -0.21160844
-0.12502661 -0.23432277 0.23232791 -0.31502476 -0.1851335 -0.25062114 0.37161696 0.22188665
-0.24744548 -0.2239839 -0.12655328 0.06384282 0.2563225 0.005716565 0.054589123 0.19636267
0.19381471 -0.30167973 -0.10487489 -0.044582874 -0.06644909 -0.053929135 0.35993603 -0.29724386
0.17743564 0.30655092 -0.21773416 0.14823993 0.19390391 0.33172372 -0.31011406 0.004613107
-0.22277673 -0.11395908 0.021184757 -0.06623463 -0.30890632 -0.27417502 0.18781172 0.28898945
-0.11338765 -0.045771215 -0.11298865 0.05758095 -0.073862106 0.22589679 0.1164803 0.21778736
0.24853955 -0.01281983 -0.17457603 -0.12389416 -0.08727136 -0.26147118 0.13353463 -0.005739191
0.082756564 0.2192968 -0.08400162 0.224471 0.09507685 0.18248641 -0.120321095 -0.12274424
-0.037108358 0.068812124 0.15939718 0.035411388 -0.27238917 -0.08453823 0.0991395 0.1711167
-0.14918584 -0.03532202 -0.30135044 0.17132877 0.22496924 0.08581951 0.12902313 0.27749422
0.22560832 -0.33963683 -0.34994718 0.0043137064 0.03390209 -0.3310475 0.256804 -0.12565091
0.04735318 0.0723328 -0.2446866 -0.06524644 0.17517984 0.10857463 -0.26158315 -0.12817024
-0.09495373 -0.2144693 0.23083992 -0.22451112 -0.038632754 -0.07429168 0.15901367 0.23096605
-0.23250815 -0.09731593 -0.14863357 0.20351422 0.08487612 0.2572528 0.30051804 0.0033036626
0.2200383 -0.15999907 -0.32467616 -0.0064191152 0.028424328 -0.019313226 0.26938787 -0.050655335
0.15725775 0.18564391 -0.1957534 0.06498076 0.051644795 0.015491011 -0.09902144 -0.17510678
-0.3475222 -0.17241623 0.30104315 -0.12983102 -0.26420483 -0.13288939 0.060947195 0.058322597
-0.18887813 -0.01287865 -0.2649848 0.090423845 0.07403865 -0.056451272 -0.02393477 0.25730738
0.07447332 -0.14010005 0.04094618 0.16687885 -0.12203665 0.019563116 0.4048253 -0.06771845
-0.022573946 -0.036426745 -0.18977974 -0.06321148 -0.16414878 0.18129362 0.116870776 0.115343496
-0.08728261 0.1261261 0.112497166 -0.14572558 0.042589135 -0.058005694 0.193801 0.038564406
-0.15809025 -0.0517196 0.02803294 0.13708457 0.24709527 -0.064200744 0.1285252 -0.008402968
0.18494245 0.05218444 -0.18552713 -0.123508945 -0.028995758 -0.030819802 0.16336378 0.07239897
0.072724134 0.20490474 0.04261992 -0.02641137 0.050658673 0.157853 0.061927266 -0.29426953
-0.052813526 0.027455494 0.15308684 0.00022035869 -0.1490986 -0.20698872 0.2222158 0.17428643
0.005853786 -0.09005173 -0.099729285 -0.03548277 0.14577663 0.101011485 0.23741575 0.052908637
0.04416756 -0.2046784 -0.07792914 0.1755106 -0.10330798 -0.31830713 0.2823776 -0.029672509
0.21780494 0.26140586 -0.21755104 0.024123885 0.30922863 0.27185348 0.03308637 -0.0687957
-0.056536973 -0.10799912 0.3062544 -0.27792963 0.035682235 -0.265342 0.32483244 0.060997248
00000000: aab0 92be 33ac 92bd 009d 95be 2286 583e
00000010: 7bcb 803e a410 623e ef99 2e3d 44c5 863e
00000020: b482 033e 3728 b9bd 373c 96be a6bd 0fbd
00000030: 8a0c 1a3e 516d 57be 8431 603e 28df 12be
00000040: 99b1 b63e a708 383e fd1f 62be 21f5 a03e
00000050: 57fb 773e 122b 2c3e 28e0 4dbe e2af 58be
00000060: fa06 00be 4ff2 6fbe 5ee7 6d3e ed4a a1be
00000070: a393 3dbe 6a51 80be 9444 be3e 4136 633e
00000080: 5962 7dbe 095c 65be 2f97 01be 06c0 823d
00000090: b43c 833e 0652 bb3b d898 5f3d 4c13 493e
000000a0: 5d77 463e c475 9abe a5c8 d6bd 889c 36bd
000000b0: 7616 88bd cce4 5cbd 8949 b83e 5930 98be
000000c0: b0b1 353e 3ef4 9c3e b4f5 5ebe 35cc 173e
000000d0: bf8e 463e b1d7 a93e 45c7 9ebe 8c29 973b
000000e0: 951f 64be 6163 e9bd a88b ad3c 06a6 87bd
000000f0: f828 9ebe ab60 8cbe b751 403e 6df6 933e
00000100: c937 e8bd 997a 3bbd 9866 e7bd 01da 6b3d
00000110: 0445 97bd 7d51 673e 398d ee3d a603 5f3e
00000120: 2781 7e3e 440a 52bc 0fc4 32be 39bc fdbd
00000130: 54bb b2bd 8ddf 85be 4dbd 083e d30f bcbb
00000140: 467c a93d 578f 603e 0b09 acbd badb 653e
00000150: a7b7 c23d b8dd 3a3e e86a f6bd 5561 fbbd
00000160: effe 17bd 5fed 8c3d 0439 233e 880b 113d
00000170: 9876 8bbe 6122 adbd a609 cb3d 3739 2f3e
00000180: 2cc4 18be d3ad 10bd 9b4a 9abe cf70 2f3e
00000190: 565e 663e 24c2 af3d a41e 043e b913 8e3e
000001a0: de05 673e e1e4 adbe 472c b3be fe59 8d3b
000001b0: ebdc 0a3d 0f7f a9be d07b 833e a2aa 00be
000001c0: 68f5 413d 3823 943d 208f 7abe ed9f 85bd
000001d0: 5862 333e 605c de3d 3aee 85be 0f3f 03be
000001e0: 1a77 c2bd d79d 5bbe 4d61 6c3e 3ee6 65be
000001f0: 613d 1ebd 3c26 98bd 7bd4 223e 5d82 6c3e
00000200: 9e16 6ebe 934d c7bd 6633 18be 0866 503e
00000210: 88d3 ad3d a4b6 833e 80dd 993e 4382 583b
00000220: b851 613e ccd6 23be f43b a6be 7157 d2bb
00000230: 23da e83c c536 9ebc 35ed 893e f87b 4fbd
00000240: 2d08 213e 7019 3e3e 9473 48be a214 853d
00000250: 7e89 533d 02ce 7d3c c1cb cabd 314f 33be
00000260: 6eee b1be e18d 30be 5422 9a3e 6cf2 04be
00000270: db45 87be 2814 08be c4a3 793d ade3 6e3d
00000280: 4569 41be f900 53bc 16ac 87be 2330 b93d
00000290: 93a1 973d 7339 67bd da12 c4bc cbbd 833e
000002a0: 7885 983d 6376 0fbe 2eb7 273d 4ae2 2a3e
000002b0: 5aee f9bd d442 a03c 4345 cf3e f9af 8abd
000002c0: ffec b8bc 3634 15bd 9f55 42be 0575 81bd
000002d0: 9e16 28be 09a5 393e f259 ef3d 3639 ec3d
000002e0: 3ac1 b2bd 3327 013e ea64 e63d 1639 15be
000002f0: f271 2e3d 6197 6dbd c573 463e b6f5 1d3d
00000300: 69e2 21be eed7 53bd 56a5 e53c e65f 0c3e
00000310: 8b06 7d3e ae7b 83bd 1c9c 033e 9aac 09bc
00000320: 8e61 3d3e 5abf 553d d3fa 3dbe 42f2 fcbd
00000330: 8388 edbc cf79 fcbc d648 273e e945 943d
00000340: 64f0 943d 8cd2 513e 3a92 2e3d a85c d8bc
00000350: 787f 4f3d 38a4 213e 72a7 7d3d 7faa 96be
00000360: ff52 58bd 58ea e03c ccc2 1c3e 1610 6739
00000370: 4ead 18be daf4 53be 8a8c 633e 2478 323e
00000380: 1ed1 bf3b 0b6d b8bd de3e ccbd 6256 11bd
00000390: 7846 153e 1cdf ce3d 1d1d 733e bab6 583d
000003a0: 0be9 343d 3797 51be 5099 9fbd 0db9 333e
000003b0: 2293 d3bd 27f9 a2be cc93 903e c313 f3bc
000003c0: 4208 5f3e fdd6 853e b3c5 5ebe 749f c53c
000003d0: 3753 9e3e 6130 8b3e 9385 073d c3e4 8cbd
000003e0: 5093 67bd a52e ddbd 60cd 9c3e cb4c 8ebe
000003f0: 8927 123d e8da 87be 7050 a63e 40d8 793d

bias_ih_l0 f4 [128]
0.088503525 0.27953216 0.20316793 0.12851572 0.18769667 0.3233023 0.38803968 0.14939667
0.36197063 0.12854102 0.032423005 0.27412945 -0.0033668918 0.32234123 0.45987567 0.081079826
-0.03269222 0.36079383 0.14445028 0.034202166 0.10977548 0.17651795 0.20392829 0.10050297
0.1690866 0.40454328 0.391346 0.018333051 0.054039553 0.10379838 0.29318342 0.19975375
-0.07756319 -0.008841273 -0.09199718 -0.17530358 -0.1489231 -0.016900208 0.20659563 -0.13070683
0.14876069 0.12880725 0.20387086 -0.06382187 0.11977735 0.19283605 -0.13259405 0.029126802
-0.10380648 0.23672296 0.24864346 -0.12577325 0.11422869 0.011664139 -0.028700186 0.02675604
0.29805315 -0.12768099 0.12515877 0.164292 0.033907212 0.03703801 0.16719966 0.13988869
-0.13347556 -0.21342295 -0.3190419 0.015911337 0.06186953 0.21337527 0.2042173 0.1234378
0.27497378 -0.21189332 -0.34303316 -0.08735587 -0.036520444 -0.27200076 0.23640972 -0.034573782
0.027288212 0.3492794 -0.2695991 0.14614551 0.13090481 0.36135894 -0.113421716 -0.03571141
-0.36243016 0.05201725 0.37161785 -0.34615448 -0.04475357 -0.35919845 0.29509658 0.32784295
0.12090747 0.24797313 0.22776608 0.34335396 0.32790828 0.19616282 0.007864368 0.07233247
0.3160047 -0.0056946715 0.12251475 0.37450987 0.03488172 0.2734913 0.13107052 0.15220429
-0.002298165 0.0029264328 0.031338297 0.31769514 0.11662151 0.055637423 0.16029257 0.2873363
0.12218489 0.22096603 0.18253107 0.07222813 0.112275645 0.2720333 0.23483136 -0.050462898
00000000: 5641 b53d d71e 8f3e 410b 503e a099 033e
00000010: 8e33 403e e187 a53e 23ad c63e 71fb 183e
00000020: 3754 b93e 42a0 033e fccd 043d b25a 8c3e
00000030: 12a7 5cbb e909 a53e d374 eb3e 2e0d a63d
00000040: 47e8 05bd f8b9 b83e c6ea 133e 9217 0c3d
00000050: f8d1 e03d 1fc1 343e 94d2 503e 80d4 cd3d
00000060: 0a25 2d3e 4c20 cf3e 815e c83e 322f 963c
00000070: 9458 5d3d 3f94 d43d 231c 963e 3f8c 4c3e
00000080: 73d9 9ebd fdda 10bc 0469 bcbd c882 33be
00000090: 4c7f 18be 4e72 8abc ce8d 533e 03d8 05be
000000a0: b954 183e 0ce6 033e 86c3 503e 0ab5 82bd
000000b0: d44d f53d d076 453e bcc6 07be 559b ee3c
000000c0: 7e98 d4bd 8167 723e 649c 7e3e b4ca 00be
000000d0: bbf0 e93d f21a 3f3c a71c ebbc 7c2f db3c
000000e0: 6c9a 983e cebe 02be 9f29 003e 293c 283e
000000f0: 4ae2 0a3d 2bb5 173d 6336 2b3e fb3e 0f3e
00000100: d1ad 08be 8c8b 5abe 7659 a3be 7e58 823c
00000110: e76a 7d3d 0c7f 5a3e 571e 513e f5cc fc3d
00000120: 5dc9 8c3e 90fa 58be 0ba2 afbe a2e7 b2bd
00000130: 7696 15bd af43 8bbe 6415 723e 3d9d 0dbd
00000140: 878b df3c c0d4 b23e e508 8abe 2ba7 153e
00000150: e90b 063e 0a04 b93e a549 e8bd 2146 12bd
00000160: 7290 b9be 0a10 553d b244 be3e 293b b1be
00000170: 854f 37bd dce8 b7be e616 973e 08db a73e
00000180: 569e f73d abec 7d3e 833b 693e 17cc af3e
00000190: 98e3 a73e e8de 483e 8dd9 003c 0c23 943d
000001a0: 5ecb a13e 5e9a babb 03e9 fa3d c2bf bf3e
000001b0: 22e0 0e3d 0d07 8c3e 5a37 063e 71db 1b3e
000001c0: d09c 16bb 65c9 3f3b 965c 003d f0a8 a23e
000001d0: 42d7 ee3d 11e4 633d bc23 243e be1d 933e
000001e0: 123c fa3d eb44 623e 6de9 3a3e 58ec 933d
000001f0: c6f0 e53d f347 8b3e a277 703e 2fb2 4ebd

bias_hh_l0 f4 [128]
0.34251055 0.26443577 0.23305213 0.33191168 0.05264492 0.32293826 0.28203076 0.34257242
0.42406654 0.12541023 0.1356586 0.32703048 0.2541256 0.3631349 0.330552 -0.029258704
0.263546 0.040794805 0.15812084 0.18875346 0.20508711 0.05628228 0.21464969 0.29760286
0.2655615 0.23514135 0.079491995 0.10789665 0.040782224 0.0097476 0.13184287 0.18231629
0.017666727 0.007180308 -0.15263261 -0.041430123 0.016337866 0.054593593 0.07615579 0.04931547
0.114489146 0.040414408 0.18088616 0.12866235 0.07624178 -0.04900531 -0.23349352 0.08092733
0.07230593 0.082293086 0.20076738 0.010380278 -0.16249081 -0.022442987 -0.043609895 -0.027858824
0.0067822067 0.104429536 0.12402161 -0.021409268 0.2028923 0.10238563 -0.07442078 -0.058115106
-0.2056148 0.009915318 -0.13457115 0.18517576 0.13459983 0.1809141 0.15132524 0.16866551
0.16761304 -0.14251894 -0.07208648 0.14045677 -0.061452117 -0.2037658 0.12766735 -0.10877284
0.23747534 0.13650133 -0.22232145 0.11837651 -0.08822331 0.36680886 -0.06818943 -0.21441232
-0.21114731 0.10567664 0.29913482 -0.24497247 -0.36693546 -0.08742716 0.24785542 0.15281934
0.32814735 0.35074076 0.39044303 0.09890953 0.30118263 0.28802642 0.1779625 0.2880359
0.3462722 0.13090792 -0.06360989 0.17471357 0.20476745 0.2789069 0.18106452 0.14914401
0.20163132 0.22536698 0.02492062 0.10122057 0.043351334 0.15991732 0.22985479 0.26304343
0.3185407 0.4045606 0.23407486 0.16125123 -0.055995405 0.22119024 0.27777636 0.03577241
00000000: 8b5d af3e 2064 873e 38a5 6e3e 54f0 a93e
00000010: 33a2 573d 2a58 a53e 5666 903e a765 af3e
00000020: 401f d93e 8a6b 003e 17ea 0a3e 8a70 a73e
00000030: c01c 823e d1ec b93e 1d3e a93e f3af efbc
00000040: 80ef 863e 7418 273d 6eea 213e 9648 413e
00000050: 5b02 523e 3f88 663d 21cd 5b3e 675f 983e
00000060: adf7 873e e5c8 703e b3cc a23d ebf8 dc3d
00000070: 430b 273d 66b4 1f3c d101 073e 1fb1 3a3e
00000080: d0b9 903c ca48 eb3b b94b 1cbe a2b2 29bd
00000090: fdd6 853c 889d 5f3d 91f7 9b3d 05ff 493d
000000a0: 4979 ea3d 9489 253d 393a 393e 10c0 033e
000000b0: a624 9c3d cbb9 48bd ed18 6fbe 3abd a53d
000000c0: 2215 943d 4789 a83d f795 4d3e 0b12 2a3c
000000d0: fe63 26be 5bda b7bc 4aa0 32bd 3038 e4bc
000000e0: 463d de3b 27df d53d 0bff fd3d 7d62 afbc
000000f0: 00c3 4f3e 8faf d13d ec69 98bd 1b0a 6ebd
00000100: b08c 52be dc73 223c 05cd 09be b79e 3d3e
00000110: 8ad4 093e 8c41 393e 01f5 1a3e a7b6 2c3e
00000120: c1a2 2b3e 7cf0 11be 14a2 93bd e6d3 0f3e
00000130: 37b5 7bbd fba7 50be 3bbb 023e 4bc4 debd
00000140: bc2c 733e 01c7 0b3e 3ca8 63be 626f f23d
00000150: 6cae b4bd 5fce bb3e e6a6 8bbd e78e 5bbe
00000160: 0037 58be ff6c d83d 3328 993e 10da 7abe
00000170: f7de bbbe 030d b3bd d0cd 7d3e ac7c 1c3e
00000180: ee02 a83e 4b94 b33e 26e8 c73e 1491 ca3d
00000190: 9c34 9a3e 3378 933e cd3b 363e 7179 933e
000001a0: 974a b13e ba0c 063e e745 82bd 1de8 323e
000001b0: 8fae 513e e3cc 8e3e fa68 393e 35b9 183e
000001c0: 7178 4e3e 9ac6 663e 5426 cc3c bb4c cf3d
000001d0: 2b91 313d 5ec1 233e 0e5f 6b3e a1ad 863e
000001e0: c417 a33e 9122 cf3e 52b1 6f3e 0b1f 253e
000001f0: 705b 65bd b27f 623e b438 8e3e 1786 123d

weight f4 [2, 33]
-0.31241053 0.23764466 -0.27199888 -0.3453657 0.29383406 -0.26204944 0.18036291 0.33733287
0.05297485 -0.17662217 0.17475738 0.23335402 0.20491208 0.017432662 0.2873865 -0.25318965
-0.26230243 -0.13057591 0.089426994 -0.33019495 -0.31452698 -0.008459875 -0.25759798 0.2876403
0.058335744 -0.2883585 -0.24221927 -0.16800623 0.17559996 -0.17560811 0.18609862 -0.29289466
0.022306444 0.100909784 0.26326698 0.20725018 -0.04252547 -0.29025155 -0.18668488 -0.23408794
-0.035802085 -0.26695132 0.2484136 0.13022265 0.120087266 -0.1108535 0.21212561 -0.005965889
0.23092376 -0.13220806 -0.19593349 0.18088524 -0.22540978 -0.2015624 -0.20441777 0.23702209
0.15079866 0.20669913 -0.06188214 -0.09528872 0.12865686 0.037767794 0.26444444 -0.045013208
-0.26819324 0.0027587865
00000000: 46f4 9fbe 1f59 733e 7043 8bbe c6d3 b0be
00000010: 6b71 963e 582b 86be 0eb1 383e e5b6 ac3e
00000020: 28fc 583d 71dc 34be 99f3 323e 5bf4 6e3e
00000030: 79d4 513e f1ce 8e3c 5324 933e 13a2 81be
00000040: 814c 86be b1b5 05be 8025 b73d 500f a9be
00000050: ae09 a1be 4a9b 0abc e2e3 83be 9745 933e
00000060: 76f1 6e3d baa3 93be 5408 78be d309 2cbe
00000070: 7ad0 333e 9dd2 33be a390 3e3e 4af6 95be
00000080: 01bc b63c caa9 ce3d eeca 863e 6439 543e
00000090: 302f 2ebd da9b 94be 522a 3fbe c0b4 6fbe
000000a0: 35a5 12bd d8ad 88be 2260 7e3e 1659 053e
000000b0: 50f0 f53d 2907 e3bd 7537 593e 817d c3bb
000000c0: 4777 6c3e 8d61 07be caa2 48be fb39 393e
000000d0: d2d1 66be 6066 4ebe e452 51be ebb5 723e
000000e0: f76a 1a3e f0a8 533e 2078 7dbd bc26 c3bd
000000f0: a0be 033e 67b2 1a3d 4365 873e c55f 38bd
00000100: a050 89be c2cc 343b

bias f4 [2]
0.06443318 -0.15810849
00000000: 8bf5 833d 31e7 21be
